dumpedit/agent_main_network.pth (torch, 65829 bytes, 33 tensors)

feature_layers.0.weight f4 [64, 14]
0	0x4057915a	3.3682466
1	0xc004e880	-2.0766907
2	0xc089df22	-4.308488
3	0xc128891a	-10.533472
4	0x4094e282	4.65265
5	0xc0cd7a05	-6.421145
6	0xc04fd403	-3.2473152
7	0x40a3d58b	5.1198173
8	0xc094bd38	-4.648098
9	0xc03084f1	-2.758114
10	0xbf2ba8c5	-0.67054397
11	0xc10cf98a	-8.810923
12	0x4087da9e	4.2454367
13	0x41389b40	11.537903
14	0xc0cd3954	-6.413248
15	0x3f959d81	1.1688691
16	0xc102c125	-8.172154
17	0xc03c4870	-2.9419212
18	0xc076cb79	-3.856169
19	0xc0f143c8	-7.539524
20	0xc0abc69f	-5.3679957
21	0xc041b9c7	-3.026964
22	0xc0bff121	-5.9981847
23	0xbf64616f	-0.8921117
24	0xc10425a3	-8.259189
25	0x3f93e02f	1.155279
26	0xbfd7d5bc	-1.6862102
27	0x3f524022	0.8212911
28	0xc0349ab9	-2.8219435
29	0x4022b574	2.542325
30	0xc10f84e9	-8.969949
31	0xc0ce949f	-6.455642
32	0x3fe4a422	1.7862589
33	0xbfbb2ceb	-1.4623083
34	0xbff17b16	-1.8865688
35	0xbf9abef8	-1.2089529
36	0xc09612ec	-4.68981
37	0x3fa96256	1.3233135
38	0x3ebc1642	0.3673573
39	0x40b9fc16	5.812022
40	0xc0366545	-2.849931
41	0x401d8ef4	2.4618502
42	0xbfbab03a	-1.458503
43	0xbcb64dce	-0.022253897
44	0xc0f0a1e0	-7.51976
45	0xc0417c75	-3.0232213
46	0xc006ba5a	-2.105124
47	0xc068edc2	-3.6395116
48	0xbf8e1940	-1.1101456
49	0xbfd15c0c	-1.6356215
50	0x40486166	3.1309447
51	0x3efa954c	0.4894203
52	0xbfacf229	-1.3511401
53	0xc00818eb	-2.1265209
54	0xc02a4c2d	-2.6608994
55	0x3fff0962	1.9924738
56	0xc0c48446	-6.1411467
57	0x3f58066a	0.8438479
58	0xc0b9efd2	-5.810525
59	0xc083809d	-4.10945
60	0xc0a62b66	-5.1927977
61	0xc01273bd	-2.288314
62	0xbd923b13	-0.07140174
63	0x40a40e2c	5.12673
64	0x3e41fdcf	0.18944477
65	0xc08a3af8	-4.3196983
66	0xc095d901	-4.6827397
67	0xc00da2b6	-2.213056
68	0xc08ac3a2	-4.336381
69	0x3fbd87a2	1.4807017
70	0xc0c252b6	-6.0725965
71	0xbd2278de	-0.03966605
72	0xc1c17aaa	-24.184895
73	0xc1a89f75	-21.07786
74	0x3fd3a5b8	1.6534948
75	0xc189552a	-17.166584
76	0xc1ead8f6	-29.355938
77	0xc1008413	-8.032245
78	0xc1675a27	-14.45951
79	0xbf9bbc8b	-1.2166914
80	0xc1aaec36	-21.365337
81	0xbec8df00	-0.39232635
82	0xc128a219	-10.539575
83	0x40968514	4.703745
84	0xc0552d39	-3.3308852
85	0x3d90797b	0.070544206
86	0xc02c82bb	-2.6954792
87	0xbf7b091e	-0.98060787
88	0xbcbe61b3	-0.023239946
89	0xc00e2dbb	-2.2215412
90	0xc113ee4d	-9.245679
91	0x412b8c85	10.721807
92	0x3f45a42f	0.7720365
93	0x3d6e9c77	0.058254685
94	0xc0c5e57e	-6.184264
95	0xbf6ded9b	-0.9294068
96	0x3df163a3	0.11786582
97	0x412afd8e	10.686903
98	0xbdc1b47b	-0.09458252
99	0xbefcf621	-0.4940653
100	0x4115c2f9	9.360101
101	0x401e873f	2.4770048
102	0x3f87c3cc	1.0606627
103	0xc2857ba6	-66.7415
104	0x40fd19a3	7.9093795
105	0x4168d871	14.552842
106	0x4105296a	8.322611
107	0xbee9a88e	-0.4563641
108	0xbf8ea8e6	-1.1145294
109	0xc08c5f6e	-4.386649
110	0xbf66f9ee	-0.9022511
111	0x40bdadf3	5.927484
112	0x40653e45	3.5819256
113	0x3f356cab	0.7086894
114	0x40982c49	4.755406
115	0xbfe8d971	-1.8191358
116	0xbe432822	-0.19058278
117	0x3e0714ca	0.13191524
118	0x4023fc23	2.5622642
119	0x4015c4de	2.3401408
120	0x3e7c016b	0.24609916
121	0xbe7e0712	-0.24807385
122	0xbf4bbae8	-0.7958207
123	0xbeed0481	-0.462925
124	0xbe19eee1	-0.15032531
125	0xc13ae6f4	-11.681385
126	0xc0c48a7e	-6.141906
127	0xc02b1144	-2.6729288
128	0xc11735f2	-9.45067
129	0xc0578586	-3.3675246
130	0xc0249a04	-2.5719004
131	0xc018249b	-2.3772342
132	0xbf55c573	-0.8350441
133	0x408bdb29	4.370503
134	0xbf8e663e	-1.1124952
135	0xc04e6b77	-3.2253091
136	0xc10e7ed2	-8.905962
137	0x40523cb8	3.284956
138	0x3d10ea85	0.035379905
139	0x411dfc9c	9.874172
140	0xbef3e5cf	-0.47636268
141	0x3f0e50bc	0.5559194
142	0xc09affd8	-4.843731
143	0xc120e41e	-10.055693
144	0x40c6b2e5	6.2093377
145	0xc0242643	-2.5648353
146	0x4036798b	2.8511684
147	0xbf5f865b	-0.87314385
148	0xc0cc3a48	-6.3821144
149	0x403ed0e4	2.9814997
150	0x3f6c6fe9	0.9235826
151	0xc018db62	-2.38839
152	0x3f95a10a	1.168977
153	0x40ca5bf8	6.3237267
154	0x40eb3c13	7.3510833
155	0xbf670271	-0.902381
156	0xc04b7b24	-3.179391
157	0xbfe3fbbc	-1.7811198
158	0x3f4784c7	0.7793698
159	0xc18d37a7	-17.652174
160	0x40654f63	3.5829704
161	0x40a7f9a0	5.249222
162	0x4107ac8d	8.479627
163	0x3f8f2c45	1.1185385
164	0xc043012b	-3.0469463
165	0x3fb808e8	1.4377718
166	0xbeee6fbc	-0.46569622
167	0x3ef96971	0.48713258
168	0x3c45ac30	0.0120649785
169	0xc042699a	-3.0376954
170	0xc08d946a	-4.424367
171	0x3faf5b55	1.3699747
172	0xc049c325	-3.1525357
173	0xbf9f7715	-1.2458216
174	0x4028e8ae	2.6392016
175	0xbe23c1d1	-0.15991904
176	0xbffd91e8	-1.9810152
177	0xc026f7d4	-2.6088762
178	0xc08a1926	-4.31557
179	0x40bac0d2	5.8360376
180	0x3f7426b2	0.95371544
181	0x4012adf7	2.291868
182	0xbf46fbed	-0.7772816
183	0xbf9291d1	-1.145075
184	0xc115743c	-9.340878
185	0xc0c1e611	-6.0593343
186	0x3ef186ae	0.47173065
187	0xbf6417dc	-0.89098907
188	0x4131fc6e	11.124128
189	0x3fd27550	1.6442051
190	0x402073ec	2.5070753
191	0x4054c52e	3.324535
192	0xc119556f	-9.583358
193	0xc0a624ea	-5.192006
194	0x4051215c	3.267661
195	0x4080b78e	4.0224066
196	0xc14a7382	-12.6532
197	0xc0273e14	-2.613164
198	0xc0cb024e	-6.3440313
199	0xc0cfe617	-6.496837
200	0x40acc7a6	5.399371
201	0xc0d3f44a	-6.6235704
202	0xbf4b3b37	-0.7938723
203	0xbe10f101	-0.14154436
204	0xbfdb6677	-1.7140645
205	0xbf93813d	-1.1523815
206	0xc0bfecc8	-5.997654
207	0x3e4b317a	0.19843093
208	0x3e399915	0.18124802
209	0x40951f33	4.6600585
210	0xc0497325	-3.1476529
211	0x3ef685b8	0.48148894
212	0xc1c2549e	-24.291317
213	0xc1bc500e	-23.53909
214	0xbf1988aa	-0.5997416
215	0xc1c33464	-24.400581
216	0xc21083ec	-36.12883
217	0xc100c72d	-8.048627
218	0xc192f3df	-18.369078
219	0xbf6b1045	-0.918217
220	0xc1cfac8a	-25.959248
221	0x3f391341	0.72295004
222	0xc128e296	-10.555319
223	0x40abf87f	5.374084
224	0xc01444f8	-2.3167095
225	0x402e9a31	2.728161
226	0x3cf64a2e	0.030064669
227	0xc0bdfa26	-5.9367857
228	0x4002f00f	2.045902
229	0xc1001ce5	-8.007054
230	0x3f9dfa0a	1.2341931
231	0xbf0d9ac2	-0.55314267
232	0xbf0cfeaa	-0.55076087
233	0x3facde13	1.3505272
234	0xbee8ff09	-0.45507076
235	0xc09a1250	-4.8147354
236	0xc072f054	-3.7959185
237	0xc00b6606	-2.178102
238	0xbf9480d1	-1.1601812
239	0x402e9436	2.727796
240	0xc0458820	-3.0864334
241	0xc088b0c3	-4.2715774
242	0x3faa8e1d	1.332462
243	0xc0a8959f	-5.2682643
244	0xc1482400	-12.508789
245	0x413d63ba	11.836847
246	0x400689b7	2.1021554
247	0x402600e4	2.5938044
248	0xc0dc360a	-6.8815966
249	0x3ea430fe	0.32068628
250	0x3f8ec4fa	1.1153862
251	0x412f9fdd	10.976529
252	0x3f759e1b	0.95944375
253	0xbfc41789	-1.5319682
254	0x41037ae5	8.217504
255	0x41142739	9.259576

feature_layers.0.bias f4 [64]
0	0xc1a8cec2	-21.100956
1	0xc1856382	-16.673588
2	0xc131faa9	-11.123696
3	0xc0fa0a6a	-7.8137712
4	0xc151b066	-13.105566
5	0xc22825c9	-42.0369
6	0xc1c1f273	-24.243383
7	0x3e54ca3c	0.20780271
8	0x4019f174	2.4053621
9	0xc1b0d685	-22.104746
10	0xc11a1755	-9.630696
11	0xc11b6a7b	-9.713496
12	0xc0da615a	-6.8243837
13	0xc0fbcf95	-7.8690896
14	0xc1845b8b	-16.544699
15	0xc2384480	-46.066895
16	0xc012e353	-2.2951248
17	0xc1cd626b	-25.673056
18	0x412ace95	10.675435
19	0xc0bf792f	-5.983543
20	0xc06da0aa	-3.7129312
21	0xc21bb109	-38.922886
22	0xc22c82ce	-43.12774
23	0xc0a1e143	-5.058748
24	0xc1a16570	-20.17453
25	0xc1c807da	-25.003834
26	0x3fc86985	1.5657202
27	0xc07be101	-3.9356081
28	0x4018432f	2.3791006
29	0xc14545ca	-12.329538
30	0xc1269913	-10.412372
31	0xc105613d	-8.33624
32	0xc173e337	-15.242972
33	0x40e48831	7.141625
34	0xc22836b7	-42.053432
35	0xc174bed9	-15.296594
36	0x3c94d447	0.018167628
37	0xc1bfd1ab	-23.977377
38	0xc0fe3f6c	-7.945242
39	0xc19e7bbc	-19.810417
40	0xc111c95e	-9.111662
41	0xc0f8c3e6	-7.7739134
42	0xc105c93e	-8.361631
43	0xc20d9a37	-35.4006
44	0xc15fd930	-13.990524
45	0xc17491ff	-15.285644
46	0xc1cd9718	-25.698776
47	0xc21b8aa3	-38.885387
48	0xc0bd0509	-5.9068646
49	0xc1b7d0e8	-22.977005
50	0xbf8140ab	-1.009786
51	0xc242dbb3	-48.71455
52	0x4075b058	3.8388882
53	0xc1a8b119	-21.086473
54	0xc0cdd6d8	-6.432476
55	0xc181ccc6	-16.224987
56	0xc03f0772	-2.9848294
57	0xc15a57fc	-13.646481
58	0xc0e53b74	-7.1635075
59	0xc178bd7f	-15.546264
60	0xc1fb466d	-31.409388
61	0xc12e5ae7	-10.897193
62	0xc199e1be	-19.235226
63	0xc21ed93f	-39.712154

feature_layers.1.weight f4 [32, 64]
0	0x3fd01eb8	1.6259375
1	0x408abfec	4.335928
2	0x41b798a5	22.949533
3	0x41f234c0	30.275757
4	0x3de113a8	0.10990077
5	0x3f06237d	0.523979
6	0xbdbd0cd9	-0.09230966
7	0xc0ae6c07	-5.450687
8	0x4014dea4	2.326089
9	0x4105453f	8.329406
10	0x4136aa49	11.416574
11	0x40722f3d	3.7841332
12	0x4050baa2	3.2613912
13	0xc1303d10	-11.014908
14	0x4154762b	13.27885
15	0x3ff846a0	1.9396553
16	0x418c9e55	17.57731
17	0xbd358c4a	-0.044323243
18	0xc06eaa3f	-3.729141
19	0x418fda60	17.981628
20	0xc1b540ba	-22.656605
21	0x3f80ce66	1.0062988
22	0x4009628f	2.1466405
23	0x41050425	8.313512
24	0xbe43bd6b	-0.19115226
25	0xc06e3bbd	-3.7223961
26	0xc03243b1	-2.7853816
27	0x411bb851	9.732499
28	0x3f71fc73	0.9452583
29	0xc0821085	-4.0645165
30	0xc1537007	-13.21485
31	0x418021b3	16.016455
32	0x40c94433	6.289575
33	0xc0d32b7e	-6.599059
34	0x3fddb226	1.7319992
35	0x4108eb06	8.557379
36	0x40f20a77	7.5637774
37	0x412e5b82	10.897341
38	0xc07b8f1b	-3.9306095
39	0x40d1c991	6.5558553
40	0xc10e4e97	-8.894187
41	0xc050be1f	-3.261604
42	0x41ae50b4	21.789406
43	0x406466e3	3.5687797
44	0xbf5fcf0f	-0.8742532
45	0xbd08c2aa	-0.03338877
46	0xbd1bb0f6	-0.03801056
47	0x3f2ea562	0.68221104
48	0x4135d27f	11.363891
49	0xc032a6ec	-2.791438
50	0xc13b676b	-11.712749
51	0x400d1cf0	2.2048912
52	0xc0baefad	-5.8417573
53	0x419270e2	18.305119
54	0x4116e976	9.431997
55	0x40932f86	4.599551
56	0x4181c4bd	16.221064
57	0x40bd7ace	5.921241
58	0xc043dc41	-3.0603182
59	0x40eb0cc4	7.3453083
60	0x3f560028	0.8359399
61	0x40f7629c	7.7307873
62	0x40e06a6f	7.0129924
63	0x4097be3d	4.7419724
64	0xc08e428f	-4.445625
65	0xbfd13f53	-1.634745
66	0xc0104f39	-2.2548354
67	0xc0250652	-2.5785108
68	0xc0836aae	-4.1067724
69	0xc06a7c48	-3.6638355
70	0xc09d591b	-4.917127
71	0xc06ed529	-3.7317603
72	0xc17e1b64	-15.881687
73	0xc0dfb37a	-6.9906588
74	0xc0f967cc	-7.7939205
75	0xc184f195	-16.61796
76	0x40ca236c	6.316824
77	0xc1bbfbdb	-23.497976
78	0xbe2e5403	-0.17024235
79	0xc06066a5	-3.506265
80	0xc10887d5	-8.533162
81	0xc0a784f0	-5.2349777
82	0xc0fd7623	-7.920671
83	0xc0bbf6b9	-5.8738675
84	0xc0dd5e92	-6.917794
85	0xc0808314	-4.0160007
86	0xc05489ce	-3.320911
87	0x3ff54d7b	1.916427
88	0xc0b42d8e	-5.630561
89	0xc0b45172	-5.634942
90	0xc0d1692d	-6.544089
91	0x4111238d	9.071179
92	0x40ed7c45	7.4214196
93	0xc0fcf768	-7.905201
94	0xc17d9af5	-15.850331
95	0x413cea1b	11.807155
96	0xc04697d3	-3.1030166
97	0x410e3c0e	8.889662
98	0xc0610a3e	-3.5162501
99	0xc0fdf954	-7.9366856
100	0x407cd77c	3.9506521
101	0x4010eadc	2.2643347
102	0xc1eab768	-29.339554
103	0xc11f2d34	-9.948536
104	0x409e3d47	4.94498
105	0xbfdaeaae	-1.7102869
106	0xbd8dd8a0	-0.069260836
107	0xc0a16f86	-5.0448637
108	0xc0aebc08	-5.460453
109	0xc105c61e	-8.360868
110	0xc00d2197	-2.2051752
111	0xc0805962	-4.010911
112	0xbfe3464f	-1.7755831
113	0xc0e49f6d	-7.144461
114	0xc00e422e	-2.2227893
115	0xc05d5089	-3.4580405
116	0xbf39ac4c	-0.7252853
117	0xc0869162	-4.205247
118	0xbffc878f	-1.9728869
119	0xc0a0351c	-5.006483
120	0x40e224d7	7.066997
121	0xc0fce360	-7.9027557
122	0xc156e9a2	-13.432039
123	0xc1327e51	-11.155839
124	0xc09142ff	-4.539428
125	0xc071ec1e	-3.7800364
126	0xc0e33c04	-7.101076
127	0xc01cc08c	-2.4492521
128	0x417a07da	15.626917
129	0x40eea03a	7.457059
130	0x40d6e56e	6.7155066
131	0x41685d4d	14.5227785
132	0x415e3ce0	13.889862
133	0x419061d1	18.047762
134	0x4197e3a1	18.986147
135	0xc185b380	-16.712646
136	0xc1a7a65f	-20.956236
137	0x41a26002	20.296879
138	0xc15bd7aa	-13.740152
139	0x413116c5	11.068059
140	0x420834d3	34.051586
141	0x41b17ae7	22.18501
142	0x41a67807	20.808607
143	0x41972f40	18.898071
144	0x421e2e25	39.545063
145	0x419863c3	19.048712
146	0xc1b72222	-22.891666
147	0x3f3f25af	0.74666876
148	0x40159a10	2.3375282
149	0x4194c4ec	18.596153
150	0x419b17f7	19.386702
151	0xc0541ea8	-3.314371
152	0x41bd1e8f	23.639921
153	0x418c0b5f	17.505552
154	0xc12c0f9a	-10.753809
155	0xc233721a	-44.861427
156	0xc15e7cbd	-13.905454
157	0x40dd1ac3	6.909517
158	0x41c663c5	24.798716
159	0xc0bec9e5	-5.9621453
160	0x41988986	19.06715
161	0xc1d0a6f0	-26.081512
162	0x419ba41f	19.455137
163	0x421d928d	39.393116
164	0xc1eda4cc	-29.705467
165	0x3f491417	0.7854628
166	0x415e3ec2	13.890322
167	0x415d5318	13.832787
168	0xc113a45f	-9.22763
169	0x41525b72	13.1473255
170	0xbe49baa2	-0.19700101
171	0x419096f4	18.073708
172	0x3fc46ca4	1.5345654
173	0x416ccd8c	14.800182
174	0x41a3f8bb	20.49645
175	0x4196264c	18.7687
176	0xc100d566	-8.052099
177	0x416086fe	14.032957
178	0x41183a22	9.514193
179	0x4192b866	18.340038
180	0xc1726e8b	-15.151988
181	0x419ec100	19.844238
182	0xc157c595	-13.485738
183	0x416265f2	14.149889
184	0xc0ff6273	-7.9807677
185	0x41c17855	24.183756
186	0x4187bdcf	16.96768
187	0x41bbafe9	23.460894
188	0x4197fc50	18.9982
189	0x4233aad4	44.916824
190	0x41c85789	25.042742
191	0x41546936	13.275686
192	0xc156101e	-13.378935
193	0xc10f107c	-8.9415245
194	0xc112464d	-9.142163
195	0x40799bec	3.9001417
196	0xc150a0bd	-13.039243
197	0xc11755da	-9.45846
198	0xc1811165	-16.133493
199	0xc0164f47	-2.3485887
200	0xc194281c	-18.519585
201	0xc13dcc9c	-11.862453
202	0xc155264c	-13.32185
203	0x408443fe	4.1333
204	0xc1033567	-8.200538
205	0xc12a1242	-10.629457
206	0xc132784c	-11.154369
207	0xc102c5b9	-8.173272
208	0xc1698390	-14.59462
209	0xc16f11b8	-14.941826
210	0xc13cbb78	-11.795769
211	0xc1380497	-11.501121
212	0xc08609d3	-4.1886992
213	0xc127c766	-10.486181
214	0xc10ba8a2	-8.72867
215	0xbf8dfeed	-1.1093422
216	0xc180ee52	-16.116367
217	0xc12618b8	-10.381035
218	0xc096d1af	-4.713096
219	0xc0442947	-3.0650194
220	0x40216135	2.521558
221	0xc1104548	-9.016914
222	0xc1859ac5	-16.700571
223	0x40d5e680	6.684387
224	0xc12e9c26	-10.913122
225	0x40c08307	6.0159945
226	0xc11e0e3c	-9.878475
227	0xc1d1c7de	-26.222591
228	0x40eba945	7.364413
229	0xc120827e	-10.031858
230	0xc1678fe4	-14.47263
231	0xc1093814	-8.576191
232	0x40c05d25	6.01137
233	0xbf1af6b2	-0.6053268
234	0x3fc3112b	1.5239614
235	0xc0b41ed4	-5.628763
236	0xc1a58e17	-20.69438
237	0xc1619b88	-14.1004715
238	0xc130eea1	-11.058259
239	0xc123bef7	-10.234122
240	0xc1b45441	-22.54114
241	0xc148294f	-12.510085
242	0x407f73a3	3.991433
243	0xc1182f85	-9.511601
244	0x407006e3	3.7504203
245	0xc0af2160	-5.472824
246	0x401acb69	2.4186652
247	0xc15a7029	-13.652383
248	0x414e71f9	12.902825
249	0xc177b23a	-15.481012
250	0xc179011e	-15.562773
251	0xc10d3da3	-8.827548
252	0xc14a072b	-12.62675
253	0xc176628e	-15.399061
254	0xc1248a36	-10.283743
255	0x409501bc	4.6564617

feature_layers.1.bias f4 [32]
0	0xc0fe2256	-7.9416914
1	0x3f5fb657	0.87387604
2	0xc1bf143d	-23.884882
3	0x414d653d	12.837216
4	0xc0eb4707	-7.3524203
5	0x41552e32	13.323778
6	0xc172ee4d	-15.183179
7	0xc0f18eb1	-7.5486684
8	0xc13e3bf3	-11.889636
9	0xc08c3931	-4.3819814
10	0xbfaec535	-1.3653933
11	0xc1250a2c	-10.314983
12	0xc0d8ad5b	-6.7711616
13	0xc038b0fb	-2.885802
14	0xbf8a99c7	-1.0828179
15	0xc0ec52fa	-7.385129
16	0xc0ab9ef9	-5.363156
17	0xc08f8d77	-4.4860187
18	0xc0e1a67e	-7.0515738
19	0x410ab27b	8.668574
20	0xc1147a91	-9.279923
21	0xc0e375c8	-7.1081276
22	0xc0bb22ff	-5.848022
23	0x401c75cb	2.4446895
24	0xc11a3501	-9.63794
25	0xc264f7f9	-57.24216
26	0xc0e2dc6a	-7.089406
27	0xc0caa1e3	-6.3322616
28	0xc165f9ba	-14.373468
29	0xc0c6be1c	-6.2107067
30	0xc235c5c8	-45.443146
31	0xc011a484	-2.2756662

value_stream.0.weight f4 [16, 32]
0	0xbedf42f9	-0.43605784
1	0xc0024b6d	-2.0358536
2	0x3e8fd3db	0.2809132
3	0x3e72668d	0.23671933
4	0xbf317372	-0.6931678
5	0xbddd5161	-0.108065374
6	0xbf240d34	-0.64082646
7	0x3e83ce8c	0.2574352
8	0xbf3e21dd	-0.7427042
9	0xbd4fa371	-0.05069298
10	0xbe005838	-0.12533653
11	0xbf58191e	-0.84413326
12	0xbe93fcbb	-0.28903756
13	0x3ecafcc0	0.39645958
14	0xbee043ec	-0.4380182
15	0x3f3e649b	0.7437226
16	0xbf376a0e	-0.716462
17	0xbe53285a	-0.20620862
18	0x3f18c756	0.5967916
19	0x3b8760f3	0.0041314303
20	0xbdd753ae	-0.105140075
21	0xbf469e40	-0.7758522
22	0x3e8dfd31	0.27732232
23	0x3e9b9264	0.30385125
24	0x3e3eabbf	0.18620203
25	0xbe8562b7	-0.26051876
26	0x3ec83077	0.39099476
27	0xbee93326	-0.45546836
28	0xbee0bcba	-0.43893987
29	0x3f3428f0	0.70374966
30	0xbf336d34	-0.70088506
31	0x3eab7e6c	0.3349489
32	0x3d0d8e5a	0.034559585
33	0xc0225894	-2.5366564
34	0xbe29b63c	-0.16573423
35	0xbe9e5692	-0.30925423
36	0xbed339bd	-0.41254988
37	0xbdcc7f5e	-0.09985231
38	0xbf9a7d9f	-1.2069587
39	0xbf1688ba	-0.5880238
40	0xbeee8649	-0.46586826
41	0xbd55bdc0	-0.052182913
42	0xbf29466f	-0.661231
43	0x3c86910d	0.016426587
44	0x3f09fc6c	0.5390079
45	0x3eb007fd	0.34381095
46	0xbf07c746	-0.5303844
47	0x3f414419	0.75494534
48	0xbf228ee6	-0.63499296
49	0xbe42343f	-0.18965243
50	0x3f0229cd	0.5084503
51	0x3e4a3fe3	0.19750933
52	0xbebe20b3	-0.37134323
53	0xc0040eaa	-2.063395
54	0x3d7b226d	0.061312128
55	0xbdbe374c	-0.09287891
56	0x3ead12b6	0.33803338
57	0x3eb9dbac	0.3630041
58	0x3ef95674	0.4869877
59	0xbf2e44db	-0.68073815
60	0xbec841d7	-0.39112732
61	0x3f6384b0	0.8887434
62	0xbfb5e093	-1.420916
63	0x3de09f85	0.10967926
64	0xc002ec35	-2.045667
65	0xc02c701b	-2.6943424
66	0xbeeedb40	-0.4665165
67	0xbf597ff3	-0.8496086
68	0x3e92da3e	0.2868213
69	0x3daabcad	0.08336768
70	0x3e0301a8	0.127936
71	0xc0a11d84	-5.034853
72	0xc08c3743	-4.381746
73	0xbf9a361d	-1.2047764
74	0x3e09b064	0.13446194
75	0xc09bb188	-4.8654213
76	0xc08e42f1	-4.4456716
77	0xbfa346a2	-1.275593
78	0x410cb2ae	8.793623
79	0xc090a9a9	-4.5207105
80	0xbf204b47	-0.62614864
81	0xbe1992a5	-0.14997347
82	0x3f3ad230	0.7297697
83	0x3faddaf5	1.3582445
84	0xc0407315	-3.007024
85	0x4099617d	4.7931504
86	0x3f51badd	0.81925756
87	0xc02f5aeb	-2.7399242
88	0xc03a4a02	-2.910767
89	0x4040d559	3.0130217
90	0xc020516e	-2.50497
91	0xc0abd648	-5.3699074
92	0x406e4a2a	3.7232766
93	0xc0c5a112	-6.175912
94	0xbf36128b	-0.71122044
95	0xc0554fbb	-3.3329914
96	0xbf30ccef	-0.69062704
97	0xc014f9c3	-2.3277442
98	0x3e5ad934	0.21371919
99	0xbd16e989	-0.03684381
100	0xbf0b7e7b	-0.5448987
101	0xbe03c48a	-0.12867942
102	0xbf1fa953	-0.62367743
103	0xbe93c9fd	-0.28865042
104	0xbf468541	-0.7754708
105	0x3d3df52f	0.046376403
106	0xbe42c1b2	-0.19019201
107	0xbe8d84d7	-0.2764041
108	0xbe952d8c	-0.29136312
109	0x3f5870b9	0.84547
110	0xbf6ccd3b	-0.92500657
111	0x3f4cb37f	0.7996139
112	0xbf0acd0f	-0.54219145
113	0xbe601226	-0.21881923
114	0x3eb88213	0.3603674
115	0xbdb83419	-0.08994312
116	0x3eb727de	0.35772604
117	0xbe102938	-0.14078224
118	0xbda0c500	-0.07850075
119	0x3e6e9c74	0.2330187
120	0x3f007eb3	0.5019333
121	0xbf2ff378	-0.6873088
122	0x3e8bb71d	0.27288142
123	0xbf6b524a	-0.9192244
124	0xbf149409	-0.58038384
125	0x3f43b54c	0.7644851
126	0xbf1c176d	-0.60973245
127	0x3e965c3d	0.29367247
128	0xbe46417c	-0.19360918
129	0xbfbf7700	-1.4958191
130	0x3dc00d5e	0.093775496
131	0x3e213763	0.15743785
132	0xbe9a5888	-0.3014567
133	0xbdaa8806	-0.08326726
134	0xbf13cd9e	-0.5773562
135	0x3ec8701b	0.3914803
136	0xbede3cef	-0.43405864
137	0x3e5c15d6	0.21492705
138	0x3dac6668	0.0841797
139	0xbc770cd7	-0.015078745
140	0xbdafa6b6	-0.085767195
141	0x3ef7dfcc	0.4841293
142	0xbfd6e0ce	-1.6787355
143	0x3f2e370c	0.68052745
144	0xbf0e6d28	-0.5563531
145	0xbe3ed3dc	-0.18635505
146	0x3edc587b	0.43036255
147	0xbdab56ef	-0.08366191
148	0xbd83e8e2	-0.06440903
149	0xbf1d7734	-0.61510015
150	0xbeda320d	-0.4261631
151	0x3e5c66f5	0.2152365
152	0x3eb0e0af	0.3454642
153	0xbde88d0a	-0.11355026
154	0x3eae7cf4	0.34079707
155	0xbf45970f	-0.7718362
156	0xbeae9eaa	-0.34105426
157	0x3f0c056b	0.5469577
158	0xbf3ddbf2	-0.74163735
159	0xbdca4ccf	-0.09877931
160	0xbf0a9617	-0.5413527
161	0xc000e44e	-2.0139346
162	0x3e94363e	0.28947634
163	0xbdff32aa	-0.12460835
164	0xbe5d32a1	-0.21601345
165	0xbde326b3	-0.11091366
166	0xbf2440bb	-0.6416127
167	0x3e623fff	0.22094725
168	0xbf547878	-0.8299632
169	0x3e9d12fe	0.30678552
170	0xbd5c881b	-0.053840738
171	0xbda3001c	-0.07959005
172	0xbe59b217	-0.21259342
173	0x3ed39634	0.41325533
174	0x3e8218e9	0.2540963
175	0x3f4d5bfd	0.8021849
176	0xbe59e581	-0.21278955
177	0xbdc695ca	-0.09696539
178	0x3f1d4c01	0.614441
179	0xbe9d8b46	-0.3077032
180	0x3d22c2d5	0.039736588
181	0xbf4bd8ea	-0.7962786
182	0xbea9821e	-0.33107084
183	0x3ea35025	0.31897083
184	0x3e637d61	0.22215797
185	0xbf60dafc	-0.87834144
186	0x3ecbac6a	0.3977998
187	0xbf413ca4	-0.75483155
188	0xbd6c6404	-0.05771257
189	0x3f63b7b5	0.8895219
190	0xbf0226c7	-0.5084042
191	0x3e54a7be	0.20767114
192	0xbe764f2d	-0.2405364
193	0xc018d3d3	-2.3879287
194	0xbe29f30e	-0.16596624
195	0xbd7ffa64	-0.06249465
196	0xbed70109	-0.41992977
197	0xbe0c3da3	-0.13695388
198	0xbfa6b37c	-1.3023524
199	0x3f775965	0.9662078
200	0xbf6da748	-0.92833376
201	0x3e203082	0.15643504
202	0xbe10462a	-0.14089265
203	0xbf6b4100	-0.9189606
204	0x3ea604ea	0.32425624
205	0x3f29650e	0.6616982
206	0xbf93865f	-1.1525382
207	0x3f7802ce	0.9687928
208	0xbf5dc7e0	-0.8663311
209	0xbe4ade0e	-0.1981127
210	0x3e98c63a	0.29838735
211	0x3e8770e6	0.26453322
212	0xbd4b4dd1	-0.04963476
213	0xbec95e6b	-0.39329848
214	0xbed6aacc	-0.41927183
215	0x3e895da5	0.26829258
216	0x3ec31669	0.38103035
217	0xbf06bec7	-0.52634853
218	0x3ef91723	0.48650464
219	0xbfbb15a0	-1.4615974
220	0xbf10fba7	-0.5663399
221	0x3f91b7ce	1.1384218
222	0xbfb42edf	-1.4076804
223	0xbd85ce84	-0.0653353
224	0xbf9aa388	-1.2081156
225	0xbfc8d31b	-1.5689424
226	0x3eba746a	0.36416942
227	0x3dec3db1	0.11535204
228	0xbf4da406	-0.80328405
229	0xbe15826e	-0.14600536
230	0x3f3b5384	0.7317431
231	0x3f5d72be	0.8650321
232	0x3d9ce771	0.076613314
233	0x3e71ac2d	0.23600836
234	0x3e74a196	0.23889765
235	0xbf265e25	-0.64987403
236	0xbfb79f58	-1.4345503
237	0x3f139c4e	0.5766038
238	0x3e2b1b2f	0.16709588
239	0x3eec9891	0.4621015
240	0xbf7c426c	-0.9853885
241	0xbe94c235	-0.29054418
242	0x3f6798c9	0.90467507
243	0xbe16f563	-0.14742045
244	0xbda9a322	-0.08283068
245	0x3f94ad59	1.1615402
246	0xbebbfb0a	-0.36714965
247	0xbdd749d3	-0.10512128
248	0x3f170c22	0.5900289
249	0xbdb76384	-0.08954528
250	0x3f2526af	0.6451215
251	0x3e37a9ed	0.17935915
252	0xc0d21185	-6.5646386
253	0x3f956b4e	1.1673372
254	0xbf0c9fe7	-0.5493149
255	0x3f3bca1f	0.7335529

value_stream.0.bias f4 [16]
0	0x41dbe13e	27.484982
1	0x41daecff	27.36572
2	0x4141f8d5	12.12325
3	0x41cf637b	25.923574
4	0x41cb5ca4	25.420235
5	0x41d9519b	27.164846
6	0x41d51f19	26.640184
7	0x41cbe3bf	25.486204
8	0x41eef035	29.867289
9	0x41bfe73f	23.987913
10	0x41873a2c	16.903404
11	0x41ea9d93	29.32694
12	0x41db1d9a	27.389454
13	0x41d2112e	26.258389
14	0x41d48d14	26.568886
15	0x41d5d6d4	26.729897

value_stream.2.weight f4 [1, 16]
0	0xbc11ebb3	-0.008906293
1	0xbb80af28	-0.0039271303
2	0xbe0435a6	-0.1291109
3	0x3b6b792c	0.0035930378
4	0xbc0d1bf4	-0.008612622
5	0x3abd6f29	0.0014452684
6	0xbbb18bb9	-0.0054182676
7	0xbbc74334	-0.0060810093
8	0x3ba76aa5	0.0051091486
9	0x3d9e20f8	0.07721132
10	0xbad22810	-0.0016033668
11	0x3abe283f	0.0014507844
12	0x3c1d24c0	0.009591281
13	0x3bde202e	0.0067787385
14	0xbc9154ae	-0.017740574
15	0xbcabdef6	-0.02098034

advantage_stream.0.weight f4 [16, 32]
0	0xc00a66b3	-2.1625183
1	0x3f7dd5d0	0.99154377
2	0xbd62cbec	-0.055370256
3	0xbfe41416	-1.781863
4	0xbfa92645	-1.3214804
5	0xbdcfe7b3	-0.10151615
6	0xbfe57d79	-1.7928916
7	0xbd6f4a92	-0.058420725
8	0xbf2fe117	-0.68702835
9	0xbe13246e	-0.14369366
10	0xbea6bdfa	-0.32566816
11	0x3e323a3a	0.17405024
12	0xbe738ec6	-0.23784932
13	0x3f184aa7	0.5948891
14	0x3f84c38d	1.0372177
15	0x3f83f874	1.0310197
16	0xbf6c051b	-0.9219529
17	0xbfbccc41	-1.4749833
18	0x3f6a1991	0.9144526
19	0x3f1323f9	0.57476765
20	0x3e2af490	0.16694856
21	0xbf4873d4	-0.7830174
22	0xbeeb179e	-0.45916456
23	0x3e7c35e7	0.24629937
24	0x3eef59a3	0.46748075
25	0xbf0a5591	-0.54036814
26	0x3d4deeec	0.05027668
27	0xbe9cf67e	-0.3065681
28	0xbf9a92de	-1.207607
29	0x3f31d3e4	0.69463944
30	0x3e9e7dd7	0.30955383
31	0x3e485b0f	0.19565986
32	0xbee3833e	-0.44436067
33	0xc03d2f95	-2.9560292
34	0xbf1cf891	-0.6131678
35	0xbe30a2b4	-0.17249566
36	0xbf264a24	-0.6495688
37	0xbdc5fa89	-0.096669264
38	0xbf9b3137	-1.2124394
39	0xbee660d4	-0.4499575
40	0xbfb8e9b4	-1.444632
41	0x3df93036	0.12167399
42	0xbdc4f9b8	-0.096179426
43	0x3d0f2726	0.034949444
44	0xbe037e4c	-0.12841147
45	0x3f365a2b	0.71231335
46	0xbe77ac07	-0.24186717
47	0x3f64acc6	0.8932613
48	0xbed04828	-0.4068005
49	0xbccd2358	-0.025041267
50	0x3eff9960	0.49921703
51	0x3de73a5d	0.11290429
52	0x3e5f5a1f	0.21811722
53	0xbf186a49	-0.5953718
54	0xbd0f7675	-0.03502508
55	0x3de81a69	0.11333162
56	0x3e4465ed	0.19179507
57	0xbf1ff134	-0.6247742
58	0x3ddaf6b2	0.10691585
59	0xbf8e9c1e	-1.1141393
60	0x3daeff69	0.08544809
61	0x3f77c601	0.96786505
62	0xbe87d49f	-0.26529405
63	0x3ec8f976	0.39252824
64	0xbf6ca5d9	-0.92440563
65	0xbf89fde0	-1.0780602
66	0x3e0e5654	0.13900119
67	0xbf858400	-1.0430908
68	0xbf33ef4d	-0.7028702
69	0xbe00266e	-0.1251466
70	0xbf7f4770	-0.9971838
71	0x3e734f43	0.23760705
72	0xbf78872f	-0.97081274
73	0x3e2e9d91	0.17052294
74	0x3d0f9da0	0.035062432
75	0x3e3ac044	0.18237406
76	0xbf43a533	-0.7642395
77	0x3f23c0ec	0.6396625
78	0xbfb1a2d4	-1.3877816
79	0x3f569cb5	0.83832866
80	0xbd76e1c3	-0.060273897
81	0xbeb52f4e	-0.35387653
82	0x3f223c1d	0.63372976
83	0x3ea25b27	0.3171017
84	0x3d1849bd	0.037179697
85	0xbe8295b1	-0.2550483
86	0xbed681a1	-0.41895774
87	0x3c3d80a8	0.011566319
88	0x3ee1cdf8	0.44102454
89	0xbf1a7f3e	-0.60350406
90	0x3ec41af5	0.38301817
91	0x3f0817cc	0.5316131
92	0xbfa2cb0c	-1.2718215
93	0x3f8a5e1c	1.080997
94	0xbf1d4fd0	-0.6144991
95	0x3ed0dd44	0.40793812
96	0xbf2400c0	-0.64063644
97	0xbf993792	-1.1970084
98	0x3dbac36d	0.09119306
99	0xbf878321	-1.0586892
100	0xbfaeacb9	-1.3646461
101	0xbdf37127	-0.118868165
102	0xbfdfdd4f	-1.7489413
103	0xbc09ef4b	-0.008418868
104	0xbf07ecaa	-0.53095496
105	0x3ebdd60e	0.37077373
106	0xbd0504ab	-0.032475155
107	0x3e390a9a	0.1807045
108	0xbf0a0e09	-0.53927666
109	0x3f0804db	0.5313241
110	0xbe033315	-0.12812455
111	0x3f931a5d	1.149242
112	0xbf534187	-0.8252186
113	0xbed0ad49	-0.40757206
114	0x3f11a962	0.5689908
115	0x3e327494	0.17427284
116	0x3f1699d3	0.5882847
117	0xbee43b95	-0.44576707
118	0xbf520a5d	-0.82047063
119	0xb9afae22	-0.0003350834
120	0x3f3db41f	0.7410297
121	0xbf3f03df	-0.7461528
122	0x3ea1dfcf	0.31616065
123	0xbe558de6	-0.20854911
124	0xbf34e8bc	-0.70667624
125	0x3f85374e	1.0407503
126	0xbe46e423	-0.19422965
127	0x3e18aecd	0.14910431
128	0xbf598e09	-0.84982353
129	0xc051e290	-3.2794533
130	0xbe8415ba	-0.25797826
131	0x3e279246	0.16364393
132	0xbe9d5646	-0.30729884
133	0xbddeaab6	-0.10872404
134	0xbfa1aa66	-1.2630126
135	0xbc91ad55	-0.017782846
136	0xbf34bd59	-0.7060142
137	0x3dc882ea	0.09790595
138	0xbe35d4a8	-0.17756903
139	0xbc6ecde6	-0.014575457
140	0xbeb1ccf2	-0.34726673
141	0x3f346760	0.7047024
142	0x3fc18b1c	1.5120578
143	0x3f49e391	0.78862864
144	0xbe106e89	-0.14104666
145	0xbd71e8a4	-0.059059754
146	0x3e9037e6	0.28167647
147	0xbc213f97	-0.009841821
148	0x3e532e29	0.20623077
149	0x3e9620b9	0.2932184
150	0x3d820f28	0.06350547
151	0x3bc58167	0.006027389
152	0x3eede3d8	0.46462893
153	0xbf587002	-0.8454591
154	0x3eebbe48	0.4604361
155	0x3e19416e	0.14966366
156	0x3e678eda	0.22613087
157	0x3f60d54a	0.87825453
158	0xbf9b4340	-1.2129898
159	0x3e83f5d9	0.25773504
160	0xbf182084	-0.59424615
161	0xc036b6b0	-2.8549004
162	0xbe9e4267	-0.30910036
163	0xbf0249f7	-0.5089411
164	0xbea78ef9	-0.32726267
165	0xbdd3102e	-0.103058204
166	0xbf76122f	-0.96121496
167	0x3ef31547	0.4747717
168	0xbf03c937	-0.51478904
169	0x3b38e1f5	0.0028210853
170	0x3cc06de9	0.02348991
171	0x3eb74dd6	0.35801572
172	0x3e5b9c1d	0.21446271
173	0x3f020885	0.5079425
174	0x3e33247a	0.17494383
175	0x3f425092	0.7590419
176	0x3dfbf5cd	0.12302742
177	0xbd07c312	-0.033145018
178	0x3eebfa68	0.46089482
179	0x3e8f403d	0.27978697
180	0xbdd8d0a7	-0.10586672
181	0x3e336f46	0.17522916
182	0xbdd8cfab	-0.105864845
183	0x3e4adddf	0.198112
184	0x3e8104db	0.25199017
185	0xbf8b9c8a	-1.0907147
186	0x3e8ba67f	0.27275464
187	0xbf95b001	-1.1694337
188	0xbc958419	-0.018251466
189	0x3f37ae31	0.7175017
190	0xbf2c4b5c	-0.6730249
191	0x3dbf90c4	0.09353784
192	0xbf0bda49	-0.5462995
193	0xc0c1aa28	-6.052021
194	0xbe1db0d7	-0.1539949
195	0x3f5fc4cd	0.8740967
196	0xbcc2e3f5	-0.023790339
197	0xbdf3bb8d	-0.11901007
198	0xbf5dfe6a	-0.8671633
199	0x3f832e36	1.0248477
200	0xbfc7d1b6	-1.5610874
201	0x3e2256f3	0.15853481
202	0xbe274b8e	-0.16337416
203	0xbeb5964b	-0.35466227
204	0x3deb2beb	0.11482986
205	0x3f057a66	0.5213989
206	0xbd80f21f	-0.06296181
207	0x3f8256e3	1.0182766
208	0xbd29cb0d	-0.04145341
209	0xbe6b48a2	-0.22976926
210	0x3f251fea	0.6450182
211	0xbe98688e	-0.2976727
212	0xbeb62e2a	-0.35582095
213	0xbf941582	-1.1569064
214	0xbe4c5efd	-0.1995811
215	0xbe557924	-0.20846993
216	0x3f17d6b0	0.5931196
217	0xbee78d5c	-0.45225036
218	0x3e88bdb1	0.26707223
219	0xbfa6ac80	-1.3021393
220	0xbdd2a2c4	-0.10284951
221	0x3f786f16	0.97044504
222	0xbfccf3a7	-1.6011857
223	0x3e948055	0.2900416
224	0xbef9503d	-0.4869403
225	0xc00c3134	-2.1905031
226	0x3d986f49	0.07443101
227	0x3e71cfeb	0.2361447
228	0xbf6a6de4	-0.9157393
229	0xbdefb233	-0.11703911
230	0xbfba5671	-1.455763
231	0xbe91fcfa	-0.28513318
232	0xbf5652ec	-0.8372028
233	0x3e258627	0.16164456
234	0x3eace149	0.3376563
235	0x3f1298ca	0.5726439
236	0x3e9e630a	0.30934936
237	0x3ded7f6e	0.11596571
238	0x3e997635	0.29972997
239	0x3ecab243	0.39589128
240	0xbe927f37	-0.28612682
241	0x3eb75a42	0.3581105
242	0x3f090bbd	0.53533536
243	0xbfab9523	-1.3404888
244	0x3e5b0e62	0.21392205
245	0xbf93fdfd	-1.1561886
246	0x3d9ffee7	0.07812291
247	0xbe46f4de	-0.19429347
248	0x3ea5d686	0.3239023
249	0xbeb76838	-0.358217
250	0x3f5667af	0.8375196
251	0xbfb7862e	-1.4337823
252	0xbeaa1bf3	-0.3322445
253	0x3f13ea86	0.5777973
254	0xbf5556ca	-0.83335555
255	0x3e66d416	0.22541842

advantage_stream.0.bias f4 [16]
0	0x41e76a4e	28.926907
1	0x41d5c669	26.72188
2	0x41e02ced	28.021936
3	0x41de8082	27.812748
4	0x41deebbc	27.865105
5	0x41e2ab31	28.33359
6	0x41de9619	27.82329
7	0x41d867d8	27.050705
8	0x41d2377b	26.27709
9	0x41ce7707	25.808119
10	0x41dc0845	27.504038
11	0x41dedc65	27.857615
12	0x41de54e3	27.791449
13	0x41e9b2eb	29.212362
14	0x41e01f34	28.015236
15	0x41f2eadd	30.36468

advantage_stream.2.weight f4 [3, 16]
0	0x3f4d4b4d	0.80193025
1	0x3f41b255	0.7566274
2	0x3e00a907	0.12564479
3	0x3f475e25	0.7787803
4	0x3dc51bf0	0.09624469
5	0x3e96d1e7	0.29457018
6	0x3ec12c1f	0.37728974
7	0x3f1b1567	0.6057953
8	0x3ef88ef2	0.4854656
9	0xbf95d332	-1.1705077
10	0xbf076bff	-0.52899164
11	0x3f9d2115	1.2275721
12	0x3f0f024e	0.5586289
13	0x3f8c3872	1.0954726
14	0xbf44ec9c	-0.7692354
15	0x3e7f7ded	0.2495038
16	0x3f4c6570	0.7984228
17	0x3f4239ac	0.7586925
18	0x3dbe412b	0.092897736
19	0x3f40e61a	0.7535111
20	0x3dbe3f8a	0.09289463
21	0x3e95ded6	0.29271573
22	0x3ec5df74	0.38647044
23	0x3f1e2069	0.61768204
24	0x3ef99bb2	0.487516
25	0xbf959eff	-1.1689147
26	0xbf02625a	-0.5093132
27	0x3fa3e9dc	1.2805743
28	0x3f0c4c3a	0.5480381
29	0x3f8d79e4	1.1052823
30	0xbf496a86	-0.78678167
31	0x3e8773b7	0.2645547
32	0x3f40b631	0.75278
33	0x3f4260c0	0.7592888
34	0x3ddef88c	0.1088725
35	0x3f378c27	0.7169823
36	0x3dba8b80	0.09108639
37	0x3e924a40	0.28572273
38	0x3ec41a24	0.38301194
39	0x3f186e03	0.59542865
40	0x3ef3f201	0.47645572
41	0xbf972154	-1.1807046
42	0xbef9af3b	-0.48766503
43	0x3fa23be4	1.2674527
44	0x3f10e1a5	0.56594306
45	0x3f8bd557	1.0924481
46	0xbf4a4008	-0.79003954
47	0x3e7f812a	0.24951616

advantage_stream.2.bias f4 [3]
0	0xbecbbb17	-0.39791176
1	0xbec5f6db	-0.38664898
2	0xbed842cb	-0.4223846

exp_avg f4 [64, 14]
0	0x35414a87	7.2006554e-07
1	0xb2b5cd4e	-2.1164535e-08
2	0x34a6cc90	3.1068748e-07
3	0x3419753e	1.4291888e-07
4	0x3431220d	1.6496797e-07
5	0xb439231e	-1.7242243e-07
6	0x3432b555	1.664351e-07
7	0x34e09db8	4.1838007e-07
8	0x33f8d3c7	1.1586922e-07
9	0xb353a176	-4.9274114e-08
10	0x348b44af	2.5940741e-07
11	0xb4259473	-1.5420828e-07
12	0x351ab661	5.7634867e-07
13	0x3508699a	5.081762e-07
14	0xb5abb8c5	-1.2794268e-06
15	0x358bc86f	1.0414641e-06
16	0xb3b9acac	-8.646143e-08
17	0x346695ab	2.1474868e-07
18	0x3467e9eb	2.159865e-07
19	0x35548581	7.917043e-07
20	0x34e687f7	4.2939766e-07
21	0xb49e6f36	-2.951071e-07
22	0x34a0ce33	2.9952352e-07
23	0x358bb0cc	1.0407762e-06
24	0x343ecdd6	1.7770012e-07
25	0x34c8d4f5	3.740785e-07
26	0xb51099c5	-5.3867944e-07
27	0xb4e68b08	-4.2941997e-07
28	0xb7067218	-8.013587e-06
29	0x35a63764	1.2384085e-06
30	0xb6630fb8	-3.3834785e-06
31	0x35d310be	1.5725598e-06
32	0xb612914f	-2.1840276e-06
33	0x3657d16b	3.2159394e-06
34	0x3600f161	1.9213987e-06
35	0xb6bda68a	-5.6520266e-06
36	0xb5690bf1	-8.681664e-07
37	0x35abde48	1.2805185e-06
38	0xb54b641b	-7.5769066e-07
39	0x3689b9ca	4.104547e-06
40	0xb6c3e980	-5.838636e-06
41	0xb6c0b2ea	-5.7428742e-06
42	0xb64a96cb	-3.0188119e-06
43	0x35c444ff	1.4623218e-06
44	0xb5aed747	-1.3026664e-06
45	0x34e5974d	4.276466e-07
46	0xb587fced	-1.0131895e-06
47	0x35af7a7d	1.3074165e-06
48	0x359f5c24	1.187324e-06
49	0xb6180d6e	-2.2657582e-06
50	0x342b0477	1.592724e-07
51	0x35b48ebc	1.3452586e-06
52	0xb432a8a1	-1.6638889e-07
53	0x35c490ef	1.4645319e-06
54	0xb6129bb5	-2.1846329e-06
55	0xb61397cc	-2.1993064e-06
56	0xb6290274	-2.518439e-06
57	0x34056ea6	1.2426844e-07
58	0xb5ac49b4	-1.2836449e-06
59	0xb449c858	-1.8792468e-07
60	0xb4ce336a	-3.84079e-07
61	0x352b8fb7	6.3911597e-07
62	0xb493a64d	-2.7501883e-07
63	0xb5fa36f3	-1.8642444e-06
64	0xb5033b3d	-4.8887506e-07
65	0x3460d4cf	2.0939045e-07
66	0xb550fda4	-7.7855134e-07
67	0x354d2de4	7.643523e-07
68	0xb60c343e	-2.0892035e-06
69	0xb606f534	-2.0110283e-06
70	0xb59fc9b5	-1.1905128e-06
71	0x350ac97d	5.170221e-07
72	0xb4bf278c	-3.5605296e-07
73	0x34cd9f24	3.8300016e-07
74	0xb45d5dae	-2.061631e-07
75	0x35234be6	6.083268e-07
76	0x350daa9c	5.277486e-07
77	0xb53646fe	-6.790359e-07
78	0xb407508b	-1.2602156e-07
79	0x35086fa1	5.082639e-07
80	0x336f1c1e	5.5672096e-08
81	0x354d9b5d	7.6594534e-07
82	0xb53676a6	-6.797294e-07
83	0xb537aa20	-6.8420377e-07
84	0xb53f53b8	-7.127487e-07
85	0x34199e35	1.4306791e-07
86	0xb4d6c0b8	-4.0000828e-07
87	0xb292c201	-1.708486e-08
88	0xb2c4c9f7	-2.2909246e-08
89	0x348794ce	2.525398e-07
90	0xb2861bef	-1.5612356e-08
91	0xb530f127	-6.591603e-07
92	0x348079d7	2.3930508e-07
93	0x341eba01	1.4782565e-07
94	0xb3f1d96b	-1.1261985e-07
95	0x328de720	1.6519664e-08
96	0xb530f23f	-6.5917624e-07
97	0xb5331d6b	-6.6725505e-07
98	0x376476b4	1.3617497e-05
99	0x36d48c73	6.334443e-06
100	0x3701712e	7.715351e-06
101	0xb5c993ba	-1.5018661e-06
102	0xb6960881	-4.4713383e-06
103	0xb605f0c0	-1.995868e-06
104	0x378fa93b	1.7125732e-05
105	0x372c0cef	1.025501e-05
106	0xb509c52e	-5.132341e-07
107	0x3680a272	3.8336084e-06
108	0x36fad08d	7.474859e-06
109	0xb6c8485d	-5.9688887e-06
110	0x372a338c	1.0144791e-05
111	0x37164386	8.956418e-06
112	0xb86bbe94	-5.6205856e-05
113	0xb85ab636	-5.2144947e-05
114	0xb83c04b4	-4.4827073e-05
115	0xb785da6f	-1.5956552e-05
116	0x370ed025	8.512322e-06
117	0xb63f8624	-2.8539298e-06
118	0xb8844224	-6.30657e-05
119	0xb86eec17	-5.6963498e-05
120	0xb820d673	-3.8346694e-05
121	0xb82bf04d	-4.0993375e-05
122	0xb82f3bdb	-4.1778996e-05
123	0x35f559d1	1.8280062e-06
124	0xb88bce52	-6.666467e-05
125	0xb880dbcd	-6.144457e-05
126	0xb6ada001	-5.1744287e-06
127	0x35d34556	1.5740904e-06
128	0xb5e74868	-1.7231914e-06
129	0x35873147	1.0072625e-06
130	0xb55e3794	-8.278232e-07
131	0x3626dcf8	2.4864548e-06
132	0x35b25728	1.3287399e-06
133	0xb652e939	-3.1428192e-06
134	0x352bb128	6.396026e-07
135	0x35d374c1	1.5754705e-06
136	0xb2c78163	-2.3225487e-08
137	0x36047178	1.973558e-06
138	0xb66b0e46	-3.5026037e-06
139	0xb65f9d07	-3.3320991e-06
140	0xb6403191	-2.863908e-06
141	0xb2d03fb8	-2.4243363e-08
142	0xb5aab6a6	-1.2719145e-06
143	0x35c7c5d2	1.4884229e-06
144	0xb5b1b1b6	-1.3239248e-06
145	0x35b77472	1.3668453e-06
146	0x35e72e32	1.7224286e-06
147	0xb61c3880	-2.3278699e-06
148	0xb54e8412	-7.693317e-07
149	0xb33bda22	-4.373772e-08
150	0x3431165c	1.6492544e-07
151	0x3622e42e	2.42727e-06
152	0xb60a9b5a	-2.065403e-06
153	0xb611c9de	-2.1724186e-06
154	0x392f23c6	0.00016702627
155	0x382fc7c1	4.1909287e-05
156	0x390adbe1	0.00013242617
157	0x38118af6	3.470011e-05
158	0x381fd89b	3.8110284e-05
159	0x35a267ec	1.2100186e-06
160	0x38721b88	5.7722937e-05
161	0x3936a06a	0.00017416631
162	0x387fbc73	6.0972245e-05
163	0x3815f84f	3.5755624e-05
164	0x38d0fac9	9.964925e-05
165	0xb8452208	-4.7000154e-05
166	0x393807d1	0.00017550519
167	0x39374998	0.00017479656
168	0x36034321	1.9559595e-06
169	0xb438ac7b	-1.7199083e-07
170	0x351d0e30	5.8507703e-07
171	0xb595f46c	-1.1172501e-06
172	0x35a4f6f0	1.229082e-06
173	0xb5651b49	-8.5348853e-07
174	0xb5e5c185	-1.7118151e-06
175	0x35849e88	9.880905e-07
176	0x36172fe1	2.2528623e-06
177	0xb4374e51	-1.7071694e-07
178	0x30cef348	1.5057617e-09
179	0xb635eb2e	-2.7107994e-06
180	0x3583889a	9.800017e-07
181	0x358369b0	9.79102e-07
182	0x38705292	5.729736e-05
183	0x38872fad	6.446182e-05
184	0x3854c17c	5.0724935e-05
185	0x373e9a6e	1.13608385e-05
186	0x355884fe	8.06598e-07
187	0x36aa2437	5.0706108e-06
188	0x3888f45b	6.5305e-05
189	0x38899558	6.5604865e-05
190	0x38329ec5	4.2586373e-05
191	0x385ea7c6	5.3085176e-05
192	0x383e0cfd	4.5311626e-05
193	0xb7938800	-1.7587095e-05
194	0x388afb4b	6.62716e-05
195	0x388a4ec6	6.5950255e-05
196	0xb4f5dbc7	-4.5794715e-07
197	0xb52fb4d6	-6.545573e-07
198	0xb5876330	-1.0087151e-06
199	0xb5b1e8f4	-1.3255326e-06
200	0xb4943da6	-2.7612003e-07
201	0xb51b9e04	-5.797194e-07
202	0xb5b280d1	-1.3299524e-06
203	0xb59ee0cc	-1.1837342e-06
204	0x34554154	1.9860937e-07
205	0xb5293495	-6.3033923e-07
206	0xb5924dab	-1.0900452e-06
207	0xb59cf01f	-1.169279e-06
208	0xb5b30404	-1.3337708e-06
209	0xb5ae13d0	-1.2969776e-06
210	0xb51cf56d	-5.847167e-07
211	0x35047ed8	4.9358414e-07
212	0xb3a3931a	-7.6170366e-08
213	0x34c8dd00	3.7413702e-07
214	0xb34406fc	-4.564116e-08
215	0x34d88578	4.0330247e-07
216	0x35061fa5	4.996494e-07
217	0xb480cafe	-2.3989554e-07
218	0xb3ef2960	-1.1136831e-07
219	0x34ffc26b	4.763891e-07
220	0x3439a112	1.7288065e-07
221	0x352046d5	5.970772e-07
222	0xb43dc107	-1.767222e-07
223	0xb45f2c1e	-2.0784543e-07
224	0xb6baee2b	-5.5709584e-06
225	0x366d7645	3.5384594e-06
226	0xb58f9548	-1.0697777e-06
227	0x36501752	3.100799e-06
228	0xb5a61199	-1.2373085e-06
229	0x367e8819	3.7928169e-06
230	0x3695da7f	4.4659823e-06
231	0xb641c2ac	-2.8872555e-06
232	0x34799c8c	2.3246884e-07
233	0x365d2ec3	3.2958785e-06
234	0x35d83dfa	1.6111292e-06
235	0x3691b329	4.3421937e-06
236	0xb62b2b06	-2.5506029e-06
237	0xb639b427	-2.767201e-06
238	0xb524b4b6	-6.135773e-07
239	0x34193962	1.4270111e-07
240	0xb4cc5483	-3.805945e-07
241	0x32d2b0f6	2.452769e-08
242	0xb371ed0a	-5.632777e-08
243	0x34584595	2.0141881e-07
244	0x336e9641	5.555035e-08
245	0xb526cf61	-6.2141595e-07
246	0x33b4f4d2	8.426436e-08
247	0x3418bb14	1.4224162e-07
248	0xb3e3749f	-1.05917245e-07
249	0x340e5fc9	1.3259627e-07
250	0xb51790de	-5.6462693e-07
251	0xb5209abc	-5.9829813e-07
252	0xb85ee201	-5.3139407e-05
253	0x37a7e7e6	2.0015937e-05
254	0xb78539b5	-1.5881707e-05
255	0x37cdb0ea	2.4520286e-05

exp_avg_sq f4 [64, 14]
0	0x3074edfe	8.910489e-10
1	0x2e91a2b3	6.622738e-11
2	0x3016f0cb	5.491187e-10
3	0x2eb8fe9b	8.412578e-11
4	0x2e952438	6.782169e-11
5	0x2e9327d6	6.691862e-11
6	0x2db62170	2.0705854e-11
7	0x307f0847	9.278022e-10
8	0x2f2905af	1.537248e-10
9	0x2e8b8942	6.34537e-11
10	0x2feab5b2	4.2693454e-10
11	0x2f00c2eb	1.1710781e-10
12	0x307f0a8a	9.2783436e-10
13	0x307ebb2f	9.2670666e-10
14	0x30933ed2	1.0713512e-09
15	0x2f32976e	1.6242804e-10
16	0x2f84541d	2.4070426e-10
17	0x2fa0e559	2.9266792e-10
18	0x2ed7b161	9.808577e-11
19	0x306c7555	8.602304e-10
20	0x2ec0d7f0	8.769507e-11
21	0x2fb2f37f	3.2551026e-10
22	0x30bc255a	1.3689416e-09
23	0x2f224b94	1.4760665e-10
24	0x2fe625a2	4.1863496e-10
25	0x300ed302	5.195916e-10
26	0x2fb34ddf	3.261524e-10
27	0x2fb29e69	3.2490569e-10
28	0x31ad7b41	5.048975e-09
29	0x30c50ea2	1.4337795e-09
30	0x3133c408	2.615936e-09
31	0x314caebc	2.9785232e-09
32	0x30986e8c	1.1090875e-09
33	0x311cfc45	2.2844386e-09
34	0x2fd034e8	3.7872572e-10
35	0x3190df05	4.216306e-09
36	0x31ace744	5.0321507e-09
37	0x30bb0e56	1.3610115e-09
38	0x311c4709	2.2741367e-09
39	0x30df993a	1.6268935e-09
40	0x3190e12e	4.2165516e-09
41	0x3190d36d	4.214988e-09
42	0x31368666	2.6560882e-09
43	0x304a31d0	7.355796e-10
44	0x30c55476	1.4357642e-09
45	0x30b09cb5	1.2850224e-09
46	0x2fda7edd	3.974411e-10
47	0x3066b3e5	8.392916e-10
48	0x3010cac8	5.2675064e-10
49	0x31220d62	2.358171e-09
50	0x3113fbbe	2.1534414e-09
51	0x3034ac5a	6.5728545e-10
52	0x309622c3	1.0923816e-09
53	0x30320096	6.4756855e-10
54	0x31221382	2.3585192e-09
55	0x3121f176	2.3565838e-09
56	0x312205b0	2.3577336e-09
57	0x2fe0f1d1	4.0917184e-10
58	0x3092eb59	1.0689788e-09
59	0x30429e1c	7.0801476e-10
60	0x2f839f5f	2.3942e-10
61	0x3085dde9	9.740094e-10
62	0x2f98918a	2.775205e-10
63	0x30ed0875	1.7246423e-09
64	0x30f73d18	1.7988979e-09
65	0x2fca25ae	3.677036e-10
66	0x307944db	9.068352e-10
67	0x3036f552	6.6559835e-10
68	0x30ed0e20	1.7248034e-09
69	0x30ece455	1.7236156e-09
70	0x2faf13ad	3.1846295e-10
71	0x2e96c27a	6.855756e-11
72	0x2ed2f37e	9.592947e-11
73	0x2f111f6a	1.3198834e-10
74	0x2e261b02	3.7768018e-11
75	0x2f76393d	2.2393905e-10
76	0x2e036e32	2.9883825e-11
77	0x2f1b2f8f	1.4114064e-10
78	0x2fd10092	3.8017284e-10
79	0x2e89a758	6.259765e-11
80	0x2f0f5f79	1.3039693e-10
81	0x2f17f196	1.3819199e-10
82	0x2f1b2c47	1.4112898e-10
83	0x2f1b0b1c	1.4101115e-10
84	0x2f142dd2	1.34768e-10
85	0x2e009dbb	2.9243923e-11
86	0x2ec8f616	9.138661e-11
87	0x2ea5fd97	7.548378e-11
88	0x2de3acce	2.5883653e-11
89	0x2db96ab2	2.1079447e-11
90	0x2d299417	9.63942e-12
91	0x2f285e9d	1.5313124e-10
92	0x2e98644f	6.929978e-11
93	0x2df4ed02	2.7844841e-11
94	0x2e7d9b87	5.7663676e-11
95	0x2dcac993	2.3054258e-11
96	0x2f2888eb	1.5328154e-10
97	0x2f272aa3	1.5203709e-10
98	0x35587b32	8.0645543e-07
99	0x3476c57a	2.2982377e-07
100	0x3518d920	5.694037e-07
101	0x34ab4d31	3.1907396e-07
102	0x33ac1b6e	8.0143636e-08
103	0x318e4894	4.140995e-09
104	0x346298ca	2.1103475e-07
105	0x358203aa	9.686821e-07
106	0x34a81fa8	3.1315471e-07
107	0x3453de9f	1.9731895e-07
108	0x34a85468	3.1353852e-07
109	0x3381af6e	6.038941e-08
110	0x3582084c	9.68817e-07
111	0x358156c7	9.636505e-07
112	0x36e0384b	6.6822736e-06
113	0x363f5aad	2.8513998e-06
114	0x368a411f	4.1203016e-06
115	0x354be425	7.5955387e-07
116	0x3533e33f	6.7013383e-07
117	0x350e30e5	5.2970273e-07
118	0x36563297	3.1917932e-06
119	0x36e98256	6.959114e-06
120	0x368fe61c	4.2885204e-06
121	0x361d1c98	2.3411467e-06
122	0x3622d3c5	2.4263147e-06
123	0x3543fb07	7.3008454e-07
124	0x36e96833	6.9560715e-06
125	0x36e81c3f	6.917427e-06
126	0x3139936d	2.7004845e-09
127	0x3031a844	6.4631345e-10
128	0x30a09eee	1.1686703e-09
129	0x30c91101	1.4629508e-09
130	0x2ff9b1ca	4.5419163e-10
131	0x30c9034d	1.4625613e-09
132	0x2f614a75	2.0490083e-10
133	0x30fd06da	1.841012e-09
134	0x3140d74b	2.8062057e-09
135	0x30265df7	6.052398e-10
136	0x30a02071	1.1650753e-09
137	0x30865ba3	9.775828e-10
138	0x30fd1e7e	1.8416839e-09
139	0x30fcb11a	1.8385748e-09
140	0x31686e32	3.3823082e-09
141	0x3099fc5f	1.1203943e-09
142	0x30963d63	1.0931384e-09
143	0x30438e01	7.1142386e-10
144	0x30147055	5.400172e-10
145	0x311f2fd3	2.316473e-09
146	0x2fc2debb	3.5446654e-10
147	0x30e02d2f	1.6310987e-09
148	0x31874db7	3.9378523e-09
149	0x3082cf98	9.517747e-10
150	0x30d1e70d	1.527242e-09
151	0x30cdfea3	1.4988085e-09
152	0x30e02fcc	1.631173e-09
153	0x30df8aa0	1.6264785e-09
154	0x37d5e34f	2.5497427e-05
155	0x3696321a	4.476181e-06
156	0x379cf017	1.870845e-05
157	0x36aa950a	5.0837452e-06
158	0x36beb230	5.683185e-06
159	0x3447cca8	1.8607773e-07
160	0x3603a7b2	1.9618133e-06
161	0x38057fcd	3.1828695e-05
162	0x36ebac06	7.023572e-06
163	0x36924e8d	4.3602836e-06
164	0x3726eb92	9.949219e-06
165	0x36002fdf	1.910135e-06
166	0x38057fd5	3.1828724e-05
167	0x38057789	3.1820997e-05
168	0x3090e308	1.0541905e-09
169	0x2faf4bb8	3.1886116e-10
170	0x2fc82d4f	3.6411982e-10
171	0x30097c2f	5.0016785e-10
172	0x2f87d4fb	2.470769e-10
173	0x30441a97	7.134217e-10
174	0x2f5011eb	1.8923856e-10
175	0x3015e82a	5.453581e-10
176	0x30d650f6	1.559356e-09
177	0x2fa281d6	2.9559882e-10
178	0x3002c6eb	4.7576404e-10
179	0x2ffff602	4.655903e-10
180	0x30165ebb	5.47043e-10
181	0x30158253	5.4391086e-10
182	0x3542fbfc	7.263732e-07
183	0x355137a4	7.7939535e-07
184	0x350de057	5.285305e-07
185	0x32a731b5	1.9463963e-08
186	0x30a77df9	1.2186653e-09
187	0x31dc7754	6.4164087e-09
188	0x354a5d22	7.538639e-07
189	0x357145a2	8.9880825e-07
190	0x34c56145	3.6764882e-07
191	0x351a1f41	5.741495e-07
192	0x34d9d2fd	4.0572914e-07
193	0x33ae7983	8.124609e-08
194	0x357145a8	8.988086e-07
195	0x357144ec	8.987979e-07
196	0x309245bf	1.0642721e-09
197	0x2f4914e4	1.8288265e-10
198	0x301210ce	5.313837e-10
199	0x2fbe9082	3.4663478e-10
200	0x2f1c213e	1.4199927e-10
201	0x2febf991	4.2923579e-10
202	0x2ea23793	7.376779e-11
203	0x306cbccb	8.612459e-10
204	0x30621656	8.225006e-10
205	0x2f3dbc6c	1.7256391e-10
206	0x2ff6b5e2	4.4876375e-10
207	0x2fa9d458	3.08918e-10
208	0x306cce82	8.6149765e-10
209	0x306c128c	8.5882657e-10
210	0x2f1e59ce	1.4401921e-10
211	0x2e16cdc5	3.428881e-11
212	0x2e441a98	4.458886e-11
213	0x2e8c06c1	6.3676626e-11
214	0x2d9a6587	1.755286e-11
215	0x2ed95889	9.8837445e-11
216	0x2da2cfdd	1.8509578e-11
217	0x2e9127c2	6.600899e-11
218	0x2f47435e	1.8122878e-10
219	0x2e08d623	3.111301e-11
220	0x2e8295e2	5.93834e-11
221	0x2e8795ee	6.165722e-11
222	0x2e911eed	6.59933e-11
223	0x2e90a0d1	6.5769286e-11
224	0x31b5d68e	5.2921854e-09
225	0x32219b34	9.4067225e-09
226	0x313fc062	2.7903515e-09
227	0x31475c1d	2.9010672e-09
228	0x30c2a783	1.4162967e-09
229	0x31af1bc5	5.0963274e-09
230	0x31c53773	5.7397584e-09
231	0x317f77a9	3.7175403e-09
232	0x32a093ba	1.869363e-08
233	0x31e7075e	6.7238224e-09
234	0x31dbaf52	6.3936705e-09
235	0x31c47554	5.7176894e-09
236	0x317fb7ef	3.7211938e-09
237	0x317e920e	3.7044887e-09
238	0x2ef8b4a1	1.13098204e-10
239	0x2dce8f67	2.3483172e-11
240	0x2ea5bfbb	7.5373895e-11
241	0x2e91fa7b	6.638331e-11
242	0x2db9745d	2.108374e-11
243	0x2db8cecd	2.1010216e-11
244	0x2cfd1e22	7.194038e-12
245	0x2f0a8b88	1.2600598e-10
246	0x2e84d2e4	6.040127e-11
247	0x2dc5dfdf	2.2495726e-11
248	0x2e538930	4.8097692e-11
249	0x2db69a71	2.075959e-11
250	0x2f0aa4ea	1.2609616e-10
251	0x2f091db8	1.2470636e-10
252	0x35d15c27	1.5598533e-06
253	0x346b84a2	2.1934332e-07
254	0x357719e5	9.205235e-07
255	0x35661ac7	8.5720643e-07

exp_avg f4 [64]
0	0x34c971e7	3.7522042e-07
1	0x34a332ef	3.0398175e-07
2	0xb5d44b07	-1.5817067e-06
3	0xb4d8e298	-4.0398004e-07
4	0xb5a6752d	-1.2402066e-06
5	0x32e08c36	2.6140793e-08
6	0xb45efbac	-2.0766919e-07
7	0x37217e53	9.62576e-06
8	0xb881d7ad	-6.191372e-05
9	0xb458616d	-2.0152011e-07
10	0xb40bd1f5	-1.3021766e-07
11	0x3931ad68	0.00016944634
12	0x3485abad	2.489809e-07
13	0x388d6dd3	6.74386e-05
14	0xb5d914f5	-1.6173859e-06
15	0x346e4031	2.218883e-07
16	0x360733e7	2.0146779e-06
17	0xb46247b8	-2.1073981e-07
18	0x373c88ec	1.1237553e-05
19	0x35262c8f	6.190466e-07
20	0x3503ae83	4.905525e-07
21	0x33dba80f	1.0228552e-07
22	0x348fce99	2.6786145e-07
23	0x399375b2	0.00028125715
24	0xb35019cd	-4.845224e-08
25	0x35a61caf	1.2376312e-06
26	0x37a626d0	1.9806816e-05
27	0x39015368	0.0001233347
28	0xb83e22fb	-4.5332108e-05
29	0x350fa3f7	5.351025e-07
30	0x3480c020	2.3981647e-07
31	0xb8bd1700	-9.0165064e-05
32	0x33e56d60	1.0683539e-07
33	0xb8b2a32d	-8.518095e-05
34	0x34b6865a	3.3997895e-07
35	0x34b57293	3.379724e-07
36	0xb5eff0a9	-1.7876929e-06
37	0xb490a1f1	-2.6939918e-07
38	0x35286c7b	6.2742737e-07
39	0x357e0640	9.463147e-07
40	0xb88dce14	-6.761789e-05
41	0xb8d39e0e	-0.00010090704
42	0xb90c0d09	-0.00013356296
43	0xb403aba1	-1.2262764e-07
44	0x360bdb2f	2.0840196e-06
45	0xb45a4974	-2.0329554e-07
46	0xb4ad8692	-3.2321674e-07
47	0x34b213f8	3.3169613e-07
48	0xb8ad8e57	-8.275796e-05
49	0x353445e5	6.7156935e-07
50	0xb873711d	-5.804106e-05
51	0x346e23c2	2.2178486e-07
52	0x361dbbfe	2.350425e-06
53	0xb5892637	-1.0218417e-06
54	0x3968f8e7	0.00022217967
55	0xb513349e	-5.4838335e-07
56	0xb6fa4274	-7.4583168e-06
57	0xb4cafd1d	-3.7809596e-07
58	0x36492320	2.997178e-06
59	0xb517e294	-5.65816e-07
60	0x31d0eefc	6.080766e-09
61	0x349cc3c0	2.919969e-07
62	0x3504e0d3	4.9500994e-07
63	0xb4d178bf	-3.9017138e-07

exp_avg_sq f4 [64]
0	0x30890f28	9.97237e-10
1	0x30a96298	1.232439e-09
2	0x31e7c395	6.74522e-09
3	0x3160c39b	3.270748e-09
4	0x313c484d	2.7398699e-09
5	0x2fd08fb1	3.7937078e-10
6	0x2f443ab4	1.7846952e-10
7	0x3582194f	9.69312e-07
8	0x36fbef62	7.5082507e-06
9	0x316bc6aa	3.4309928e-09
10	0x318cdfc6	4.0999764e-09
11	0x380584be	3.1833297e-05
12	0x30b8f176	1.3456389e-09
13	0x35726935	9.030512e-07
14	0x30b5e3ef	1.3234266e-09
15	0x2f3d832e	1.7236054e-10
16	0x327edbd4	1.4834729e-08
17	0x2f250267	1.5007516e-10
18	0x3601f5f6	1.9365666e-06
19	0x30920eee	1.0627141e-09
20	0x3206e666	7.852213e-09
21	0x2ee993dd	1.0621879e-10
22	0x2f2d25d7	1.5747702e-10
23	0x37ff5837	3.0439447e-05
24	0x2fa92596	3.0767627e-10
25	0x30eb5345	1.7122167e-09
26	0x34994644	2.8549596e-07
27	0x37f7a408	2.9521078e-05
28	0x363e84e5	2.838956e-06
29	0x34efe8ad	4.4686513e-07
30	0x310cc0ea	2.048234e-09
31	0x389b02c5	7.391492e-05
32	0x31ed1ace	6.900655e-09
33	0x37436c47	1.1648116e-05
34	0x2f19965b	1.3968686e-10
35	0x30dc1182	1.6012083e-09
36	0x370149e5	7.706204e-06
37	0x31805d8d	3.735926e-09
38	0x3174333b	3.5535794e-09
39	0x309d8b23	1.1462798e-09
40	0x36aee4e9	5.2122527e-06
41	0x36939b87	4.399047e-06
42	0x37a3e8b0	1.9539468e-05
43	0x307b289f	9.1370994e-10
44	0x33bdcc25	8.838132e-08
45	0x2fea99f0	4.267373e-10
46	0x2feb8449	4.2840245e-10
47	0x2ec87359	9.115437e-11
48	0x35e6986b	1.7180695e-06
49	0x2fe8465d	4.225055e-10
50	0x35b8081a	1.3711426e-06
51	0x2f7f8f02	2.3242921e-10
52	0x34156f45	1.3917186e-07
53	0x30e55c0a	1.6688102e-09
54	0x36a41839	4.8904008e-06
55	0x30990810	1.1134507e-09
56	0x38258f43	3.947249e-05
57	0x3094bbad	1.0821758e-09
58	0x315226ac	3.0581004e-09
59	0x31446b8c	2.8582887e-09
60	0x2ea6e386	7.589222e-11
61	0x311990f3	2.2346824e-09
62	0x301a8106	5.6208227e-10
63	0x31032df8	1.908914e-09
