dumpedit/agent_target_network.pth (torch, 24297 bytes, 11 tensors)

feature_layers.0.weight f4 [64, 20]
000000 2a 0c 3b bc 6a c9 18 3d e2 10 18 3e bc 27 fe bd
       -0.011416474 0.03730146 0.1485019 -0.124099225
000010 55 40 50 3e 26 9f 36 3c 72 cd 3a 3e a3 6b 73 3b
       0.2033704 0.011146342 0.18242434 0.0037143014
000020 1f b2 92 bd 4d 79 62 be ac 13 72 3d 20 a4 5d be
       -0.0716288 -0.22116585 0.05910079 -0.2164464
000030 37 6f 27 be fa 6c 48 3e f5 6e 47 be 8a 7f 46 bb
       -0.16351019 0.19572821 -0.1947592 -0.0030288422
000040 28 9e e4 bd 6a 53 28 be 6d 34 f6 bd d9 ea 58 bc
       -0.111629784 -0.1643807 -0.12021718 -0.013239586
000050 4b c4 4f be 91 1e aa 3d ed 2b 25 3e 17 11 90 3d
       -0.20289724 0.08306611 0.16130038 0.0703451
000060 f7 46 64 3c 2a 96 88 bd d4 e2 ea bd 41 18 3a be
       0.013932935 -0.066692665 -0.11469045 -0.18173315
000070 f5 a5 64 be 8b 7c 6b 3d fa 2f 06 3e ef 81 0f be
       -0.22328933 0.05749182 0.13104239 -0.1401441
000080 60 9e c4 bd 94 3c 00 3d 0b 36 bf bd 44 b1 99 bd
       -0.0960052 0.03130777 -0.0933648 -0.07504514
000090 22 9f 8e bd d2 5a 22 3e 0b b9 62 3e fa ba 1c 3e
       -0.06963946 0.15854958 0.22140901 0.15305701
0000a0 94 45 4e 3e d1 f1 3a 3d 0e 51 64 3d 4b dc a0 bd
       0.2014373 0.04564077 0.055741362 -0.078545175
0000b0 86 33 7a bd d8 03 4b 3e 76 a7 ea 3c ce 07 30 3e
       -0.061084293 0.19825685 0.028644305 0.17190477
0000c0 e3 e0 ac 3d 99 7b 10 be a2 16 10 be b3 c9 59 3d
       0.08441331 -0.14109649 -0.14071134 0.05317087
0000d0 dd 68 ff bd 34 01 0a be 4c a9 46 3d 0a 9f e5 bd
       -0.12471173 -0.13477021 0.048501298 -0.11211975
0000e0 58 df 6e 3d 7f ce 00 be 22 fa e7 bd cc 6d 1f 3e
       0.058318466 -0.12578772 -0.11327006 0.15569228
0000f0 4e 04 a8 3d e0 32 00 be db db 62 3d 07 95 30 be
       0.08203946 -0.12519407 0.05538545 -0.1724435
000100 0f e4 2c 3e e1 30 f9 3d f4 8f 49 bb 52 e2 cf 3d
       0.16883872 0.12167526 -0.0030755969 0.10150589
000110 78 47 51 be 48 f1 eb 3c 3a 11 5b be 8b ce 82 bd
       -0.2043742 0.028801575 -0.2139329 -0.06387051
000120 e1 37 2b be 3b ff 89 bd 3a e7 31 3c a8 cd c4 3d
       -0.16720535 -0.067381345 0.010858351 0.09609538
000130 c8 83 d3 3d a4 01 95 bc 3f 9a 3e be d7 40 4b be
       0.1032787 -0.018189259 -0.18613528 -0.19848953
000140 36 a6 cf bc 66 df 24 be ec e4 32 3e a7 03 a2 3c
       -0.02534781 -0.16100845 0.1747014 0.019777132
000150 22 bf 1b 3e cf d7 de bd 18 7c 55 3e df 47 ae bc
       0.1520963 -0.10881006 0.2084812 -0.021274505
000160 7b 2b b9 bd 04 16 32 be 81 a8 31 3e 4c aa 19 be
       -0.09041496 -0.17391211 0.17349435 -0.1500637
000170 57 03 fb 3d 97 38 ef bc 6c df 2b be d8 43 ca 3c
       0.122564964 -0.029201789 -0.16784447 0.024690554
000180 43 bd 5a 3d 52 dc 1f 3d 06 f2 62 bd 0c 2c 3a be
       0.05340315 0.039028473 -0.055406593 -0.18180865
000190 79 06 30 be fd 8e 85 3c ae d1 06 be 13 35 12 3e
       -0.17189969 0.016303534 -0.13165924 0.14278059
0001a0 fb 90 43 be 38 27 51 be 71 2d d3 3d 90 55 ca bd
       -0.19098274 -0.20425117 0.10311402 -0.09879601
0001b0 1d bd 27 3d 13 d8 b0 3d fb 9e d4 bc fc ae 04 3e
       0.040951837 0.08634963 -0.025954714 0.12957376
0001c0 f7 3f 27 3e 35 bb dc bd 04 27 e4 bd 94 0b d4 3d
       0.16332994 -0.107778944 -0.11140254 0.10353771
0001d0 a5 63 75 3c d5 ed 46 bd 03 a3 aa 3d fd a1 54 be
       0.01497737 -0.048566658 0.08331873 -0.20764919
0001e0 25 80 5c be b4 7f 45 3e 7e a5 58 3e b5 d8 b9 3d
       -0.21533258 0.19286996 0.2115688 0.09074537
0001f0 3e c4 34 be 6c ef 56 be 89 35 cb 3d ad 0e ee 3d
       -0.17652985 -0.2098977 0.099223204 0.11623893
000200 18 7d 25 3e 54 d2 28 bd 23 d9 06 3e b9 0c 67 bd
       0.16161 -0.04121621 0.13168769 -0.056408618
000210 32 93 d9 bd 83 aa 49 be 52 f2 59 3e 9f cb 56 3d
       -0.106237784 -0.19693951 0.21283844 0.052440282
000220 12 fe 73 bd 61 8f 96 3d 81 22 ae 3d 16 6f 9e 3d
       -0.059568472 0.07351566 0.08502675 0.07736032
000230 6c 03 4e be ac dd 05 3d a4 b1 02 be 43 2b 20 3e
       -0.20118493 0.032682106 -0.12763077 0.15641503
000240 bf 51 13 3c 8e 47 38 3e 44 0b 82 bd c1 b4 9e 3d
       0.008991658 0.17996046 -0.06349805 0.0774932
000250 dd 23 c8 bd 25 be 16 be 7a ef f8 bd 41 a2 ce bd
       -0.097724654 -0.14720972 -0.121550515 -0.10089541
000260 8b b5 58 3d 9e 10 4b 3e fd d3 4b be 22 41 1d 3e
       0.052907508 0.19830558 -0.19905086 0.15356877
000270 84 67 55 be 0b 4a 31 be c8 67 df bd 87 65 bd 3d
       -0.2084027 -0.17313401 -0.109084666 0.092478804
000280 70 3d 3d 3e 4b d5 fc bd 8d c5 51 be 60 e2 9d 3d
       0.18480468 -0.1234537 -0.20485516 0.07709193
000290 54 92 5c 3e 10 59 fa bb 41 5b 35 3d 69 32 fd bc
       0.21540195 -0.0076400116 0.04427648 -0.030907826
0002a0 87 b8 16 3d f0 0b 5f be 95 44 d1 bd 93 ba 0a 3b
       0.036797073 -0.21781898 -0.10218159 0.0021168336
0002b0 5e 1a 9d 3d 6a a7 62 3e 33 7a 5c be fa 8d 92 bd
       0.07671045 0.22134176 -0.2153099 -0.07155986
0002c0 88 94 9b 3d fc 47 fb 3d bf c4 20 3e 7e 9b 30 3e
       0.075966895 0.12269589 0.15700053 0.17246816
0002d0 a2 bf f4 3d 57 87 76 3c 13 9c 45 3e c4 d3 3c 3b
       0.119506136 0.015046916 0.19297819 0.0028812746
0002e0 ee 7e 3b bd 9f 60 53 be cc 2e a4 3d f1 8f 07 3d
       -0.045775346 -0.20642327 0.08016738 0.033096258
0002f0 5f 5b 03 3e 02 69 1b be 41 45 58 3e be 50 e8 3d
       0.12827824 -0.15176776 0.21120168 0.11343525
000300 df 96 d1 3d d1 a6 9b bd 00 6f 55 be 63 cc cd 3d
       0.102338545 -0.07600177 -0.20843124 0.10048749
000310 3e 71 60 3e b5 df b2 bd 6c cd 64 3e 19 18 ef bd
       0.21918198 -0.08734075 0.22343987 -0.11674518
000320 42 0f 51 3e cc f4 9a 3c fb cb 53 bd 09 70 ad bc
       0.20415977 0.018915556 -0.051708203 -0.021171587
000330 b9 49 6e bd e2 3a c9 bd d4 18 a4 bd 54 d2 f3 bd
       -0.058175776 -0.09825684 -0.08012548 -0.11905351
000340 6b 79 56 3d 6a 7b 41 be dc c8 2e 3e 32 05 63 bb
       0.052361887 -0.18894735 0.1706881 -0.0034640548
000350 d9 2e 29 3e 98 da 31 3e 7e c9 4c 3e 12 90 3e 3e
       0.16521777 0.17368543 0.19998738 0.18609646
000360 19 3d 42 be df 63 29 bd f7 3b e3 bd a9 c7 43 be
       -0.1896862 -0.04135501 -0.11095422 -0.19119133
000370 d4 31 37 be 10 a2 5f be 9e d9 2c 3e 13 b1 f7 bd
       -0.17890102 -0.21839166 0.1687989 -0.12094321
000380 68 7d ef ba 0c 0c 35 be c6 36 75 bd 50 83 27 be
       -0.0018271627 -0.17680377 -0.05986669 -0.16358685
000390 92 f7 2e 3b ec 57 17 be 74 ef 1b 3e 2a d6 c2 3d
       0.0026697856 -0.14779633 0.15228063 0.09513505
0003a0 c1 84 5f 3e ee 3e 58 be ca 4b 37 be 2d 29 48 bd
       0.21827985 -0.21117756 -0.17900005 -0.048867393
0003b0 f7 e9 21 be 91 72 f9 bd 3d e2 67 bb 81 25 9c 3d
       -0.15811907 -0.12180055 -0.0035382651 0.07624341
0003c0 72 17 e2 3c 14 57 4c 3e 21 f1 17 3e 04 dd 44 be
       0.02759907 0.19955093 0.14838077 -0.19224936
0003d0 70 65 b9 bc 93 9a f1 bd 95 db 81 bc f8 bd 61 3e
       -0.022631377 -0.11797061 -0.015851775 0.22045124
0003e0 68 5f 2a 3e dd c3 2f 3d 88 fc f1 bc 2c bc 51 3e
       0.16637957 0.0429114 -0.029539362 0.20481938
0003f0 51 10 16 3e 14 dc 8e 3d 11 b2 ef bd 92 b6 21 be
       0.14654662 0.0697557 -0.11703885 -0.15792301

feature_layers.0.bias f4 [64]
000000 e2 50 ce bf 55 75 a3 bf 63 8a 34 bf 17 33 1d bf
       -1.6118433 -1.2770182 -0.7052366 -0.6140608
000010 d8 27 42 bf a2 ce 44 c0 05 5c e1 bf ff 70 48 3e
       -0.75842047 -3.0751119 -1.7606207 0.19574355
000020 a4 32 94 3d 3a 97 cc bf 1b e7 2a bf 3f f9 13 bf
       0.072362214 -1.5983651 -0.6675889 -0.57802194
000030 f5 7b 17 bf d2 7f 2a bf 3c bb 8d bf 6c 4d 4c c0
       -0.5917352 -0.6660129 -1.1072764 -3.1922255
000040 e7 a9 6e be a5 5c f5 bf 99 6b 73 3f c2 3e 16 bf
       -0.23307 -1.9168898 0.95086056 -0.5868951
000050 6b 5c 59 be 20 fa 3b c0 22 91 45 c0 b8 04 05 bf
       -0.21226661 -2.9371414 -3.0869832 -0.51960325
000060 48 c9 c4 bf ca 38 e8 bf 5d 51 0c 3d 3e bd bf be
       -1.5373926 -1.8142331 0.03425728 -0.37449068
000070 49 27 ea 3c b2 84 36 bf af d1 62 bf 07 e9 e4 be
       0.028583186 -0.71296227 -0.886012 -0.44709036
000080 73 a0 8a bf ad 71 0f 3f 3f 70 50 c0 4c e9 81 bf
       -1.0830215 0.5603283 -3.256851 -1.0149322
000090 90 75 f0 3c d2 17 e6 bf e3 72 d9 be ce a1 af bf
       0.029352933 -1.7976019 -0.42470464 -1.3721254
0000a0 af 2d 4f bf b7 12 ed be 6d 28 16 bf ff b0 21 c0
       -0.8092908 -0.4630334 -0.58655435 -2.526428
0000b0 52 52 95 bf ac 2d 7e bf 9d 13 00 c0 76 3d 2a c0
       -1.1665747 -0.9928844 -2.001197 -2.6600013
0000c0 ca 57 18 bf 7c 3f df bf 65 f1 ca 3c 27 c1 6f c0
       -0.59508955 -1.7441249 0.024773309 -3.746164
0000d0 88 59 cb 3e a2 78 c3 bf 57 0c 0c bf 50 47 a6 bf
       0.39716744 -1.5271189 -0.5470633 -1.2990513
0000e0 17 c7 63 be db 94 67 bf 67 bc b3 be df b6 84 bf
       -0.22243915 -0.9046151 -0.35104677 -1.0368308
0000f0 9f 48 16 c0 16 ee 64 bf be bb ab bf 67 5c 38 c0
       -2.3481824 -0.8942579 -1.3416669 -2.8806398

feature_layers.1.weight f4 [32, 64]
000000 7a ed 3d 3e 4c ce 6c 3e 35 f5 e0 3f 78 63 0f 40
       0.18547621 0.23125571 1.7574831 2.240446
000010 9b 42 10 3d f4 a0 1d 3e e4 42 d2 3d d0 7b b5 be
       0.03521977 0.1539343 0.102666646 -0.35446024
000020 35 98 10 3e 77 df 0c 3f ed c2 55 3f 06 54 b5 3e
       0.14120562 0.5502848 0.8350056 0.35415667
000030 96 c9 54 3e 81 39 64 bf 70 81 87 3f 1f c3 ff 3d
       0.20780024 -0.89150244 1.0586376 0.12488388
000040 5e 47 ab 3f a7 7e 73 bd 3b 2a b7 be 8b c3 ad 3f
       1.3381155 -0.059446957 -0.35774407 1.35753
000050 db b9 d6 bf f5 02 27 3e 74 9b 85 3e fd e4 13 3f
       -1.6775469 0.16309722 0.26095164 0.57771283
000060 8c c7 03 bd 38 a9 96 be c1 22 c4 bd 5c 94 2f 3f
       -0.032172725 -0.2942598 -0.09576941 0.68585753
000070 41 16 b4 3d 9b 87 b1 be 6d 19 87 bf 56 ab a0 3f
       0.08793307 -0.3467377 -1.0554634 1.2552288
000080 47 45 13 3f fa 2a fe be 2c 0e 84 3d 56 84 34 3f
       0.57527584 -0.49642164 0.064480156 0.7051443
000090 49 66 2a 3f 13 69 3f 3f 87 6a 7c be 55 7d 10 3f
       0.66562325 0.74769706 -0.24650012 0.5644124
0000a0 24 c6 1e bf 74 d1 2b be 83 14 d0 3f f3 fe 33 3e
       -0.6202109 -0.16779119 1.625626 0.17577724
0000b0 51 14 93 bd f8 2d 24 bc cf 38 c4 bb d9 f6 2b bd
       -0.071816094 -0.010020725 -0.0059882174 -0.04198346
0000c0 77 f0 5c 3f 3b 1a 5c be 47 50 79 bf ad 43 33 3e
       0.8630442 -0.21494381 -0.9738812 0.17506285
0000d0 d9 5d b1 be 96 f3 a4 3f 21 6f 4e 3f 5e c4 de 3e
       -0.34641913 1.2886837 0.8063832 0.4350919
0000e0 3c b5 a1 3f a0 89 a6 3e e3 eb eb bd 25 ad 0a 3f
       1.2633433 0.32526875 -0.11519601 0.5417045
0000f0 8c 41 22 bd 25 94 25 3f df 6e 18 3f ba 2a 89 3e
       -0.03961329 0.64679176 0.59544176 0.2679041
000100 ac 8b 5a be 77 a7 81 bd f9 6d 27 be ba 43 43 be
       -0.21342343 -0.063307695 -0.16350545 -0.19068804
000110 03 1f d0 be c3 42 51 be 46 bb e9 be 6b e0 b2 be
       -0.4064866 -0.20435624 -0.4565069 -0.34936842
000120 e3 ad 87 bf 08 61 d9 be b9 fd 02 bf 62 60 9b bf
       -1.0599941 -0.4245684 -0.511684 -1.2138789
000130 13 55 03 3f 39 82 e8 bf cf e5 e6 bd f2 fc 9f be
       0.5130169 -1.8164741 -0.11274301 -0.3124767
000140 65 fa 2e bf da 2f d3 be 7a a3 11 bf 76 b0 dd be
       -0.6835082 -0.41247445 -0.5689007 -0.43298692
000150 09 18 cb be 36 58 be be 81 34 16 be 07 e5 4e 3e
       -0.39666775 -0.37176675 -0.14668466 0.20204554
000160 61 f3 df be 7b f7 02 bf af 84 c4 be 6c df 0d 3f
       -0.4374037 -0.51158875 -0.3838248 0.5541904
000170 f8 5d 1b 3f 3e a4 ed be a8 76 8a bf b6 ef 6e 3f
       0.6069026 -0.4641437 -1.0817461 0.9333452
000180 56 ae aa be 6d ce 1f 3f 3a a9 48 be c8 83 0f bf
       -0.33336133 0.62424356 -0.19595805 -0.5606046
000190 f5 e7 b9 3e ca a7 66 3d ba a0 03 c0 33 94 41 bf
       0.36309782 0.05631236 -2.056685 -0.7561676
0001a0 c3 21 f3 3e 6c 71 38 bd 34 2e d3 3d bd 29 e1 be
       0.47486696 -0.045030043 0.10311547 -0.43977156
0001b0 a6 fc ca be 26 bc 1b bf 07 94 55 be 4d 72 9d be
       -0.3964588 -0.60833967 -0.20857249 -0.30751267
0001c0 48 af 16 be d4 6d fa be ce 46 8d be ec 9d ab be
       -0.14715302 -0.48911917 -0.27593082 -0.33518922
0001d0 66 dd 0c 3d 13 99 cd be b3 74 2a be a3 e2 ca be
       0.03439083 -0.4015585 -0.1664608 -0.39626035
0001e0 da d6 1d 3f 85 05 fc be 7e 2b 83 bf a6 07 4c bf
       0.6165596 -0.4922296 -1.0247648 -0.7969917
0001f0 22 7c ba be d9 b1 6d be ea 85 0e bf 4a a7 56 be
       -0.3642283 -0.23212375 -0.55673087 -0.20962253
000200 99 ba 92 3f d1 79 11 3f 80 49 06 3f f3 f8 8b 3f
       1.1463195 0.568265 0.524559 1.0935348
000210 d1 85 77 3f 13 14 9b 3f e4 2e bd 3f 1a 65 94 bf
       0.9668856 1.2115501 1.4779935 -1.1593354
000220 fe c6 c2 bf 1f e7 cb 3f e4 21 7b bf 56 12 42 3f
       -1.5216978 1.5929908 -0.9809859 0.7580923
000230 61 88 22 40 1e d6 c7 3f 63 66 b9 3f 2f 14 b6 3f
       2.539574 1.5612218 1.4484371 1.422491
000240 c6 72 34 40 2f 25 bd 3f d7 0f df bf 65 31 82 3d
       2.8195052 1.4776973 -1.7426709 0.063570775
000250 42 d5 6e 3e ae ea 9f 3f e7 0b be 3f 7d 7b 72 be
       0.23323539 1.2493494 1.4847382 -0.2367992
000260 2b b9 dd 3f 5f 7d ae 3f 70 e1 53 bf c3 1f 56 c0
       1.7322134 1.363201 -0.82765865 -3.3456886
000270 a3 45 7e bf 27 e9 e5 3e 53 ae da 3f 49 dc aa be
       -0.9932501 0.44904444 1.708445 -0.3337119
000280 d0 ec a5 3f 10 f6 fe bf b5 ed c1 3f ed 41 3b 40
       1.2962894 -1.9918842 1.5150667 2.9258988
000290 6a 65 10 c0 49 73 86 3d ab 4a 83 3f 79 b0 83 3f
       -2.2561898 0.06564958 1.0257162 1.028823
0002a0 78 5d 42 bf e5 5b 82 3f 56 1f 00 be 35 3f af 3f
       -0.7592387 1.0184294 -0.12511954 1.3691164
0002b0 8a 44 73 3d 57 ac 84 3f ae bd b1 3f 5a c3 ae 3f
       0.059391536 1.0365094 1.3886011 1.3653367
0002c0 db 6e 03 bf 96 92 89 3f f9 23 43 3f 9e ef ba 3f
       -0.5134103 1.074786 0.76226765 1.4604375
0002d0 cd 22 86 bf 6f c7 b2 3f fc ac 86 bf 86 9e 8f 3f
       -1.047937 1.3967112 -1.0521541 1.1220253
0002e0 06 c1 06 bf 2d fc eb 3f 39 2b ab 3f b6 5e e5 3f
       -0.5263828 1.8436333 1.3372566 1.7919528
0002f0 e0 7b a8 3f 1f b1 4b 40 02 a1 e1 3f 47 5c 5d 3f
       1.3162804 3.1826856 1.7627261 0.8646893
000300 ff bc 7c bf 8c 1a 16 bf 69 02 36 bf 03 64 33 3e
       -0.98725885 -0.5863426 -0.7109743 0.1751862
000310 81 fc 75 bf a8 7c 22 bf 02 8f 89 bf 32 2c 26 be
       -0.96088415 -0.6347146 -1.0746768 -0.16227797
000320 f5 ff 9e bf 3a c2 43 bf 29 de 7f bf b1 3b 83 3e
       -1.2421862 -0.7646824 -0.99948364 0.25631478
000330 6e 27 23 bf 69 cd 55 bf 55 26 5b bf cc 4c 20 bf
       -0.6373204 -0.83516556 -0.85605365 -0.6261718
000340 6b 21 8e bf 6a 5e 8b bf 60 2d 6b bf de 04 5b bf
       -1.1103948 -1.0888188 -0.9186611 -0.855543
000350 5e 16 81 be 38 09 2e bf ff 49 14 bf 18 f9 c7 bc
       -0.25212377 -0.67982817 -0.5792541 -0.02441077
000360 12 37 9f bf e0 6a 45 bf 6d 24 d0 be 56 bd 8d be
       -1.2438681 -0.77116203 -0.4065279 -0.27683514
000370 56 c1 50 3e b3 ca 19 bf 4c 38 aa bf a1 50 fb 3e
       0.20386252 -0.6007492 -1.329843 0.49084952
000380 ec 73 64 bf b3 6b fe 3e 37 6c 3b bf 48 7f ee bf
       -0.8923938 0.49691543 -0.73212 -1.8632593
000390 2b 6d ef 3e dd 46 3e bf 15 3c 89 bf 6d e5 2e bf
       0.46762976 -0.7432688 -1.072146 -0.68318826
0003a0 5c b2 c2 3e 7d ae 47 bd a7 2a 28 3e 1d 40 c9 be
       0.38026702 -0.04875039 0.1642252 -0.39306727
0003b0 f0 ea bd bf ec b3 84 bf ca 88 62 bf f7 f5 4b bf
       -1.4837322 -1.0367408 -0.88489974 -0.7967219
0003c0 7f f1 d4 bf 6a 27 50 bf 84 cb 9d 3e 6b 9d 15 bf
       -1.6636199 -0.8131014 0.30819333 -0.58443326
0003d0 85 bb 31 3e 25 f8 bb be df bd e9 3d 4d 04 6a bf
       0.1735669 -0.36712757 0.11413168 -0.9141281
0003e0 18 a7 80 3f 63 5c 8a bf 8f 24 86 bf 65 29 29 bf
       1.0050993 -1.0809444 -1.0479907 -0.6607879
0003f0 c3 69 68 bf e9 55 95 bf 35 17 5b bf d9 dc a6 3e
       -0.9078638 -1.1666843 -0.85582286 0.32590368

feature_layers.1.bias f4 [32]
000000 2f fa fe be bc 2b 9f 3d d8 db d5 bf 61 b3 7b 3f
       -0.4980025 0.077720135 -1.6707716 0.98320585
000010 dc 02 15 bf 55 a9 7e 3f c8 cb 81 bf 5b e6 04 bf
       -0.5820749 0.9947713 -1.0140314 -0.51913995
000020 dc b9 5f bf 8d 99 de be 1f ea 9c bd de 2e 5c bf
       -0.87392974 -0.43476525 -0.076618426 -0.86009014
000030 14 5d 11 bf fb 85 c8 bd 4e fc df 3c ed 8d 1e bf
       -0.5678265 -0.0979118 0.027341988 -0.6193531
000040 4d 50 e3 be 54 4c 76 be 28 0f ef be 37 d2 0d 3f
       -0.44397202 -0.24052554 -0.4669125 0.5539889
000050 53 87 43 bf 8b 0d 18 bf c0 c6 fd be 0b 1a 61 3e
       -0.76378363 -0.59395665 -0.49565697 0.21982591
000060 79 d8 32 bf 36 c2 89 c0 61 e2 dd be 0b f3 05 bf
       -0.6986156 -4.3049574 -0.43336776 -0.5232398
000070 89 d1 86 bf c6 95 fa be c8 5a 53 c0 88 85 57 bd
       -1.0532695 -0.48942393 -3.3024158 -0.05261758

value_stream.0.weight f4 [16, 32]
000000 1a 28 e8 bd 0a 9f 22 be 5e e1 c5 3d fa e9 a1 bd
       -0.11335774 -0.15880981 0.09662126 -0.079059556
000010 fd f1 e8 bd 66 bd 17 be c1 eb 32 3c 0e 0f 88 bd
       -0.113742806 -0.14818344 0.010920466 -0.066434965
000020 d4 8f c8 bd 02 0f 04 3c f5 e0 56 bd 92 7d e9 bd
       -0.09793058 0.008060219 -0.05246063 -0.11400904
000030 c9 f5 92 3d 17 ec 3b 3e 0b 31 96 bd 4e d3 1a 3c
       0.07175786 0.1835178 -0.07333573 0.009449793
000040 f2 46 a7 bd 0f 12 14 bc 8a 0a be bd 74 65 88 3d
       -0.081678286 -0.009037509 -0.09279354 0.06659976
000050 b3 24 7c 3d f9 55 48 be 87 03 35 3c f2 00 b3 bd
       0.061558437 -0.19564046 0.011048204 -0.08740415
000060 67 15 fd 3d 8f 27 2a be ac 04 db bd 4a 4a 79 bd
       0.12357598 -0.16616653 -0.106942505 -0.060861863
000070 14 b5 32 be ae 8d 5b bc af 55 4b 3d a2 3d 90 bc
       -0.17451888 -0.013400478 0.04964226 -0.017607514
000080 5d 07 c7 3d 09 f5 56 bd f0 f3 4a bd f0 d4 cc 3d
       0.09718201 -0.052479777 -0.049549043 0.10001552
000090 d4 fd 14 be 0b 06 01 3e 12 72 65 be 7b 1d 61 bd
       -0.14549953 0.12599961 -0.22406796 -0.054959755
0000a0 09 85 cf 3d 95 a2 58 bd 3c 3a a5 3d 87 d9 e4 3c
       0.10132796 -0.052889425 0.08067748 0.027935756
0000b0 72 b9 93 bd 10 18 b6 bd 63 21 ac 3d 75 62 2b bb
       -0.07213105 -0.08891308 0.084048055 -0.0026151214
0000c0 45 7b 20 be 75 13 b4 3b 16 19 ae bd 6c be 52 bc
       -0.15672024 0.0054954835 -0.085008785 -0.012862783
0000d0 54 b6 2e 3d 40 44 ee bd 0b be 10 bd de f0 c2 bc
       0.04265435 -0.116341114 -0.03533749 -0.023796495
0000e0 e3 3d 0e bd a0 32 71 bd 84 0d ec bd ae b2 ef bd
       -0.03472699 -0.05888617 -0.115260154 -0.11704002
0000f0 18 4f 52 bd 44 8a 5d bb a9 24 33 be 27 47 13 3e
       -0.05134496 -0.0033804337 -0.17494453 0.14382611
000100 3c 77 92 3b f5 d7 45 be f1 07 69 bc b3 92 89 3d
       0.0044697803 -0.19320662 -0.014223085 0.06717434
000110 1d bc c2 3d e7 17 ce 3d e3 42 03 3e e2 aa c8 be
       0.09508536 0.10063153 0.12818484 -0.39192873
000120 ff 0d ce be 65 a7 cc bd 3e 52 12 be 57 ae 85 be
       -0.40245053 -0.099928655 -0.14289185 -0.26109573
000130 85 02 d1 be e9 60 e7 bc 7f 7e 1d 3f 58 b7 3f be
       -0.40822235 -0.028244453 0.6152114 -0.18722284
000140 4e 93 d5 bd 02 54 1b be 73 af 50 3d f9 48 2f bd
       -0.10428487 -0.15168765 0.05094857 -0.0427942
000150 30 60 71 be 2f 45 86 3e 23 d2 f5 3d aa 7c 82 be
       -0.23571849 0.26224658 0.12002971 -0.25485736
000160 2c b9 e3 bd 0f 2b 9e 3e 13 43 a4 be ff 40 fa be
       -0.11119303 0.30892226 -0.32082424 -0.48877713
000170 e4 f9 4b 3e 77 42 f2 be dd 62 6c bc 23 4d 2e be
       0.19919544 -0.47316334 -0.014427868 -0.17021613
000180 03 0f 88 3d 6d d8 54 be e4 a8 f9 b9 7b de dc 3d
       0.06643488 -0.20785685 -0.00047618814 0.10784622
000190 03 16 4f be bb e0 25 3d 54 92 88 bd a9 28 17 be
       -0.2022324 0.040497523 -0.06668535 -0.14761604
0001a0 35 b9 aa 3c 67 19 16 3e 90 e7 5f 3c 54 a2 16 bd
       0.020840267 0.14658128 0.013666049 -0.036775902
0001b0 b5 87 d8 3d 35 d9 4a 3d 4c ab 5a be b8 c0 bc 3d
       0.10572759 0.04952355 -0.21354407 0.09216446
0001c0 cb d1 54 3d 76 90 bc bd 19 b9 80 bd ec c0 eb bd
       0.051957887 -0.09207241 -0.062853046 -0.11511406
0001d0 32 46 24 bd 7a 0f 14 bd 55 75 d8 bd a0 e7 09 3d
       -0.040106006 -0.036147572 -0.10569254 0.03366816
0001e0 96 d0 94 bc a7 97 e3 bb c3 35 35 3d 09 02 e5 bc
       -0.018165868 -0.0069455686 0.044240724 -0.027955072
0001f0 c2 f4 84 bd 0c 63 30 3c de 45 af 3b 92 2d c1 3d
       -0.06491996 0.010765802 0.005348905 0.0943252
000200 38 8f d2 3d 66 a6 0a be d8 ab c2 3d 18 a8 6a bd
       0.10281223 -0.13540038 0.09505433 -0.057289213
000210 a1 99 20 be d2 dd 3f 3d e2 44 6b 3d 5b 1e 44 3e
       -0.15683605 0.046842404 0.05743874 0.19152205
000220 86 9c 56 3c 60 f0 72 bd bf 64 25 3e e7 60 85 bd
       0.0130988415 -0.05931127 0.16151713 -0.06512623
000230 36 17 e2 bd e0 e0 60 3c 6e 95 69 3b 64 e8 b8 bd
       -0.110395834 0.013725489 0.0035642046 -0.090287
000240 e9 de 8c 3d 9d 17 88 bd 5a d0 e8 bd 77 fd f8 ba
       0.06878454 -0.06645129 -0.11367865 -0.0018996437
000250 85 e8 5a bb a4 25 41 3c 1e 49 1f bd 79 b6 20 3e
       -0.0033402753 0.011788759 -0.03888809 0.15694608
000260 7b 96 15 bd 4c 38 73 3d f8 22 da bd c4 4f ed bd
       -0.036520462 0.05937986 -0.10651201 -0.1158748
000270 8a 3d c8 3c b2 62 10 3b 10 f9 a0 bc c2 ab d2 ba
       0.024443407 0.0022031483 -0.019650012 -0.0016072916
000280 df f6 2d be 14 9c 1f be 4e ed 6c bd 83 1e 6a 3d
       -0.16988705 -0.15586883 -0.0578435 0.057158004
000290 15 d4 04 3e 59 cc a6 3c e2 58 e3 3d 06 00 21 3d
       0.12971528 0.020361112 0.111009374 0.039306663
0002a0 0e 76 29 bd a8 d7 48 3d b1 19 b9 bd 7a 6c cd 3d
       -0.04137235 0.04903379 -0.09038103 0.10030456
0002b0 b7 cc 23 be a2 11 80 3d 37 47 a1 3d c3 59 d6 bc
       -0.15996061 0.06253363 0.07874911 -0.026165849
0002c0 e7 c2 b8 bd 52 fc 9e bd 5e e6 1a 3e 05 99 91 3d
       -0.0902155 -0.0776297 0.1512694 0.07109264
0002d0 fc de c4 bd 08 1b 25 bb 2b 86 a4 bd da ff d5 bd
       -0.096128434 -0.0025193114 -0.08033403 -0.104491904
0002e0 62 ef ab bc 03 f1 4a be b7 92 68 3d 6f fa 65 3d
       -0.02098817 -0.19818501 0.056780543 0.056147035
0002f0 d8 78 2b be 34 d9 85 bd 12 21 30 3d 27 de 2b 3e
       -0.16745317 -0.06535569 0.04300029 0.16783963
000300 83 58 02 3e e8 ec 92 bc 0e f1 f9 bd c8 3a 1e 3c
       0.12729077 -0.017935231 -0.12204181 0.009657569
000310 df 45 42 be 0a c9 7f 3c 77 68 84 be ef 97 06 3e
       -0.18971966 0.015611896 -0.2586095 0.13143896
000320 64 43 11 be 6f 05 a5 3d 26 f4 1e be 02 a8 53 be
       -0.14185864 0.08057677 -0.15522823 -0.20669559
000330 01 f9 3e 3e 59 08 48 3e 6b a3 34 be b9 5f e5 3d
       0.18649675 0.19534434 -0.17640464 0.11199898
000340 b6 8a 60 bb 27 d9 a1 bd 08 fc 0f bb 6f e1 ea bd
       -0.0034262366 -0.07902747 -0.002197029 -0.11468779
000350 a6 09 c1 3d b4 55 38 3d 24 42 05 be 92 44 93 bd
       0.094256684 0.045003608 -0.13013512 -0.07190813
000360 94 26 17 3e ec b7 44 be 92 20 b7 3d 80 fb 66 be
       0.1476081 -0.19210786 0.08941759 -0.22556877
000370 84 c2 d7 3d a6 79 31 3d 7a d3 f5 bd f8 aa 9d bd
       0.10535148 0.043328904 -0.120032266 -0.07698625
000380 8e d1 3b be 78 95 d4 3c 30 c6 db 3d a4 80 d6 3d
       -0.18341658 0.025950179 0.10731161 0.10473755
000390 cf 55 08 be 49 0b 95 bc 36 48 b3 bd 27 3e 88 3d
       -0.13313983 -0.018193858 -0.087540075 0.066524796
0003a0 05 c3 84 bd b1 17 2a 3e 77 55 28 3e bc b5 3f bd
       -0.064825095 0.166106 0.16438852 -0.046804175
0003b0 4a 4b cd bd e2 5a 18 3c d6 cc 01 be 27 a4 c0 bd
       -0.10024126 0.009299012 -0.12675795 -0.094063096
0003c0 22 bc 45 be de c9 49 bd 3e 03 01 3d 48 81 25 be
       -0.19310048 -0.04926478 0.031497233 -0.16162598
0003d0 57 21 e8 3c 65 8c 47 3e 52 7e b8 3b 87 60 18 3c
       0.02833621 0.1948715 0.005630293 0.009300358
0003e0 91 67 b7 3d 84 79 be 3c 40 25 45 bd d6 42 16 be
       0.089553006 0.023251303 -0.048131227 -0.14673933
0003f0 3a 65 af be af c8 a7 3b b2 50 f1 bd 5e ee c7 3d
       -0.34256917 0.005120359 -0.117829695 0.09762262

value_stream.0.bias f4 [16]
000000 6c 42 07 40 06 08 00 40 ec 34 43 3f 01 92 e0 3f
       2.113429 2.0004897 0.7625263 1.7544557
000010 24 10 eb 3f b7 f6 f5 3f f2 5c 01 40 cd f2 e0 3f
       1.8364301 1.9215916 2.021298 1.7574097
000020 35 93 10 40 d6 32 e7 3f 60 40 9a 3f 64 86 03 40
       2.2589848 1.8062389 1.2050896 2.0550776
000030 24 76 f1 3f 4b 45 fb 3f 3f 6b fb 3f c7 d7 ec 3f
       1.8864179 1.9630522 1.9642104 1.850335

value_stream.2.weight f4 [1, 16]
000000 f4 41 f4 3c c4 dc 1e 3e de c0 1f 3e d4 c5 32 3e
       0.029816605 0.15513903 0.15600917 0.17458278
000010 e3 98 ca bd a4 99 54 3e 49 fa 12 be 3e 90 6b bc
       -0.09892442 0.20761734 -0.14353289 -0.014377652
000020 6e ac 07 bc f9 b0 b5 3d 62 43 16 3e 2e 40 06 bd
       -0.008280857 0.088716455 0.14674142 -0.03277605
000030 02 d5 39 bd b3 8a 33 be 22 b9 54 3e cb 92 21 3e
       -0.045369156 -0.17533378 0.20773748 0.15778653

advantage_stream.0.weight f4 [16, 32]
000000 17 3e 05 be 40 99 01 39 85 1a d8 bd 27 78 01 be
       -0.13011967 0.00012359489 -0.10551933 -0.1264349
000010 af 75 8b bd b3 8f 27 be 8c 01 2c be ad a6 88 3d
       -0.06809556 -0.1636341 -0.16797465 0.06672416
000020 e9 ad e4 3c 9b 57 12 3e af e4 ab bc ec 9c 4d 3d
       0.027914958 0.14291231 -0.020983068 0.05019848
000030 08 95 be bd 3b b0 d0 3d 65 95 97 3d 99 56 6a 3e
       -0.09305769 0.10189863 0.074015416 0.22884597
000040 60 17 59 3c 5a d5 6f be f1 0a 66 3e b1 25 e0 3d
       0.013250202 -0.23421231 0.22465111 0.10944689
000050 bb 4d 56 bd 61 e7 38 3b ff 60 e1 bd f1 d9 f4 3d
       -0.052320223 0.0028214084 -0.11004829 0.119556315
000060 de ac c4 bd d3 1a 1b bd f9 de 04 3e 16 72 eb 3d
       -0.09603284 -0.03786738 0.12975682 0.114963695
000070 4c f7 50 be a0 fa f4 3d 6d 56 3a 3e f9 22 10 be
       -0.20406836 0.119618654 0.18197031 -0.14075841
000080 3e b2 99 bc b9 a5 bf be 60 8a db 3d 34 0f 85 3d
       -0.01876175 -0.37431124 0.10719752 0.064970404
000090 c2 d3 8f bd 88 80 81 bd 6f 8b 80 be 53 94 41 3d
       -0.070228115 -0.063233435 -0.2510638 0.047260594
0000a0 41 9e 7c be d0 2e ea bc 37 67 0b 3e 0e 2d 0b 3e
       -0.24669744 -0.028586775 0.13613592 0.13591406
0000b0 ed 8d c7 bd b1 12 04 bd 3d c6 77 bd a2 13 9e bd
       -0.09743867 -0.032244388 -0.06049179 -0.077185884
0000c0 b0 c5 aa bb 89 04 1e 3e fe e0 32 3e 07 16 98 bd
       -0.0052115545 0.15431418 0.1746864 -0.074260764
0000d0 6d ac ae 3d a4 89 2a 3b 0f cd 0a be 98 17 bb 3c
       0.08528981 0.0026021982 -0.13554786 0.022838399
0000e0 9a 24 59 3d ae 32 28 bc d7 94 a7 3d 68 06 5a be
       0.05301342 -0.010265989 0.08182686 -0.21291506
0000f0 7e e1 c2 3d 6c f2 a6 bb 8c 21 23 3b be 7d b9 bd
       0.095156655 -0.005094817 0.0024891822 -0.090571865
000100 cc e0 e7 bd 78 36 00 be 24 76 5a bb 97 b1 20 bd
       -0.113221735 -0.12520778 -0.0033334577 -0.039231863
000110 a0 6d 90 bd a1 e8 3c bd d0 e6 e5 bc 02 aa eb 3c
       -0.07052159 -0.04612029 -0.028064162 0.02876759
000120 0a f7 27 3d 52 0b 78 bd ac 5d 17 3e 94 a9 20 3d
       0.04100708 -0.06055767 0.14781827 0.039224222
000130 11 69 a2 3d e1 22 f6 3d 10 08 db 3b e5 ad 7a bd
       0.07930196 0.120183714 0.0066843107 -0.061200995
000140 4c eb 01 3d ce f1 14 be 8b 69 c6 bd e6 b5 65 bd
       0.031718537 -0.14545366 -0.096880995 -0.056081675
000150 ae 06 bb 3d 94 53 f7 bd 95 7a fe bd aa 96 ab 3d
       0.091321334 -0.12076488 -0.124257244 0.08378346
000160 ae 2f 49 3d 69 66 da 3d f8 69 a1 bd da 1b bd bb
       0.049117737 0.106640644 -0.0788154 -0.0057711424
000170 28 a8 1c bd 9c a7 ab 3c c6 17 09 be c6 59 c4 ba
       -0.038246304 0.020953946 -0.13387975 -0.0014980368
000180 77 7d cc bd a1 40 92 3d 0f 2f 4e bc 1a 14 65 be
       -0.09984868 0.07141233 -0.012584462 -0.2237095
000190 03 7b 08 be ab e8 d6 bd 8d a3 90 be 35 28 1e be
       -0.13328175 -0.10493597 -0.2824978 -0.15445025
0001a0 7e 08 11 3d c0 bb f6 3d 89 a1 ed bd 31 9f 3a bd
       0.03540849 0.12047529 -0.11603076 -0.045561973
0001b0 d3 c3 d5 3d 08 0c f3 bc 00 af a0 3d 4a b3 40 3e
       0.10437741 -0.029668823 0.078458786 0.18818393
0001c0 ef 62 fd bd d3 6a 5c 3c 5c 4b d2 bc 29 71 d4 bd
       -0.12372386 0.013453203 -0.0256707 -0.10373146
0001d0 0d 30 dd bd 57 57 01 3e 5d f7 a1 bc 54 37 f2 3d
       -0.108001806 0.12630974 -0.019771272 0.11826959
0001e0 62 c7 ce 3d 5f e1 f1 bd 94 50 2a bc 11 de 84 3d
       0.10096623 -0.11810564 -0.010395188 0.06487668
0001f0 4f a5 f1 bd 38 40 23 bc 4d 6f 11 be 1b 33 ac 3d
       -0.11799108 -0.009964041 -0.14202614 0.08408185
000200 4b 85 c1 3b 51 ec eb bd b7 9e 08 3e 7e 18 d7 bd
       0.0059057823 -0.11519683 0.13341795 -0.105027184
000210 9a 2e d5 bd d3 a6 2b be f7 09 21 be 25 f9 c1 bd
       -0.10409279 -0.16762857 -0.15726458 -0.09471349
000220 16 fd 6d 3d 08 a5 1f 3e 56 f5 2e be 18 ae b6 bd
       0.05810269 0.15590298 -0.17085776 -0.089199245
000230 dd 00 93 bd ef f3 3f 3d fa 1d 5b 3e e2 b6 cd 3b
       -0.07177899 0.046863493 0.21398154 0.006277905
000240 f7 71 35 bd 85 54 bf 3c 98 ad 01 be 24 2a a1 bd
       -0.04429814 0.023355732 -0.12663877 -0.07869366
000250 23 99 80 bd 4b dc ae bd bf 42 89 bd 1e f3 05 3e
       -0.062792085 -0.08538111 -0.06702184 0.13081023
000260 f2 33 8b bc af b1 b9 bd 83 5f af 3d 48 a3 e1 3d
       -0.016992543 -0.090670936 0.08563139 0.110174716
000270 1b cf 13 be ac 56 cb 3d a7 e5 52 3d 04 c7 cf bd
       -0.14434473 0.09928641 0.051488545 -0.10145381
000280 fd 94 48 bd 3f 78 f0 bd 63 75 84 bd dd 6a 85 3d
       -0.04897021 -0.11741685 -0.06467702 0.06514523
000290 b2 4d ea 3d 21 27 9f 3c ce 0a b3 3d ce 0a 59 bc
       0.114406005 0.019427838 0.08742295 -0.013247205
0002a0 ee 83 05 3d 89 14 db 3d a6 b7 4e 3d ee 2f b0 bd
       0.03259652 0.10697276 0.05046811 -0.08602892
0002b0 11 21 9e 3d 22 68 47 3e 5b 35 5a bd 88 82 ba bd
       0.07721151 0.19473317 -0.05327354 -0.09106928
0002c0 42 3d 16 3d 5a 3b 2d bd 47 96 aa 3c bd 65 3b 3e
       0.036679514 -0.04229293 0.020823611 0.18300529
0002d0 d0 69 89 bc 96 d3 e1 bd 0b a3 cd 3d 76 e4 b8 bc
       -0.016774088 -0.11026685 0.100408636 -0.022569876
0002e0 e4 07 ee bd 2e 06 8d 3d ee 82 07 3c 56 41 1f be
       -0.11622599 0.06885944 0.008270962 -0.15552267
0002f0 89 b5 5c 3c 5a d9 22 3e e2 02 d2 3d 17 43 0d be
       0.013471016 0.15903226 0.10254456 -0.13795124
000300 be 25 5b 3c 24 cc f9 be 00 5f e4 3d 05 4f 23 3e
       0.013375698 -0.4878856 0.11150932 0.15948112
000310 3b c4 02 3e 62 4e 88 3d 06 69 a9 3a 98 a7 a5 bd
       0.12770168 0.06655575 0.0012924976 -0.080886066
000320 e0 15 0c be 96 83 bf bd 99 6a 1b 3e 06 94 25 3d
       -0.1368022 -0.0935127 0.15177383 0.04042437
000330 fa 92 70 3d 6b b2 83 3c 58 80 4d 3d 41 0b 12 3e
       0.058733918 0.016076287 0.050171226 0.14262106
000340 71 25 a3 3c 39 50 16 be 29 0b c2 bd c3 16 05 3e
       0.019915314 -0.1467904 -0.09474785 0.12996964
000350 09 63 09 be 8f 39 b2 bd dd 15 90 3c a2 25 ae 3d
       -0.13416685 -0.08702385 0.01758855 0.08503272
000360 be 60 de bd 98 37 fe 3d e6 87 4f 3b de a5 f6 bd
       -0.10858296 0.124129474 0.0031666695 -0.120433554
000370 de 74 64 bd aa f2 29 bd ef 37 fc 3b 9a eb 7b bd
       -0.055775516 -0.041491188 0.0076970975 -0.061503984
000380 77 91 77 3d 3e d7 a5 bc 34 85 0a bd d2 45 f7 bd
       0.06044146 -0.020244237 -0.03381844 -0.12073864
000390 a8 b7 69 be 26 26 c4 3d 43 40 66 3d c7 80 c1 bd
       -0.22823966 0.09577589 0.05621363 -0.094483905
0003a0 f1 d9 02 be f1 a5 33 3d c0 9c 55 ba 6e 6e c9 3d
       -0.1277845 0.043859426 -0.0008148663 0.09835516
0003b0 ab 08 c6 bd a7 52 41 bd 71 f5 19 3d 59 04 5d 3d
       -0.09669622 -0.047197964 0.037587587 0.053959224
0003c0 52 00 0f 3d 25 96 ef bd 9f bb 61 3d 4f 55 00 be
       0.034912415 -0.1169856 0.05511057 -0.12532543
0003d0 3e df f5 bc ac 7e 67 be 32 c4 c6 bd 6e e6 04 3d
       -0.030013677 -0.22606915 -0.0970539 0.032446317
0003e0 a5 9c 44 bc 50 71 89 bd 22 b3 ef 3d 6c ef 83 be
       -0.012000238 -0.06711066 0.11704089 -0.25768602
0003f0 df 1b c6 3d fa 85 11 3d fc 7a ad ba b4 4a 2a 3e
       0.09673285 0.03552816 -0.0013235505 0.1663006

advantage_stream.0.bias f4 [16]
000000 d1 80 04 40 67 45 04 40 a6 b5 0d 40 94 27 08 40
       2.0703623 2.066736 2.214212 2.1274157
000010 d1 bb 0b 40 10 40 0f 40 73 4d 08 40 e7 84 ef 3f
       2.1833384 2.238285 2.1297271 1.8712434
000020 ce 49 eb 3f e7 e5 e3 3f 6b a2 f1 3f 74 5f 02 40
       1.8381898 1.7804536 1.8877691 2.037076
000030 bf 41 02 40 09 84 09 40 37 c7 06 40 7c 99 13 40
       2.0352628 2.1486838 2.105909 2.306243

advantage_stream.2.weight f4 [8, 16]
000000 18 0c 67 3e b4 d0 92 3d ce 76 02 be b0 2e 6f 3d
       0.22563207 0.07168713 -0.12740633 0.058394134
000010 28 8c 32 be e8 e3 68 be 40 59 e9 3d 40 42 db 3c
       -0.17436278 -0.2274319 0.11393976 0.026764989
000020 34 c7 8b 3d c2 48 1f 3e 30 7e c3 bd 7c ae 04 be
       0.06825104 0.15555099 -0.09545553 -0.12957186
000030 3e fa 67 3e d8 96 38 3d d0 a5 4f be ec bc 9f bd
       0.22654054 0.04506573 -0.20278096 -0.07799706
000040 9a 3a 27 be 80 34 5e bb dc ef 3b be fa fe 57 be
       -0.16330948 -0.0033905804 -0.18353218 -0.2109336
000050 c4 cb e9 bd d0 1f fc 3c d8 f5 43 3e 15 13 11 be
       -0.11415818 0.030776888 0.1913675 -0.14167435
000060 c8 ad 06 bd 34 83 6b be f0 fd 35 3d c2 67 5f 3e
       -0.032880574 -0.22999269 0.044431627 0.21816924
000070 16 22 2f be 74 b6 4b be de 43 0c be 98 df 75 be
       -0.17102847 -0.19893819 -0.13697764 -0.24011075
000080 10 ad 95 bc 18 2b 28 3e 18 7d 52 3e d0 39 5a bd
       -0.018271 0.16422689 0.20555532 -0.05327779
000090 f8 5b 48 bd fc 75 64 be 3c d3 4a 3c 3e 90 4d be
       -0.048915833 -0.22310632 0.012379464 -0.20074555
0000a0 26 4b 5c 3e f6 a7 64 3e 74 13 8a 3d a8 da b2 bd
       0.21513042 0.22329697 0.06741992 -0.087331116
0000b0 80 3c a2 3c 28 c8 04 bd ac f2 01 be fa 5a 34 be
       0.01980424 -0.032417446 -0.12690228 -0.1761283
0000c0 10 e2 0a 3d 8c 52 b9 3d a6 8a 53 3e 28 d8 86 3d
       0.033906996 0.09048948 0.20658359 0.06584197
0000d0 56 9d 69 be ee dd 78 3e c6 20 21 3e 84 32 1a be
       -0.22813925 0.2430341 0.15735158 -0.15058333
0000e0 20 80 da 3c 80 13 dd bc 46 78 6b be 80 2a 35 bd
       0.026672423 -0.026986837 -0.229951 -0.044229984
0000f0 24 ac 8f bd 90 df 6f 3d 18 20 2f bd cc 5f 9b bd
       -0.07015255 0.058562815 -0.042755216 -0.07586631
000100 18 75 3b bd c8 98 5b 3e 30 80 9c 3c 60 fc f7 3d
       -0.045765966 0.21445 0.019104093 0.121086836
000110 ba 9f 68 3e 66 81 a6 3d 10 31 73 bd b0 33 a3 bd
       0.22717181 0.081301495 -0.05937296 -0.07968843
000120 68 fb 14 bd b4 8a 39 3e a4 76 76 3e 6c 75 91 3d
       -0.036372572 0.18119317 0.24068695 0.071024746
000130 20 a1 6c 3e 50 55 41 bd a0 70 2d 3e 50 9f 1e 3d
       0.2310834 -0.0472005 0.16937494 0.03872615
000140 10 84 79 3d 30 12 bf bd 3c 18 8e 3d e6 8a 79 be
       0.06091696 -0.09329641 0.06938216 -0.24369392
000150 a6 7d 72 3e b0 93 43 be cc fa 60 3e 86 08 2d be
       0.23680744 -0.19099307 0.21970671 -0.16897783
000160 48 7b 75 bd 90 cf fb bc e0 e3 f8 3d 16 bc 3e be
       -0.059932023 -0.030738622 0.12152839 -0.18626437
000170 d0 ac d8 bc 44 00 19 be a4 61 56 3e f0 00 be bc
       -0.02644959 -0.14941508 0.20935684 -0.023193806
000180 5a 69 46 3e b6 ef 78 be 46 f5 5f be bc 2e 2e 3e
       0.19376126 -0.24310192 -0.21870908 0.17010015
000190 26 63 17 be 20 c9 0b 3e 00 b0 7e 3e 52 b6 2e be
       -0.14783916 0.13650942 0.24871826 -0.17061737
0001a0 e0 f0 c7 3c 00 39 a1 bb a0 e5 bd bd 40 04 15 bc
       0.02440685 -0.004920125 -0.09272313 -0.009095252
0001b0 28 a5 4f 3e bc d7 d2 3d 86 65 28 3e f8 8b f0 bd
       0.20277846 0.10295054 0.16444978 -0.11745447
0001c0 17 35 7a 3e c8 cf ed 3d 24 f6 b7 bd fc 43 bc bd
       0.24434315 0.11611897 -0.089824945 -0.091926545
0001d0 36 44 66 3e 8c 1d 31 be 88 be 8a 3d 20 84 a6 bd
       0.22486958 -0.17296427 0.06774622 -0.081306696
0001e0 26 a1 6b 3e 3c 18 54 be 60 b2 98 3d 30 63 25 bd
       0.23010692 -0.2071237 0.07455897 -0.040377796
0001f0 18 67 14 be 58 e4 74 bd 04 28 bd 3d f6 e2 2b be
       -0.14492452 -0.059788078 0.09236148 -0.16785797

advantage_stream.2.bias f4 [8]
000000 c0 af d7 3b 6c c1 fa bd 10 51 09 be 50 20 75 3e
       0.0065822303 -0.122439235 -0.13409829 0.23938107
000010 16 cc 47 3e 9c e0 37 3e e2 76 4a be 40 7a f0 3c
       0.19511446 0.17956775 -0.19771913 0.029355168
