dumpedit/agent_target_network.pth (torch, 24297 bytes, 11 tensors)

feature_layers.0.weight f4 [64, 20]
00000000: 2a0c 3bbc 6ac9 183d e210 183e bc27 febd
00000010: 5540 503e 269f 363c 72cd 3a3e a36b 733b
00000020: 21b2 92bd 4d79 62be ac13 723d 20a4 5dbe
00000030: 376f 27be 046d 483e f56e 47be 8a7f 46bb
00000040: 289e e4bd 6a53 28be 6d34 f6bd d9ea 58bc
00000050: 4bc4 4fbe 911e aa3d ed2b 253e 1711 903d
00000060: f746 643c 2a96 88bd d4e2 eabd 4118 3abe
00000070: f5a5 64be 8b7c 6b3d fa2f 063e ef81 0fbe
00000080: 6b9e c4bd 943c 003d 0b36 bfbd 44b1 99bd
00000090: 229f 8ebd d25a 223e 0bb9 623e faba 1c3e
000000a0: 9445 4e3e dcf1 3a3d 0e51 643d 4bdc a0bd
000000b0: 8633 7abd d803 4b3e 76a7 ea3c ce07 303e
000000c0: e3e0 ac3d 997b 10be a216 10be b3c9 593d
000000d0: dd68 ffbd 3401 0abe 4ca9 463d 0a9f e5bd
000000e0: 58df 6e3d 7fce 00be 2dfa e7bd cc6d 1f3e
000000f0: 4e04 a83d e032 00be dbdb 623d 0795 30be
00000100: 0fe4 2c3e e130 f93d f48f 49bb 52e2 cf3d
00000110: 7847 51be 48f1 eb3c 3a11 5bbe 8bce 82bd
00000120: e137 2bbe 3bff 89bd 3ae7 313c a8cd c43d
00000130: c883 d33d a401 95bc 3f9a 3ebe d740 4bbe
00000140: 36a6 cfbc 66df 24be ece4 323e a703 a23c
00000150: 22bf 1b3e cfd7 debd 187c 553e df47 aebc
00000160: 7b2b b9bd 0416 32be 81a8 313e 4caa 19be
00000170: 5703 fb3d 9738 efbc 6cdf 2bbe d843 ca3c
00000180: 43bd 5a3d 52dc 1f3d 0cf2 62bd 0c2c 3abe
00000190: 7906 30be fd8e 853c aed1 06be 1335 123e
000001a0: fb90 43be 3827 51be 712d d33d 9055 cabd
000001b0: 1dbd 273d 13d8 b03d fb9e d4bc fcae 043e
000001c0: f73f 273e 3dbb dcbd 0427 e4bd 940b d43d
000001d0: a563 753c d5ed 46bd 03a3 aa3d 08a2 54be
000001e0: 2580 5cbe b47f 453e 7ea5 583e b5d8 b93d
000001f0: 3ec4 34be 6cef 56be 8935 cb3d ad0e ee3d
00000200: 187d 253e 54d2 28bd 23d9 063e b90c 67bd
00000210: 3293 d9bd 83aa 49be 52f2 593e 9fcb 563d
00000220: 12fe 73bd 618f 963d 8122 ae3d 166f 9e3d
00000230: 6c03 4ebe acdd 053d a4b1 02be 432b 203e
00000240: bf51 133c 8e47 383e 440b 82bd c1b4 9e3d
00000250: dd23 c8bd 25be 16be 7aef f8bd 41a2 cebd
00000260: 8bb5 583d 9e10 4b3e fdd3 4bbe 2241 1d3e
00000270: 8467 55be 0b4a 31be d367 dfbd 8765 bd3d
00000280: 703d 3d3e 4bd5 fcbd 8dc5 51be 60e2 9d3d
00000290: 5492 5c3e 1059 fabb 415b 353d 6932 fdbc
000002a0: 87b8 163d f00b 5fbe 9544 d1bd 93ba 0a3b
000002b0: 5e1a 9d3d 6aa7 623e 337a 5cbe fa8d 92bd
000002c0: 8894 9b3d fc47 fb3d bfc4 203e 7e9b 303e
000002d0: a4bf f43d 5787 763c 139c 453e c4d3 3c3b
000002e0: ee7e 3bbd 9f60 53be cc2e a43d f18f 073d
000002f0: 625b 033e 0269 1bbe 4145 583e be50 e83d
00000300: df96 d13d d1a6 9bbd 006f 55be 63cc cd3d
00000310: 3e71 603e b5df b2bd 6ccd 643e 1918 efbd
00000320: 420f 513e ccf4 9a3c fbcb 53bd 0970 adbc
00000330: b949 6ebd e23a c9bd d418 a4bd 54d2 f3bd
00000340: 6b79 563d 6a7b 41be dcc8 2e3e 3205 63bb
00000350: d92e 293e 98da 313e 7ec9 4c3e 1290 3e3e
00000360: 193d 42be df63 29bd f73b e3bd a9c7 43be
00000370: d431 37be 10a2 5fbe 9ed9 2c3e 13b1 f7bd
00000380: 687d efba 0e0c 35be c636 75bd 5083 27be
00000390: 92f7 2e3b ec57 17be 74ef 1b3e 2ad6 c23d
000003a0: c184 5f3e ee3e 58be ca4b 37be 2d29 48bd
000003b0: f7e9 21be 9172 f9bd 3de2 67bb 8125 9c3d
000003c0: 7217 e23c 1457 4c3e 21f1 173e 04dd 44be
000003d0: 7065 b9bc 939a f1bd 97db 81bc f8bd 613e
000003e0: 685f 2a3e ddc3 2f3d 88fc f1bc 2cbc 513e
000003f0: 5110 163e 14dc 8e3d 11b2 efbd 92b6 21be
-0.011416474 0.03730146 0.1485019 -0.124099225 0.2033704 0.011146342 0.18242434 0.0037143014
-0.07162882 -0.22116585 0.05910079 -0.2164464 -0.16351019 0.19572836 -0.1947592 -0.0030288422
-0.111629784 -0.1643807 -0.12021718 -0.013239586 -0.20289724 0.08306611 0.16130038 0.0703451
0.013932935 -0.066692665 -0.11469045 -0.18173315 -0.22328933 0.05749182 0.13104239 -0.1401441
-0.09600528 0.03130777 -0.0933648 -0.07504514 -0.06963946 0.15854958 0.22140901 0.15305701
0.2014373 0.04564081 0.055741362 -0.078545175 -0.061084293 0.19825685 0.028644305 0.17190477
0.08441331 -0.14109649 -0.14071134 0.05317087 -0.12471173 -0.13477021 0.048501298 -0.11211975
0.058318466 -0.12578772 -0.11327014 0.15569228 0.08203946 -0.12519407 0.05538545 -0.1724435
0.16883872 0.12167526 -0.0030755969 0.10150589 -0.2043742 0.028801575 -0.2139329 -0.06387051
-0.16720535 -0.067381345 0.010858351 0.09609538 0.1032787 -0.018189259 -0.18613528 -0.19848953
-0.02534781 -0.16100845 0.1747014 0.019777132 0.1520963 -0.10881006 0.2084812 -0.021274505
-0.09041496 -0.17391211 0.17349435 -0.1500637 0.122564964 -0.029201789 -0.16784447 0.024690554
0.05340315 0.039028473 -0.055406615 -0.18180865 -0.17189969 0.016303534 -0.13165924 0.14278059
-0.19098274 -0.20425117 0.10311402 -0.09879601 0.040951837 0.08634963 -0.025954714 0.12957376
0.16332994 -0.107779 -0.11140254 0.10353771 0.01497737 -0.048566658 0.08331873 -0.20764935
-0.21533258 0.19286996 0.2115688 0.09074537 -0.17652985 -0.2098977 0.099223204 0.11623893
0.16161 -0.04121621 0.13168769 -0.056408618 -0.106237784 -0.19693951 0.21283844 0.052440282
-0.059568472 0.07351566 0.08502675 0.07736032 -0.20118493 0.032682106 -0.12763077 0.15641503
0.008991658 0.17996046 -0.06349805 0.0774932 -0.097724654 -0.14720972 -0.121550515 -0.10089541
0.052907508 0.19830558 -0.19905086 0.15356877 -0.2084027 -0.17313401 -0.10908475 0.092478804
0.18480468 -0.1234537 -0.20485516 0.07709193 0.21540195 -0.0076400116 0.04427648 -0.030907826
0.036797073 -0.21781898 -0.10218159 0.0021168336 0.07671045 0.22134176 -0.2153099 -0.07155986
0.075966895 0.12269589 0.15700053 0.17246816 0.11950615 0.015046916 0.19297819 0.0028812746
-0.045775346 -0.20642327 0.08016738 0.033096258 0.12827829 -0.15176776 0.21120168 0.11343525
0.102338545 -0.07600177 -0.20843124 0.10048749 0.21918198 -0.08734075 0.22343987 -0.11674518
0.20415977 0.018915556 -0.051708203 -0.021171587 -0.058175776 -0.09825684 -0.08012548 -0.11905351
0.052361887 -0.18894735 0.1706881 -0.0034640548 0.16521777 0.17368543 0.19998738 0.18609646
-0.1896862 -0.04135501 -0.11095422 -0.19119133 -0.17890102 -0.21839166 0.1687989 -0.12094321
-0.0018271627 -0.1768038 -0.05986669 -0.16358685 0.0026697856 -0.14779633 0.15228063 0.09513505
0.21827985 -0.21117756 -0.17900005 -0.048867393 -0.15811907 -0.12180055 -0.0035382651 0.07624341
0.02759907 0.19955093 0.14838077 -0.19224936 -0.022631377 -0.11797061 -0.015851779 0.22045124
0.16637957 0.0429114 -0.029539362 0.20481938 0.14654662 0.0697557 -0.11703885 -0.15792301

feature_layers.0.bias f4 [64]
00000000: c8be 3bbf 1441 15bf c148 71be 323e 94be
00000010: 29b9 4ebe 9ad2 a8bf d049 3fbf 7ee2 473e
00000020: e055 06bd 7c8e 2cbf 12f4 86be fe3b 2abe
00000030: 5721 9fbe c4c3 aebe 72a8 d2be d43c a1bf
00000040: 9c7c 0fbe 6c99 58bf 2735 033f 09f2 afbe
00000050: f021 5fbd 2e55 a8bf f31d a4bf 1b48 a1be
00000060: 5784 32bf 5edb 44bf de6d 0ebd 451c 5bbe
00000070: bc71 9ebd 06e5 41be 8ac9 e9be 575f bbbd
00000080: 9db8 e3be f500 873e ca09 c1bf f40c bebe
00000090: e296 f43c 7740 4cbf da8d afbd c880 0abf
000000a0: e1c0 debe e4b3 08be 34c3 71be bdb6 85bf
000000b0: a1aa 16bf 9081 b2be a5db 6ebf e779 83bf
000000c0: 8b19 b6be ec7c 49bf 1f3d 923d d40f dcbf
000000d0: 96d7 773e ce3e 25bf 9a45 90be 5653 20bf
000000e0: 408d c8bd 981a a9be 5a22 34bd 9501 c4be
000000f0: c2e5 84bf ba02 e3be d1fd 08bf 8f38 9cbf
-0.73337984 -0.58302426 -0.2356291 -0.289537 -0.2018782 -1.318927 -0.74722004 0.19519994
-0.03279674 -0.67404914 -0.26358086 -0.16624448 -0.31080124 -0.34133732 -0.4114414 -1.2596688
-0.14012378 -0.84609103 0.5125298 -0.34364346 -0.054475725 -1.3150995 -1.282164 -0.31500325
-0.69733185 -0.7689723 -0.034772746 -0.21397503 -0.07736537 -0.18935022 -0.45661575 -0.09149044
-0.44476786 0.26367918 -1.5081112 -0.37119257 0.029857103 -0.79785866 -0.08571978 -0.54102755
-0.4350653 -0.13349873 -0.2360962 -1.0446392 -0.5885411 -0.34864473 -0.933039 -1.0271577
-0.35566363 -0.7870624 0.07140564 -1.719233 0.24203333 -0.6454896 -0.28178102 -0.6262716
-0.09792566 -0.33028102 -0.043978073 -0.38282457 -1.0382617 -0.44338018 -0.53512293 -1.220476

feature_layers.1.weight f4 [32, 64]
00000000: ebe1 f63d 8165 3d3d f060 4d3f 660d 7a3f
00000010: e278 023d 7b8c 0c3e 9342 e43d f27c ffbd
00000020: 48fe 2e3d 8f6f 4c3e d351 b73e 5557 4c3e
00000030: 91b0 8f3d cad1 debe 4700 023f ac78 303d
00000040: 092c 1b3f 7549 76bd f0b7 52be 69b3 1b3f
00000050: 6d5f 3bbf ac17 003e 932d 343e 9085 6a3e
00000060: 10db ccbc 7d17 0fbe 3299 d03c 0b61 8e3e
00000070: c8e3 493d d975 37be eee3 01bf ea01 173f
00000080: 68aa a23e 06a9 62be cc05 2fbc 92d1 b33e
00000090: 2c9a b53e f095 943e 01be a4bd 24b5 963e
000000a0: 0633 7dbe 1627 e8bc 1c7d 373f 2419 bb3c
000000b0: 2d02 12bd 14ec 12bc c4ec 94bb a2d5 98bd
000000c0: c889 c73e 9f5c cabd 36cb fabe 5826 ab3d
000000d0: 532d cabd 818c 053f 00ce d53e 6b51 7d3e
000000e0: 44d1 163f 3392 953d 94cd 8f3c 00ad 703e
000000f0: e8f3 a1bd f5ab a73e c5c2 9c3e 7aa7 873d
00000100: 059f b9bc 398d f63b 84cd 8dbd 4a1a aabd
00000110: 5773 75be e355 46bd dac9 82be 6ea2 49be
00000120: c7a8 c8be fbb0 03be d3d7 3bbe 0401 05bf
00000130: 2db9 803e 2bd5 56bf ff96 e1bd 0090 2cbe
00000140: eccc a8be dfc8 47be 3639 73be 593f 40be
00000150: 8764 d2bd 087c 54be 8470 6cbb b587 ff3d
00000160: 4934 50be 21b2 8fbe 0f67 d9bd b960 2e3e
00000170: b077 993e c4d4 03be a005 d5be caec e23e
00000180: 5686 55be aadc 803e 51a2 3dbd 2d9b 69be
00000190: 4039 4e3e 6b00 31bd 23b1 53bf c303 afbe
000001a0: 46f8 8b3e eb02 f63c cd17 e33d 9dc5 6dbe
000001b0: ff3c 2cbe 478e 84be 42d8 f2bd 28f5 0fbe
000001c0: 6c0b 97bd fcab 41be 78b1 40be 2c18 47be
000001d0: 688f 8c3d a8a1 6bbe d227 aebd c1fa 40be
000001e0: 72d0 a63e 1200 22be a257 eebe 11ff a8be
000001f0: fa41 34be 3edf 93bd c503 86be 8e8f debd
00000200: d6ba fc3e 87f8 833e 9965 7b3e a7f7 f93e
00000210: 88ce c43e bec3 e73e 9856 303f 44a3 eabe
00000220: 374c 25bf dcfa 3f3f 76ce cfbe 3d35 963e
00000230: 6841 8f3f 6bb1 213f b666 133f 6581 223f
00000240: cb01 953f 7889 2f3f 6915 4abf c644 063d
00000250: e2b4 0d3e 9455 ef3e 4585 2d3f a2dd c8bd
00000260: d1a6 3e3f 1eb6 223f 0daf c2be a3b8 bcbf
00000270: d48d d2be 2fa1 213e d5eb 2a3f b5dd a3bd
00000280: cd94 fd3e 3df3 67bf 56d8 343f a31d a43f
00000290: 296c 82bf 4101 083d 6846 e43e df43 e73e
000002a0: 904b c1be e985 f13e fa9b f9bd f3bc 1d3f
000002b0: dbb1 e8bb 660d d53e a5fe 063f 12b5 143f
000002c0: 0bc6 31be 4d3d fb3e 724d bc3e c718 333f
000002d0: 440c d3be c3b0 103f 29c2 fbbe aae8 083f
000002e0: dff2 42be 802f 563f 11fa 213f 3bb3 503f
000002f0: 3bef 043f cb98 a63f b4a0 363f 3e4c 9c3e
00000300: d17f dbbe 22c5 56be 4071 a9be 28bb ee3b
00000310: e639 d5be 01ad 72be 5bb4 cabe 6485 82bd
00000320: c344 edbe a966 87be a25b e3be ac09 a73d
00000330: 42c3 97be 0192 c9be 18a2 c8be 3b6d 92be
00000340: 5eaa 00bf e7c5 edbe a554 dbbe 895b c0be
00000350: 1bf4 98bd c484 73be 4b02 59be 8ca3 c83c
00000360: add0 12bf 830e adbe 5782 59be 6ac9 1abe
00000370: bf8e cb3d 26b5 62be 5f13 23bf 44c2 583e
00000380: 48a5 e1be d019 7e3e acc3 a3be f2e8 43bf
00000390: c185 203e 9d30 a6be 1aae efbe eca2 a7be
000003a0: 767b 013e ccd8 c1bc f4cf d23d 1bd7 20be
000003b0: 8129 1ebf fb52 e5be 4449 dabe ad1f bebe
000003c0: aefa 38bf e25c 92be c695 113e fb69 3abe
000003d0: 3235 4a3c 4347 0cbe 2508 283c d10e aebe
000003e0: 7208 f03e c21d ddbe b798 c9be 72d9 95be
000003f0: 2f60 c2be 4671 06bf 299a dcbe b3d7 053e
0.12054809 0.04623938 0.8022604 0.97676694 0.031853564 0.13725464 0.111455105 -0.12475003
0.04272297 0.19964431 0.35804614 0.1995519 0.07016099 -0.4351943 0.50781673 0.04308383
0.6061407 -0.060128648 -0.20577979 0.60820633 -0.73192483 0.1250903 0.1759551 0.22902513
-0.0250068 -0.13973804 0.025463674 0.27808413 0.049289495 -0.17916049 -0.5073842 0.58987296
0.31770635 -0.2213479 -0.010682534 0.35120827 0.35469186 0.29020643 -0.08044053 0.29435074
-0.24726495 -0.02833895 0.71675277 0.022839136 -0.035646606 -0.008967418 -0.004544826 -0.07462622
0.38972306 -0.09880947 -0.48983163 0.08356923 -0.09871926 0.52167517 0.41758728 0.2473809
0.58913064 0.07303276 0.017554082 0.23503494 -0.079078496 0.3274838 0.30617347 0.066237405
-0.022658834 0.0075241593 -0.069239646 -0.083057955 -0.2396978 -0.04842175 -0.25544626 -0.19690868
-0.39191267 -0.12860481 -0.18344049 -0.51954675 0.25141278 -0.8391902 -0.11015128 -0.16851807
-0.32968843 -0.1951022 -0.23752293 -0.18774165 -0.1027308 -0.20750439 -0.0036077807 0.12477056
-0.20332445 -0.2806559 -0.1061536 0.17029084 0.29974127 -0.12874132 -0.41605854 0.4432128
-0.20852026 0.25168353 -0.046297375 -0.22813101 0.20139027 -0.04321329 -0.82692164 -0.34182557
0.27337855 0.030030688 0.11088524 -0.23219915 -0.16820143 -0.258898 -0.11857654 -0.14058363
-0.073752254 -0.18913263 -0.18817699 -0.19442815 0.0686329 -0.23010886 -0.08503689 -0.18845655
0.32580906 -0.1582034 -0.46551234 -0.330071 -0.17603293 -0.072203144 -0.2617475 -0.10867225
0.49361295 0.2577555 0.24550475 0.48821756 0.3843882 0.45266527 0.6888213 -0.45827687
-0.6456942 0.74992156 -0.40587205 0.29337493 1.1191835 0.63161343 0.575786 0.6347869
1.1641172 0.68569136 -0.7893892 0.03278043 0.13838533 0.46744978 0.6778148 -0.09807898
0.7447329 0.6355914 -0.38024178 -1.4743847 -0.4112383 0.15784143 0.667661 -0.08001272
0.49527588 -0.9060553 0.706426 1.2821544 -1.0189258 0.03320432 0.44584966 0.4516897
-0.37752962 0.47172478 -0.12187953 0.6161644 -0.00710128 0.41611785 0.52732307 0.5808879
-0.17360704 0.49070206 0.36777836 0.6995968 -0.41220295 0.56519717 -0.4917157 0.5348002
-0.1903796 0.8366623 0.63272196 0.81523484 0.51927537 1.3015379 0.71338964 0.30526918
-0.42870954 -0.20973638 -0.33094215 0.0072854944 -0.41645736 -0.23698808 -0.39590725 -0.063730985
-0.46341524 -0.2644551 -0.44405848 0.08156142 -0.29641157 -0.39369205 -0.39186168 -0.2859896
-0.5025996 -0.4644005 -0.42838016 -0.37569836 -0.074684344 -0.23781115 -0.21192281 0.024492048
-0.57349664 -0.33800134 -0.21241127 -0.15115896 0.09939336 -0.22139415 -0.6370143 0.21167856
-0.44071412 0.24814534 -0.31985223 -0.7652732 0.15676023 -0.32458964 -0.46812516 -0.32741487
0.12644753 -0.023662947 0.1029357 -0.15707056 -0.6178208 -0.44789872 -0.42634022 -0.37133542
-0.72257507 -0.2858649 0.1421729 -0.18204491 0.012341784 -0.13699059 0.010255848 -0.3399568
0.46881443 -0.43186766 -0.39374325 -0.2926746 -0.37964007 -0.5251659 -0.43086365 0.13070564

feature_layers.1.bias f4 [32]
00000000: 8961 26be e059 2b3d 0e63 2bbf 1ad5 e53e
00000010: 70c6 8dbe b4ca e03e 9f2f c0be 5a24 4fbe
00000020: c93a c1be 5481 83be eac6 97bc 172a debe
00000030: c590 93be 5756 e33c 707a 9e3d 91f7 a0be
00000040: 5f93 63be ee5d 49bd ca31 2ebe bebe 403e
00000050: 3085 c2be 48c5 99be ea40 82be 0ad2 f43d
00000060: 5263 97be 6b9c f5bf d68c 08be 4fd6 85be
00000070: 3fde e7be b818 6dbe 9493 b3bf e1e8 423d
-0.16248144 0.04183376 -0.6694802 0.44889146 -0.27690458 0.4390465 -0.37536332 -0.20228711
-0.37740162 -0.25684607 -0.018527467 -0.43391487 -0.28821388 0.027751131 0.07738197 -0.31438878
-0.22224186 -0.049161844 -0.1701118 0.18822762 -0.3799224 -0.30033326 -0.2544015 0.11954124
-0.29567963 -1.918836 -0.13334975 -0.26140067 -0.45286748 -0.2315396 -1.4029412 0.047585372

value_stream.0.weight f4 [16, 32]
00000000: 085e cabd b0f7 97bd 2dde b43d 8110 bfbd
00000010: f974 b3bd 6b97 19be 2b0f 253d c0f4 a5bd
00000020: 850a 8dbd b172 2f3c 8e6c 49bd 3917 a6bd
00000030: 2244 b43d f417 323e ba0d 69bd d7b7 c1bc
00000040: 635b 59bd 3466 1db9 dab2 fdbd b529 8e3d
00000050: ca75 8d3d 308e 2dbe e614 7aba 1f1f d7bd
00000060: 734d f73d b6cc 25be fc7d 04be 966f 30bd
00000070: ae80 26be e24a 3bbd 5bf3 aa3d 1436 09bd
00000080: 45cf cc3d 5aaf 733d 8c80 35bd d89c f23d
00000090: 5caa 08be b972 0b3e 3614 38be 5c65 fdbc
000000a0: 86f0 013e fbc3 58bd 13b7 e93d 7819 e93c
000000b0: f023 ccbd 380a debd b1d9 e43d 9393 16bd
000000c0: f867 0abe b227 6a3c bce1 e4bd 510d b7bc
000000d0: 9125 7b3d 741d eabc 1696 22bd a46e a9bc
000000e0: 1810 53bd 718b 9fbd f2d2 11be 55a9 bbbd
000000f0: 9293 13bd 158e 32bd 7c44 f3bd a1da 143e
00000100: 6468 c63d f2cc a4bd 10fa c93b 2b34 de3d
00000110: 0109 b13d dfaf cf3d d045 033e d608 3bbe
00000120: 8770 64be 2f53 4dbd 731f 1fbe 605f 5bbd
00000130: 70aa 67be b734 e53c ad7d 7c3e 0ed4 043c
00000140: 9966 a5bd 4668 1bbe 2db7 a63c eaf9 d8bd
00000150: beec e2bd 56a4 6d3d f045 b53d b645 12be
00000160: 10b4 753c 6786 3f3e 3eb6 63be 369b 89be
00000170: 0445 253d 174d 5dbe 2219 8b3c 978d e2bc
00000180: f6f1 cd3d 94ff e5bd 4bfc 25bc cb39 ea3d
00000190: 1245 3fbe b61c 453d ea4e 2abd 32a6 10be
000001a0: 8661 683d 6eb9 1a3e 1c3a bb3c 09c9 d4bc
000001b0: c42f fd3d fc95 5f3c 9fd4 39be 83e4 763d
000001c0: e141 a13d 2add b0bd afca a7bd c313 eebd
000001d0: 5bb9 6dbd 01be 00bd edf7 dabd fe32 ca3c
000001e0: 546e 2abd 9c53 c23c 47ff 0a3d 1d30 483c
000001f0: 98be 2abd 381e bebc 0078 073d 9ac6 ae3d
00000200: 42ec ed3d 50b7 97bd 16ca c23d 7f26 89bd
00000210: c9ec 19be 5ee3 573d f63b b03d a7e3 3a3e
00000220: a335 083d 00c9 92bd 90f6 283e a4ff 89bd
00000230: 3c5d e4bd fd07 f5bb de98 a23d 2808 00be
00000240: 3494 c63d 110c 7abd 9884 0dbe f90f ea3a
00000250: 060b 1aba c406 243d d691 afbc b805 1e3e
00000260: a31c 5cbd db92 893d e6b6 01be 13c2 b0bd
00000270: b199 273d 571a b7bc 383e 533c 1bb6 353b
00000280: a3d1 1cbe 41b2 93bd 8686 96bd c5d6 853d
00000290: 3dc9 143e 8245 d73c 7469 143e eaed fe3c
000002a0: 2bf0 bebb 4741 193d 3279 bcbd c807 de3d
000002b0: c85e 21be b562 3f3d 6717 913d 130e 82bd
000002c0: 3672 adbd 6233 9dbd 8285 053e be90 b43d
000002d0: be69 d1bd a33a 083d c360 8dbd 2617 fdbd
000002e0: cadb 02bd 458c 2bbe c39c 293d 4eda bd3d
000002f0: 8d89 30be e9fe ddbd 5bf7 8a3d 8407 2a3e
00000300: cb52 133e 960c b63d 0ee3 f5bd a083 533c
00000310: b4a5 37be 493a b83c 07a4 58be 9420 c03d
00000320: c3ec d9bd c604 9e3d 849d 1fbe dcc7 32be
00000330: 3c9d 383e e881 323e 6995 07be ea47 963d
00000340: c247 113d ecda 96bd 37fd 80bc 99f1 06be
00000350: 1652 ce3d d5a0 843d 66d3 efbd 32ac b2bd
00000360: 7660 0c3e 834a 35be 9978 923d 89ee 2dbe
00000370: fbe1 0a3e 73a7 c5bb 68eb 7dbd 4cbe 9ebd
00000380: b185 0cbe f75f c83d 1c10 c43d d185 d53d
00000390: bdce d2bd 00b3 4bbc 94e9 febd 281f fa3c
000003a0: 7bd1 91bd badd 263e 0de5 243e 5ebc a0bc
000003b0: ab3d 24bd dd4c 85bc 015d 0fbe 79fb f3bd
000003c0: 732a 21be 093e 1dbd e9ca 00bc 2129 26be
000003d0: e296 083d 32ee 1a3e d0c5 b73c a9e0 6c3c
000003e0: 5034 893d fb1f e83c 9e91 a2bd 0450 25be
000003f0: 4a69 7ebd 0f9a 41bd d37b c9bd 0b3a 8d3d
-0.09881216 -0.074202895 0.08831439 -0.0932932 -0.08762545 -0.14999168 0.04029767 -0.08103323
-0.06886772 0.010708497 -0.04917579 -0.08109898 0.08802058 0.1739195 -0.056897856 -0.023647232
-0.05306567 -0.0001501076 -0.12387629 0.06941549 0.06907232 -0.16948771 -0.0009539857 -0.10503983
0.12075319 -0.16191372 -0.12938684 -0.043075167 -0.16260025 -0.04572571 0.083471976 -0.03349884
0.10000471 0.0594934 -0.044312045 0.11846322 -0.13346237 0.13617982 -0.1797646 -0.030932121
0.12689409 -0.052921277 0.11411872 0.028454527 -0.09967792 -0.10841793 0.11174334 -0.03676183
-0.13516223 0.014291691 -0.11175868 -0.022345217 0.061315123 -0.028578497 -0.039693914 -0.02068264
-0.05152902 -0.07790268 -0.14240626 -0.09163157 -0.036029406 -0.04359253 -0.11878297 0.14536525
0.0968788 -0.08046903 0.006163843 0.10849794 0.086442955 0.101409666 0.128196 -0.1826509
-0.22308551 -0.05012816 -0.1553934 -0.053557754 -0.2262361 0.027979238 0.24657317 0.008107198
-0.080762096 -0.15176496 0.020351017 -0.10594542 -0.11080311 0.05801805 0.0885123 -0.14284405
0.0149965435 0.18703614 -0.22237489 -0.2687623 0.04034902 -0.21611439 0.016979758 -0.027655406
0.10055916 -0.11230388 -0.010130952 0.114368044 -0.18678692 0.048123084 -0.041579165 -0.14125898
0.05673363 0.15109798 0.022854857 -0.025974767 0.12362626 0.013646599 -0.18147515 0.06027652
0.078738935 -0.08635934 -0.08192956 -0.11624863 -0.058038097 -0.0314312 -0.10691819 0.024682518
-0.041609123 0.023721509 0.033934858 0.012218502 -0.04168567 -0.023207769 0.033073425 0.08533974
0.11617328 -0.07408011 0.09511201 -0.06696796 -0.15031733 0.05270707 0.08605187 0.18250905
0.033254277 -0.07167244 0.16500306 -0.06738213 -0.111505955 -0.007477759 0.07939313 -0.12503111
0.09696236 -0.061046664 -0.13820112 0.0017857543 -0.00058762764 0.040045515 -0.021431845 0.15431869
-0.053738248 0.067174636 -0.12667426 -0.08630767 0.040918056 -0.022351427 0.012893252 0.0027726952
-0.15314345 -0.072117336 -0.07349877 0.06535105 0.14529891 0.026278261 0.14493352 0.031119306
-0.00582697 0.03741577 -0.09202804 0.10841328 -0.15758812 0.046724994 0.07084542 -0.06350341
-0.0846905 -0.07675816 0.1303921 0.0881667 -0.10225247 0.033259045 -0.069032215 -0.12357931
-0.03194789 -0.16752727 0.041409265 0.09270154 -0.17239971 -0.10839636 0.067854606 0.1660443
0.14387052 0.08889119 -0.12006198 0.0129098 -0.17934304 0.02248873 -0.21156321 0.09381214
-0.10640862 0.07715754 -0.15587431 -0.17459053 0.1802873 0.17432368 -0.13240589 0.07337935
0.035468824 -0.07365975 -0.015745742 -0.131781 0.100742504 0.06475989 -0.11710243 -0.0872425
0.13708672 -0.17704205 0.071519084 -0.16985525 0.13562767 -0.0060319244 -0.06199208 -0.0775114
-0.13722874 0.09783929 0.09573385 0.10425914 -0.102933384 -0.012432814 -0.12446895 0.030532435
-0.07120033 0.1629552 0.16103001 -0.01962107 -0.040097874 -0.016272003 -0.14000322 -0.11913199
-0.1573885 -0.03838924 -0.007860878 -0.16226627 0.033347018 0.15129927 0.022433192 0.01445786
0.06699431 0.028335562 -0.079379305 -0.16143805 -0.06211213 -0.047266062 -0.09838071 0.068958364

value_stream.0.bias f4 [16]
00000000: f045 783f 0c6f 5b3f 873a 803e 4640 2a3f
00000010: 8cfd 453f b0a4 483f 725f 693f 9916 303f
00000020: dbdc 813f dc70 4e3f acb7 fe3e 5068 533f
00000030: 21a4 3c3f 0432 5e3f 1aec 5a3f 2299 3a3f
0.96981716 0.8571632 0.25044653 0.66504323 0.77340007 0.78376293 0.91161263 0.6878448
1.0145525 0.8064096 0.49749506 0.82581043 0.7368794 0.8679507 0.8551651 0.7288991

value_stream.2.weight f4 [1, 16]
00000000: 2f47 013d 4a34 263e dae9 2c3e 46aa 3a3e
00000010: 23ef d2bd c61d 5e3e 475a 19be c7b0 71bc
00000020: ea8f 11bc d8c0 b63d 371c 1d3e e791 0cbd
00000030: b0fa 43bd 90f2 3bbe 5e21 5f3e 1ed3 293e
0.031562027 0.16230884 0.16886082 0.18229017 -0.10299518 0.21691045 -0.14975844 -0.01475162
-0.008884409 0.08923501 0.15342794 -0.03431883 -0.047846496 -0.18354249 0.21790072 0.16584441

advantage_stream.0.weight f4 [16, 32]
00000000: ddbc 1dbd ff88 36bd a1bb dcbd 4d3e 54bd
00000010: 040d 3ebc ac6d 2abe f802 c2bd 1834 943d
00000020: 1d56 763d 2292 1f3e 638d edbb 2fbf 363d
00000030: 5437 b1bd d72d a33d caab fa3c 1c50 453e
00000040: 60ef 623d 5b90 36be 3734 463e 3831 b53d
00000050: 4cc9 7ebd 6fa4 1c3d ac26 c1bd be26 e93d
00000060: dcb1 f8bd 4a52 79bc 1d8a 083e e32d 093e
00000070: 72a5 22be b3e5 bf3d e972 343e 1aaa 1fbe
00000080: 7437 dd39 e210 84be 0c05 0f3e 05fb 9a3d
00000090: 7db1 34bd c0d4 7cbd 3ab7 54be 72b0 8e3d
000000a0: 7553 45be 58d5 10bd 4420 163e 0bd6 0f3e
000000b0: feb1 c4bd c9c4 86bd b149 56bd 4aa9 f7bd
000000c0: 2330 533c cf4b 263e 50e6 233e 205d a9bd
000000d0: 6e69 a23d 9d1e f23c d670 0fbe 6dad 993c
000000e0: 3b85 3f3d 08cf 8e3c f143 a53d 866d 30be
000000f0: e9c6 c33d 6180 48bd 868a 6e3c 6516 e6bd
00000100: d7fe 9cbd 1577 a8bd d1ba 1fbc 3427 c53b
00000110: db1b 2cbd 8951 2ebd ace4 7f3c ce8c 9e3c
00000120: e562 b13d 955a 91bd ff91 1c3e b73b 063d
00000130: b047 f03d 8b2e c63d 9a6a 8e3d ad60 d0bd
00000140: 42e7 123d 1353 0bbe b1ed 04be 0b4e 95bd
00000150: 2706 c03d 31ee eabd 3846 e3bd 4c41 b23d
00000160: 89d4 003d 4efa 0d3e 0a0c ccbd f2b4 f5bc
00000170: 5a2f 8e3c 5ec4 dbbc 88d1 e5bd e274 a3bc
00000180: 8c91 9abd 02ac 033e 7069 8dbc f489 3ebe
00000190: 5b4a 9fbd 6a9f d5bd 8f97 5dbe b7e5 24be
000001a0: 2f99 793d aba0 df3d 2258 f5bd 7b65 64bd
000001b0: 5997 083e db18 61bd fac0 b33d 6a57 143e
000001c0: 2ba1 bcbd 16d6 043d d3ef 56bd fb1a eebd
000001d0: 5dbb 0ebe 0abf 1b3e 52b1 853c 352a fd3d
000001e0: 61b1 933d 52e7 b7bd 0abd cdbc af1b 9e3d
000001f0: 784d bbbd 21cd 6abd 7706 0fbe 7e32 a63d
00000200: f12d 363d 3ab6 e03c 7daf 1a3e c2e5 efbd
00000210: 6a6c c2bd dc5e 2ebe dc00 dcbd 2f13 c9bd
00000220: 3288 bd3d 5952 223e 09a6 2ebe 9e91 bdbd
00000230: 1325 73bd 90ff 8c3c e133 1f3e 7f74 edbc
00000240: 3995 23bd 1fc3 dd3c 4486 14be 4085 a7bd
00000250: af6e 99bd 5ecf d1bd 604f 95bd 8fb5 0b3e
00000260: 6385 1ebd 0609 68bd 1ac6 8c3d 16fe dd3d
00000270: aee8 24be 136e 833d 0d2d de3d 5fef f0bd
00000280: 04d2 c7bc c8c1 c33b 55ca 5bbd b769 ba3d
00000290: a089 093e 8761 cc3c 22ec 093e 7a5c 10bd
000002a0: a693 6a3d d8b1 e43d c2b2 533d 9c2d d9bd
000002b0: 8875 913d 3df3 383e ef2b 82bd 367e 04be
000002c0: 174c 063d bdeb 2ebd 2472 813a 28ee 363e
000002d0: 1b08 51bc 6d2e fcbd b8ad e03d 8f30 05bd
000002e0: cc02 08be 4d11 f83d a13d 6fbb e4e9 e0bd
000002f0: dc22 743c 7512 093e 9acd 0c3e 62f2 17be
00000300: fc1d 1e3d 49c6 72be 67e1 fc3d 1553 023e
00000310: 44c2 093e b06f 993d 13a2 253d 2edd 05be
00000320: fcb0 94bd 01c8 d6bd 62f6 293e 7585 6e3d
00000330: a437 663d 4893 dbbb 7f63 623d f840 d33d
00000340: 8cce b93c c27b 12be b02a 03be ced3 183e
00000350: ed4f febd 19ec 1ebd 8546 e03c b03d c93d
00000360: b593 0fbe 51b6 193e 1203 0fbc ba8f 89bd
00000370: f4c3 5bbd 7b63 b2bd b348 a43d 8e69 9ebd
00000380: 7e50 ae3d dee1 9e3d 8981 1ebd dd1b 0cbe
00000390: 24fc 49be 68cb d73d 41b3 fe3d 57e7 afbd
000003a0: e136 c4bd ebe6 1d3d faa7 83bc 03a6 9d3d
000003b0: 6184 ebbd 6f72 5fbd 071f d33c 3ce3 1d3d
000003c0: f145 4a3d d7b8 0dbe 3a12 093d d07d 90bd
000003d0: 06f9 27bd 5d90 3cbe fdef d6bd 16c3 2e3d
000003e0: 9956 debc be23 5dbd be30 ad3d 0f96 51be
000003f0: 78b5 ed3d 7aa0 353c 6931 143d 2f90 273e
-0.038510192 -0.044564243 -0.10777975 -0.051817227 -0.011599783 -0.16643399 -0.094732225 0.072364986
0.060140718 0.15583089 -0.0072495206 0.04461592 -0.08653131 0.07967728 0.030599494 0.1926884
0.055404067 -0.17828505 0.19355856 0.08847278 -0.06220369 0.038242754 -0.09431204 0.113843426
-0.12143299 -0.015217373 0.13333936 0.1339641 -0.15883425 0.093699835 0.1762196 -0.15592232
0.0004219372 -0.2579413 0.13966769 0.075674094 -0.04411458 -0.06172633 -0.2077302 0.06967248
-0.19270118 -0.03535971 0.14660746 0.14046495 -0.09604262 -0.065805025 -0.05231637 -0.12092836
0.012889895 0.16239856 0.16005826 -0.08269715 0.07930265 0.029555613 -0.14007887 0.018759454
0.046757918 0.017432705 0.080695994 -0.1722928 0.095594235 -0.048950557 0.014559394 -0.1123474
-0.07665794 -0.08225838 -0.00974913 0.0060166363 -0.042018753 -0.042558227 0.0156184845 0.01935425
0.08661441 -0.07097355 0.15290068 0.032771792 0.11732423 0.09676846 0.069539264 -0.101746894
0.035865076 -0.13605909 -0.12981297 -0.07290276 0.093761735 -0.11471213 -0.110973775 0.08703861
0.03145269 0.13865015 -0.09963234 -0.029993508 0.017356563 -0.026827034 -0.112216055 -0.019953195
-0.07547292 0.12858585 -0.01726219 -0.18607312 -0.07777854 -0.104307964 -0.21639846 -0.16103254
0.060937103 0.10919317 -0.119797006 -0.05576084 0.13338985 -0.054955345 0.08777042 0.14486471
-0.09210428 0.03243073 -0.052474808 -0.1162624 -0.13938661 0.15209594 0.016319904 0.12361566
0.07211567 -0.08979668 -0.025114555 0.07720124 -0.09145635 -0.057324532 -0.1396731 0.08115099
0.044477407 0.027430642 0.15106006 -0.11713745 -0.094933346 -0.17028373 -0.107423514 -0.09818112
0.09254493 0.15851726 -0.17055525 -0.0925629 -0.05936153 0.017211705 0.15547134 -0.028986214
-0.03993723 0.02707058 -0.14504343 -0.08179712 -0.07491814 -0.1024463 -0.0729053 0.13643478
-0.038701426 -0.05664923 0.068737224 0.10839479 -0.16104385 0.06417479 0.108484365 -0.117644064
-0.024392135 0.0059740283 -0.053659756 0.09102195 0.13431406 0.024948848 0.13468984 -0.035244443
0.057269715 0.111667335 0.05168415 -0.106044024 0.071024954 0.18061538 -0.06356036 -0.1293877
0.03278741 -0.042705286 0.0009875936 0.17864287 -0.01275828 -0.123135425 0.10970634 -0.032517012
-0.13282317 0.12112675 -0.003650524 -0.10982111 0.014900889 0.13385947 0.13750306 -0.14838555
0.038602814 -0.23708452 0.123476796 0.12727006 0.13453013 0.07492006 0.04043777 -0.13072655
-0.072603196 -0.104873665 0.16597894 0.058232743 0.056205407 -0.006700907 0.055270668 0.10315126
0.022681497 -0.14305022 -0.12809253 0.14924547 -0.124175884 -0.03879938 0.027377376 0.09826219
-0.1402119 0.15010954 -0.008728759 -0.06716867 -0.053653672 -0.08710381 0.08021679 -0.07734977
0.085114464 0.077579245 -0.038697753 -0.13682504 -0.1972509 0.105368435 0.12436534 -0.085890464
-0.0958078 0.0385503 -0.016071308 0.0769768 -0.11499859 -0.05455249 0.02577163 0.038546786
0.049383108 -0.13840042 0.033464648 -0.07055247 -0.04100897 -0.18414445 -0.10494993 0.042666517
-0.027140902 -0.053989165 0.084565625 -0.20467399 0.11606878 0.011085624 0.036179934 0.16363595

advantage_stream.0.bias f4 [16]
00000000: de1c 5c3f 1d96 743f 3585 863f af3b 783f
00000010: 924b 833f 43f1 873f d8ba 783f 837d 3c3f
00000020: f192 3c3f e789 323f 3cae 3b3f c58b 5f3f
00000030: 0fd3 5f3f dec5 6d3f 9424 703f 8e50 853f
0.8598155 0.95541555 1.0509402 0.9696607 1.0257437 1.0620502 0.971601 0.73629016
0.73661715 0.6974167 0.73312736 0.87322646 0.87431425 0.92880046 0.93805814 1.0415208

advantage_stream.2.weight f4 [8, 16]
00000000: 180c 673e b4d0 923d ce76 02be b02e 6f3d
00000010: 288c 32be e8e3 68be 4059 e93d 4042 db3c
00000020: 34c7 8b3d c248 1f3e 307e c3bd 7cae 04be
00000030: 3efa 673e d896 383d d0a5 4fbe ecbc 9fbd
00000040: 9a3a 27be 8034 5ebb dcef 3bbe fafe 57be
00000050: c4cb e9bd d01f fc3c d8f5 433e 1a13 11be
00000060: c8ad 06bd 3483 6bbe f0fd 353d c267 5f3e
00000070: 1622 2fbe 74b6 4bbe de43 0cbe 98df 75be
00000080: 10ad 95bc 182b 283e 187d 523e d039 5abd
00000090: f85b 48bd fc75 64be 3cd3 4a3c 3e90 4dbe
000000a0: 264b 5c3e f6a7 643e 7413 8a3d a8da b2bd
000000b0: 803c a23c 28c8 04bd acf2 01be fa5a 34be
000000c0: 10e2 0a3d 8c52 b93d a68a 533e 28d8 863d
000000d0: 569d 69be eedd 783e c620 213e 8432 1abe
000000e0: 2080 da3c 8013 ddbc 4678 6bbe 802a 35bd
000000f0: 24ac 8fbd 90df 6f3d 1820 2fbd d45f 9bbd
00000100: 1875 3bbd c898 5b3e 3080 9c3c 60fc f73d
00000110: ba9f 683e 6681 a63d 1031 73bd b033 a3bd
00000120: 68fb 14bd b48a 393e a476 763e 6c75 913d
00000130: 20a1 6c3e 5055 41bd a070 2d3e 509f 1e3d
00000140: 1084 793d 3012 bfbd 3c18 8e3d e68a 79be
00000150: a67d 723e b093 43be ccfa 603e 8608 2dbe
00000160: 487b 75bd 90cf fbbc e0e3 f83d 16bc 3ebe
00000170: d0ac d8bc 4400 19be a461 563e f000 bebc
00000180: 6469 463e b6ef 78be 46f5 5fbe bc2e 2e3e
00000190: 2663 17be 20c9 0b3e 00b0 7e3e 52b6 2ebe
000001a0: e0f0 c73c 0039 a1bb a0e5 bdbd 4004 15bc
000001b0: 28a5 4f3e bcd7 d23d 8665 283e f88b f0bd
000001c0: 1a35 7a3e c8cf ed3d 2cf6 b7bd fc43 bcbd
000001d0: 3644 663e 8c1d 31be 88be 8a3d 2084 a6bd
000001e0: 26a1 6b3e 3c18 54be 60b2 983d 3063 25bd
000001f0: 1867 14be 58e4 74bd 0428 bd3d f6e2 2bbe
0.22563207 0.07168713 -0.12740633 0.058394134 -0.17436278 -0.2274319 0.11393976 0.026764989
0.06825104 0.15555099 -0.09545553 -0.12957186 0.22654054 0.04506573 -0.20278096 -0.07799706
-0.16330948 -0.0033905804 -0.18353218 -0.2109336 -0.11415818 0.030776888 0.1913675 -0.14167443
-0.032880574 -0.22999269 0.044431627 0.21816924 -0.17102847 -0.19893819 -0.13697764 -0.24011075
-0.018271 0.16422689 0.20555532 -0.05327779 -0.048915833 -0.22310632 0.012379464 -0.20074555
0.21513042 0.22329697 0.06741992 -0.087331116 0.01980424 -0.032417446 -0.12690228 -0.1761283
0.033906996 0.09048948 0.20658359 0.06584197 -0.22813925 0.2430341 0.15735158 -0.15058333
0.026672423 -0.026986837 -0.229951 -0.044229984 -0.07015255 0.058562815 -0.042755216 -0.07586637
-0.045765966 0.21445 0.019104093 0.121086836 0.22717181 0.081301495 -0.05937296 -0.07968843
-0.036372572 0.18119317 0.24068695 0.071024746 0.2310834 -0.0472005 0.16937494 0.03872615
0.06091696 -0.09329641 0.06938216 -0.24369392 0.23680744 -0.19099307 0.21970671 -0.16897783
-0.059932023 -0.030738622 0.12152839 -0.18626437 -0.02644959 -0.14941508 0.20935684 -0.023193806
0.19376141 -0.24310192 -0.21870908 0.17010015 -0.14783916 0.13650942 0.24871826 -0.17061737
0.02440685 -0.004920125 -0.09272313 -0.009095252 0.20277846 0.10295054 0.16444978 -0.11745447
0.24434319 0.11611897 -0.089825004 -0.091926545 0.22486958 -0.17296427 0.06774622 -0.081306696
0.23010692 -0.2071237 0.07455897 -0.040377796 -0.14492452 -0.059788078 0.09236148 -0.16785797

advantage_stream.2.bias f4 [8]
00000000: c0af d73b 6cc1 fabd 1051 09be 5620 753e
00000010: 16cc 473e 9ce0 373e e276 4abe 407a f03c
0.0065822303 -0.122439235 -0.13409829 0.23938116 0.19511446 0.17956775 -0.19771913 0.029355168
