dumpedit/agent_target_network.pth (torch, 22441 bytes, 11 tensors)

feature_layers.0.weight f4 [64, 14]
000000 02 de 57 40 09 4c 04 c0 e7 d5 89 c0 77 80 28 c1
       3.3729253 -2.0671408 -4.307361 -10.5313635
000010 88 89 94 40 20 ce cd c0 3a 7b 4f c0 eb e3 a3 40
       4.6417885 -6.4314117 -3.2418962 5.121572
000020 64 06 95 c0 3d 10 30 c0 82 54 2b bf 0b ee 0c c1
       -4.65703 -2.750991 -0.66925824 -8.808116
000030 06 e8 87 40 09 a4 38 41 2b 79 cd c0 2f 66 95 3f
       4.247073 11.540048 -6.421041 1.1671809
000040 82 fa 02 c1 8e 4f 3c c0 83 51 78 c0 fc 47 f1 c0
       -8.186159 -2.9423556 -3.879975 -7.540037
000050 09 54 ac c0 39 c0 42 c0 2e 36 c0 c0 16 d9 64 bf
       -5.385258 -3.0429823 -6.0066137 -0.89393747
000060 37 4b 04 c1 19 d4 94 3f 4c 11 da bf 51 1e 4e 3f
       -8.268363 1.1627227 -1.7036529 0.8051501
000070 10 47 35 c0 2a 9a 23 40 35 98 0f c1 a8 59 ce c0
       -2.8324623 2.5562844 -8.97466 -6.4484444
000080 4e 3c e7 3f d3 10 ba bf 3b e1 f0 bf 72 af 9b bf
       1.8065279 -1.4536384 -1.8818735 -1.2162917
000090 c8 13 96 c0 e2 4d ab 3f 0d ef ba 3e 7d 73 ba 40
       -4.6899147 1.3383143 0.36510506 5.8265977
0000a0 29 e2 36 c0 f0 18 1d 40 26 82 bb bf e5 28 7a 3c
       -2.8575537 2.454647 -1.4649093 0.015268539
0000b0 b7 a3 f0 c0 b9 f7 40 c0 ab 7d 06 c0 f8 3d 68 c0
       -7.5199847 -3.0151198 -2.1014202 -3.6287823
0000c0 7b c6 8c bf 56 bc d1 bf 05 b1 48 40 93 7e 06 3f
       -1.0998071 -1.63856 3.1358044 0.52536887
0000d0 b9 f3 ab bf 7a 86 07 c0 ea 76 2a c0 bd a2 fe 3f
       -1.3433753 -2.1175828 -2.663508 1.9893414
0000e0 cf bb c4 c0 c6 ce 53 3f 11 41 ba c0 25 81 83 c0
       -6.147926 0.82737386 -5.8204427 -4.1095147
0000f0 8a 04 a6 c0 89 8d 12 c0 7a b7 b3 bd 44 ba a3 40
       -5.188054 -2.2898886 -0.0877523 5.1164875
000100 86 8a 38 3e 87 af 8a c0 83 41 96 c0 a7 fa 0c c0
       0.18021592 -4.3339267 -4.695497 -2.2027986
000110 d2 19 8b c0 e9 27 bc 3f 3c 6f c2 c0 5b 04 f1 bc
       -4.346902 1.469968 -6.0760784 -0.029421022
000120 04 91 c1 c1 fc 94 a8 c1 18 85 d2 3f 22 5b 89 c1
       -24.195808 -21.072746 1.6446867 -17.169498
000130 7a f0 ea c1 e8 b2 00 c1 76 92 67 c1 e0 7a 9a bf
       -29.36742 -8.043678 -14.473257 -1.2068748
000140 30 ff aa c1 9e 18 c0 be f8 d2 28 c1 cf 2d 96 40
       -21.374603 -0.3751878 -10.551506 4.693092
000150 ce da 55 c0 b3 13 aa 3d b7 44 2d c0 cc 9d 79 bf
       -3.3414798 0.083045386 -2.707319 -0.97506404
000160 6d f0 ae bc 6f 0e 0e c0 4f 21 14 c1 5b 55 2b 41
       -0.021354878 -2.219631 -9.258132 10.708339
000170 4b b2 42 3f 75 d2 8f 3d 69 3b c6 c0 1b 38 68 bf
       0.76053303 0.07022563 -6.194752 -0.9071061
000180 db 02 d5 3d a1 c7 2a 41 0f 72 b9 bd 6f 39 ee be
       0.10400935 10.673738 -0.09054958 -0.46528193
000190 53 c3 15 41 4d 2b 1f 40 53 5c 82 3f 88 89 85 c2
       9.360187 2.4870179 1.0184425 -66.768616
0001a0 f1 16 fd 40 93 d8 68 41 61 ef 04 41 06 44 dc be
       7.9090505 14.552875 8.308442 -0.43020648
0001b0 d0 1e 8e bf 86 9c 8b c0 da f5 66 bf 13 ae bd 40
       -1.1103153 -4.362857 -0.9021889 5.9274993
0001c0 15 4c 66 40 47 58 2b 3f 67 81 98 40 f6 82 e7 bf
       3.5983937 0.66931576 4.765796 -1.8086841
0001d0 39 39 38 be a1 df ec 3d 2f 0a 24 40 08 88 16 40
       -0.17990579 0.11566091 2.5631216 2.3520527
0001e0 6e e1 7f 3e 4d 15 92 be 65 48 4b bf 78 26 eb be
       0.24988338 -0.28531876 -0.7940734 -0.45927787
0001f0 77 b2 0d be 2c b6 3a c1 0b c0 c4 c0 56 c8 29 c0
       -0.1383761 -11.669476 -6.1484427 -2.6528525
000200 0d 50 17 c1 37 f8 56 c0 ed 25 24 c0 f7 f9 17 c0
       -9.457044 -3.3588998 -2.5648148 -2.3746316
000210 df dc 56 bf cb 99 8b 40 2d 16 8f bf 0a 21 4d c0
       -0.8393077 4.3625236 -1.1178643 -3.2051415
000220 21 91 0e c1 b6 7f 53 40 0c ed d9 3c d8 d8 1d 41
       -8.910432 3.3046699 0.02660229 9.86544
000230 3e 1f f1 be ff 9d 12 3f f8 cb 9a c0 df b1 20 c1
       -0.47094148 0.5727233 -4.8373985 -10.043426
000240 15 58 c7 40 b1 2d 24 c0 c7 d6 37 40 f9 df 5d bf
       6.229502 -2.5652888 2.872484 -0.8666988
000250 26 3f cc c0 94 f2 3f 40 a9 c7 6d 3f 58 1d 18 c0
       -6.3827085 2.9991808 0.9288278 -2.376791
000260 44 7b 96 3f 33 93 ca 40 df 5f eb 40 d9 15 6c bf
       1.1756368 6.3304687 7.355453 -0.92220837
000270 27 5f 4b c0 87 b4 e3 bf 6b d8 3e 3f bf 4d 8d c1
       -3.1776826 -1.7789468 0.7454898 -17.662962
000280 4d f4 65 40 20 08 a8 40 82 98 07 41 27 54 8c 3f
       3.593036 5.250992 8.474733 1.0963181
000290 6c b0 42 c0 dc 52 b7 3f 84 88 ed be b5 42 fa 3e
       -3.042018 1.4322162 -0.46393216 0.48879018
0002a0 b4 b3 94 3b 2c 36 42 c0 f5 9a 8d c0 f9 d0 ae 3f
       0.004538024 -3.0345564 -4.4251657 1.3657523
0002b0 b8 14 4a c0 93 b4 9e bf 5e 87 28 40 47 05 27 be
       -3.1575146 -1.2398857 2.6332622 -0.16310607
0002c0 f4 b4 fb bf ac cb 26 c0 a7 ff 89 c0 7c 37 ba 40
       -1.9664598 -2.6061811 -4.3124576 5.819273
0002d0 60 8d 73 3f 26 87 12 40 36 63 3d bf 76 77 8d bf
       0.95137596 2.2894988 -0.7397951 -1.1052082
0002e0 e6 da 14 c1 22 a9 c0 c0 dc 9e ec 3e c8 03 5f bf
       -9.303442 -6.020646 0.4621495 -0.87115145
0002f0 ee a1 32 41 f7 42 d7 3f 76 c2 22 40 46 3b 57 40
       11.164534 1.6817311 2.543119 3.3629928
000300 77 ba 18 c1 ae 3c a7 c0 d1 88 53 40 40 ec 81 40
       -9.545524 -5.226157 3.3052256 4.060089
000310 35 ae 4a c1 eb 9d 26 c0 bf 41 cb c0 fb dd cf c0
       -12.667531 -2.6033885 -6.3517756 -6.495847
000320 91 30 ad 40 21 a0 d3 c0 cc af 52 bf 99 ff 1b be
       5.4121785 -6.613297 -0.82299495 -0.15234222
000330 96 59 da bf ad 4c 92 bf 72 12 c0 c0 44 fd 41 3e
       -1.705859 -1.142965 -6.0022516 0.1894427
000340 f6 c0 2d 3e f8 cc 94 40 71 58 49 c0 d7 41 fc 3e
       0.1696814 4.6500206 -3.146023 0.49268982
000350 57 6d c2 c1 06 47 bc c1 6a 2a 20 bf 77 46 c3 c1
       -24.303389 -23.53468 -0.6256472 -24.409407
000360 7d 8e 10 c2 d9 f1 00 c1 72 1f 93 c1 2a 78 68 bf
       -36.13915 -8.059045 -18.390354 -0.90808356
000370 19 c5 cf c1 35 da 3e 3f 1b 0f 29 c1 24 ae ab 40
       -25.97124 0.7455171 -10.566188 5.3650074
000380 73 aa 14 c0 34 21 33 40 f8 2f 48 3d bd 78 bd c0
       -2.3229034 2.7989016 0.04887387 -5.9209886
000390 79 bf 04 40 14 1e ff c0 76 e9 a4 3f 67 1e 0e bf
       2.0741866 -7.9724216 1.2883747 -0.5551514
0003a0 c7 02 05 bf c4 a4 b5 3f ff 28 d4 be 58 d8 9a c0
       -0.5195736 1.4190907 -0.41437528 -4.838909
0003b0 c8 06 73 c0 a9 7b 0b c0 4c b4 95 bf 56 6a 2f 40
       -3.797289 -2.1794226 -1.1695647 2.7408652
0003c0 89 59 46 c0 7f 93 88 c0 96 a3 aa 3f 69 a2 a8 c0
       -3.0992148 -4.268005 1.3331172 -5.2698255
0003d0 82 39 48 c1 f7 29 3d 41 5e 6a 05 40 6b c9 26 40
       -12.51404 11.822745 2.0846171 2.6060436
0003e0 ca 92 dc c0 d8 c3 af 3e 80 f5 8c 3f 4c 68 2f 41
       -6.8929186 0.34329104 1.1012421 10.962963
0003f0 4a 4a 75 3f 44 d6 c2 bf 1e 54 03 41 2d 48 14 41
       0.9581648 -1.5221639 8.208036 9.267621

feature_layers.0.bias f4 [64]
000000 53 cf a8 c1 cf 73 85 c1 7b f7 31 c1 d6 e0 f9 c0
       -21.101233 -16.681547 -11.12292 -7.808696
000010 45 d1 51 c1 8d 2d 28 c2 6b 02 c2 c1 c6 f0 54 3e
       -13.113591 -42.044483 -24.25118 0.20794973
000020 9f 5f 1a 40 c1 db b0 c1 5f 04 1a c1 e7 63 1b c1
       2.4120862 -22.107302 -9.626067 -9.71189
000030 4e 4e da c0 1b 9e fa c0 fa 5d 84 c1 80 50 38 c2
       -6.8220587 -7.8318 -16.545887 -46.078613
000040 17 98 10 c0 59 75 cd c1 cf b0 2a 41 7e 9b bf c0
       -2.2592828 -25.682299 10.668166 -5.987731
000050 e2 ba 6c c0 37 c0 1b c2 13 8f 2c c2 4a ac a1 c0
       -3.6989064 -38.93771 -43.13972 -5.0522814
000060 07 76 a1 c1 42 21 c8 c1 59 7f c8 3f 4e ba 7b c0
       -20.18263 -25.01624 1.5663863 -3.9332461
000070 67 49 18 40 27 00 45 c1 0a cf 26 c1 de 78 05 c1
       2.3794801 -12.312537 -10.425547 -8.342009
000080 47 f0 73 c1 38 c9 e4 40 17 41 28 c2 db e7 74 c1
       -15.246161 7.149563 -42.063564 -15.306605
000090 20 f9 6f 3c 04 d6 bf c1 3a 9d fe c0 b7 8d 9e c1
       0.014646798 -23.9795 -7.9566927 -19.819197
0000a0 59 dc 11 c1 75 07 f9 c0 6f 02 06 c1 3e a1 0d c2
       -9.116296 -7.7821603 -8.375594 -35.407463
0000b0 70 9c 5f c1 0b ba 74 c1 61 aa cd c1 ef 9b 1b c2
       -13.975693 -15.295421 -25.708193 -38.90228
0000c0 39 e6 bc c0 29 f2 b7 c1 96 f4 7f bf eb e6 42 c2
       -5.9031034 -22.993242 -0.99982584 -48.725506
0000d0 1f 23 76 40 52 be a8 c1 d1 a1 cd c0 85 da 81 c1
       3.8458936 -21.09293 -6.426003 -16.231699
0000e0 8d 7f 3e c0 23 65 5a c1 e5 a0 e5 c0 da df 78 c1
       -2.976535 -13.649692 -7.1758904 -15.554651
0000f0 f5 65 fb c1 c5 4f 2e c1 93 dd 99 c1 71 dd 1e c2
       -31.424784 -10.894475 -19.23319 -39.71625

feature_layers.1.weight f4 [32, 64]
000000 a3 ce d0 3f c1 2b 8b 40 31 b2 b7 41 43 37 f2 41
       1.631306 4.349091 22.962008 30.276983
000010 5d ed fa 3d 91 e9 08 3f ba 4a 9f bd 5a a4 ae c0
       0.12252305 0.53481394 -0.07777925 -5.4575624
000020 20 a9 14 40 88 88 05 41 fd bf 36 41 e5 af 71 40
       2.3228226 8.345833 11.421872 3.7763608
000030 bc 11 52 40 6b 95 30 c1 2f ab 54 41 9a b4 f9 3f
       3.2823324 -11.036479 13.291793 1.950824
000040 39 6c 8c 41 78 ae 08 bd 54 5e 6f c0 40 ed 8f 41
       17.552843 -0.03336951 -3.7401323 17.990845
000050 f3 2e b5 c1 b6 29 82 3f c1 19 0a 40 b0 cf 04 41
       -22.647924 1.0168979 2.157822 8.300705
000060 38 b7 31 be 0d a3 6d c0 56 12 33 c0 8f d3 1b 41
       -0.17355049 -3.7130768 -2.7979941 9.73915
000070 50 89 71 3f d3 a5 81 c0 e7 4d 53 c1 8c ed 7f 41
       0.9435015 -4.051492 -13.206519 15.995495
000080 d1 8a c9 40 f1 80 d3 c0 85 19 df 3f e9 0a 09 41
       6.2981954 -6.60949 1.7429663 8.565164
000090 2b d6 f1 40 33 96 2e 41 b2 5e 7b c0 3c 01 d2 40
       7.5573936 10.91167 -3.9276547 6.5626507
0000a0 d4 67 0e c1 f4 68 51 c0 4c 41 ae 41 3d 17 65 40
       -8.900349 -3.2720308 21.781883 3.5795434
0000b0 51 31 58 bf 72 15 8a bc e1 69 b9 bc f3 62 31 3f
       -0.8445025 -0.016855929 -0.022633495 0.6929161
0000c0 08 a1 35 41 25 43 32 c0 6e a6 3b c1 18 d6 0d 40
       11.351814 -2.7853482 -11.728132 2.2161922
0000d0 e7 7b bb c0 d8 86 92 41 fa 35 17 41 0c 62 93 40
       -5.858875 18.315842 9.450678 4.6057186
0000e0 9a aa 81 41 1b f0 bd 40 a7 61 43 c0 de 46 eb 40
       16.208302 5.9355597 -3.0528352 7.352401
0000f0 7d 71 58 3f 5d 1b f8 40 ff c0 e0 40 f9 12 98 40
       0.8454817 7.7533402 7.023559 4.752316
000100 18 6f 8e c0 1e c3 d1 bf 7d 7d 10 c0 1e 08 25 c0
       -4.4510612 -1.638767 -2.2576592 -2.5786204
000110 8e 7b 83 c0 96 ae 6a c0 6b 6f 9d c0 c2 f7 6e c0
       -4.1088324 -3.6669059 -4.919851 -3.733872
000120 3b 53 7e c1 cc d6 df c0 23 71 f9 c0 ad 0f 85 c1
       -15.89532 -6.9949703 -7.7950606 -16.632654
000130 4b bc c9 40 02 f7 bb c1 ad 1d 2e be fc a6 60 c0
       6.304235 -23.49561 -0.17003508 -3.510192
000140 3b 81 08 c1 55 8e a7 c0 1a 61 fd c0 50 06 bc c0
       -8.53155 -5.2361245 -7.918103 -5.8757706
000150 75 9d dd c0 40 9f 80 c0 a0 c8 54 c0 4b 72 f4 3f
       -6.925471 -4.0194397 -3.3247452 1.909738
000160 ba 63 b4 c0 44 5a b4 c0 2e 20 d1 c0 30 46 11 41
       -5.6371737 -5.6360188 -6.535178 9.079636
000170 ec 39 ed 40 3b 08 fd c0 07 a4 7d c1 a9 08 3d 41
       7.4133205 -7.9072547 -15.852546 11.814614
000180 06 c5 46 c0 c0 48 0e 41 b0 45 61 c0 bb 10 fe c0
       -3.1057754 8.892761 -3.5198784 -7.9395423
000190 3c 01 7d 40 a0 a7 10 40 f5 b8 ea c1 c4 31 1f c1
       3.9532003 2.260231 -29.340311 -9.94965
0001a0 c9 03 9e 40 c7 4d db bf a3 ef ae bd 3b 80 a1 c0
       4.937962 -1.7133111 -0.08541801 -5.046903
0001b0 f4 55 ae c0 95 e0 05 c1 78 46 0d c0 b8 76 80 c0
       -5.4479923 -8.36733 -2.207426 -4.014492
0001c0 cb 53 e2 bf 09 8e e4 c0 cd 0b 0f c0 de 90 5d c0
       -1.7681822 -7.1423383 -2.2350953 -3.461967
0001d0 94 90 37 bf f9 a3 86 c0 ef a0 fc bf 42 1f a0 c0
       -0.71704984 -4.207516 -1.9736613 -5.0038157
0001e0 49 97 e2 40 40 05 fd c0 12 e8 56 c1 e1 86 32 c1
       7.0809674 -7.906891 -13.431658 -11.157929
0001f0 07 5d 91 c0 03 18 72 c0 c9 4d e3 c0 fc f0 1c c0
       -4.542606 -3.7827156 -7.1032453 -2.4522085
000200 ec 07 7a 41 cc be ee 40 eb e4 d6 40 dc 48 68 41
       15.626934 7.4607906 6.715444 14.517788
000210 d1 59 5e 41 44 65 90 41 56 ed 97 41 4b bb 85 c1
       13.896928 18.049446 18.990887 -16.716452
000220 ad 92 a7 c1 9b 6d a2 41 83 e9 5b c1 c8 07 31 41
       -20.946619 20.303518 -13.74451 11.0644
000230 11 3e 08 42 f9 3a b1 41 58 7f a6 41 1b 33 97 41
       34.06061 22.153795 20.81218 18.899954
000240 26 15 1e 42 88 63 98 41 46 27 b7 c1 46 7a 3f 3f
       39.520653 19.0486 -22.894176 0.7479595
000250 60 2d 15 40 0c c8 94 41 69 1b 9b 41 f6 aa 54 c0
       2.3308945 18.59768 19.388384 -3.3229346
000260 23 34 bd 41 23 0e 8c 41 cd 28 2c c1 5e 73 33 c2
       23.650457 17.506903 -10.759961 -44.862663
000270 14 80 5e c1 0a 70 dd 40 dd 68 c6 41 db 41 bf c0
       -13.906269 6.9199266 24.801203 -5.976789
000280 4a 8b 98 41 84 a5 d0 c1 9e a7 9b 41 65 92 1d 42
       19.068012 -26.080818 19.456844 39.392963
000290 58 a1 ed c1 0d 70 4a 3f bb 31 5e 41 bc 4b 5d 41
       -29.703781 0.79077226 13.887141 13.83099
0002a0 f5 af 13 c1 5a 36 52 41 fc fb 4b be 74 9b 90 41
       -9.230458 13.138269 -0.19920343 18.075905
0002b0 ea cd c7 3f 95 e5 6c 41 61 02 a4 41 1f 29 96 41
       1.5609715 14.80605 20.501162 18.770079
0002c0 c7 0d 01 c1 af 7d 60 41 83 15 18 41 a6 bd 92 41
       -8.065864 14.030684 9.505252 18.342602
0002d0 78 ab 72 c1 88 c1 9e 41 31 cb 57 c1 7a 4a 62 41
       -15.1668625 19.844498 -13.487107 14.143183
0002e0 d8 45 ff c0 e0 82 c1 41 7c b9 87 41 8f ab bb 41
       -7.977276 24.188904 16.965569 23.458769
0002f0 76 fe 97 41 09 b3 33 42 3c 5c c8 41 cc 6e 54 41
       18.999249 44.92484 25.045036 13.27705
000300 e8 0d 56 c1 41 0e 0f c1 5c 43 12 c1 08 81 79 40
       -13.378395 -8.94098 -9.141445 3.8985004
000310 c8 9e 50 c1 e3 54 17 c1 1a 0b 81 c1 93 4d 16 c0
       -13.038765 -9.458224 -16.13042 -2.3484848
000320 1b 1e 94 c1 57 c7 3d c1 36 24 55 c1 6e 58 84 40
       -18.5147 -11.861167 -13.321341 4.1357946
000330 1a 31 03 c1 88 2d 2a c1 1a 75 32 c1 70 c4 02 c1
       -8.199488 -10.636116 -11.153589 -8.172958
000340 a2 95 69 c1 9a 08 6f c1 6f bd 3c c1 fa 03 38 c1
       -14.599031 -14.9396 -11.796248 -11.500971
000350 b7 0a 86 c0 ca c5 27 c1 0b a7 0b c1 c7 08 8e bf
       -4.188808 -10.485788 -8.728282 -1.1096429
000360 36 e3 80 c1 68 19 26 c1 11 f7 96 c0 9b b1 43 c0
       -16.110943 -10.381203 -4.7176595 -3.0577152
000370 bd 6f 21 40 95 3f 10 c1 d3 9b 85 c1 44 72 d5 40
       2.522445 -9.015523 -16.701086 6.6701984
000380 fb 9d 2e c1 89 87 c0 40 94 0c 1e c1 e5 c8 d1 c1
       -10.913569 6.016545 -9.878071 -26.223093
000390 d5 ae eb 40 3f 7e 20 c1 fb 92 67 c1 7c 39 09 c1
       7.365092 -10.030822 -14.473384 -8.576534
0003a0 6c 64 c0 40 06 f3 1a bf da 18 c3 3f 86 1d b4 c0
       6.0122585 -0.60527074 1.5241959 -5.628604
0003b0 10 66 a5 c1 6e 84 61 c1 63 e9 30 c1 12 bd 23 c1
       -20.674835 -14.094831 -11.056979 -10.23366
0003c0 eb 5e b4 c1 f3 28 48 c1 53 71 7f 40 3d 2e 18 c1
       -22.546347 -12.509997 3.9912918 -9.511289
0003d0 1f c7 6e 40 0a 23 af c0 6c 3b 1b 40 0e 76 5a c1
       3.7309034 -5.473027 2.4255018 -13.653822
0003e0 bd 62 4e 41 bd a9 77 c1 c8 fe 78 c1 a7 3f 0d c1
       12.899106 -15.47894 -15.562202 -8.82804
0003f0 46 05 4a c1 75 59 76 c1 d3 89 24 c1 fe 01 95 40
       -12.626287 -15.39684 -10.2836485 4.656493

feature_layers.1.bias f4 [32]
000000 b7 83 fe c0 45 90 60 3f 71 19 bf c1 40 63 4d 41
       -7.9535785 0.8772014 -23.887423 12.836731
000010 c9 6c eb c0 2b 4d 55 41 75 f5 72 c1 1f ba f1 c0
       -7.3570294 13.33134 -15.184926 -7.55397
000020 6c 2c 3e c1 30 94 8b c0 c8 71 ae bf e4 20 25 c1
       -11.885845 -4.3618393 -1.3628473 -10.32053
000030 23 f2 d8 c0 66 f3 38 c0 fc d1 89 bf 28 ea eb c0
       -6.7795577 -2.8898559 -1.0767207 -7.3723335
000040 71 06 ac c0 08 46 8f c0 98 6b e1 c0 2e ca 0a 41
       -5.3757863 -4.4772987 -7.044384 8.67436
000050 90 a1 14 c1 db 91 e3 c0 26 a8 bb c0 ae 51 1c 40
       -9.289444 -7.1115546 -5.864276 2.4424853
000060 65 4c 1a c1 cc 0c 65 c2 42 36 e3 c0 60 a0 ca c0
       -9.643651 -57.262497 -7.1003733 -6.332077
000070 08 f9 65 c1 ef a9 c6 c0 c7 be 35 c2 da 30 12 c0
       -14.373299 -6.208244 -45.436306 -2.2842317

value_stream.0.weight f4 [16, 32]
000000 b7 d4 de be 4d ca 02 c0 cc 7c 90 3e ca ad 78 3e
       -0.43521664 -2.0435975 0.28220212 0.24285045
000010 15 7f 29 bf 75 0c de bd 18 9e 24 bf df 7e 84 3e
       -0.66209537 -0.1084222 -0.6430373 0.25878045
000020 e5 f0 3c bf cc 80 40 bd ec 73 02 be 00 32 58 bf
       -0.73805076 -0.04699783 -0.12739533 -0.84451294
000030 d8 c3 93 be 98 4e d6 3e 42 02 e0 be b6 4a 3e 3f
       -0.28860354 0.41856837 -0.43751723 0.7433275
000040 84 41 37 bf 52 53 4d be 3b 48 19 3f 2c 40 ed 3b
       -0.71584344 -0.20051315 0.5987584 0.007240316
000050 f9 07 c4 bd 96 77 46 bf b0 dc 8f 3e a6 24 9a 3e
       -0.09571833 -0.77526224 0.2809806 0.30106086
000060 79 e8 41 3e 14 06 85 be 34 b4 c9 3e b7 00 ee be
       0.18936338 -0.259812 0.39395297 -0.4648492
000070 31 6c e0 be cc f7 33 3f 63 5a 33 bf fa 73 ad 3e
       -0.43832543 0.70299983 -0.70059794 0.33877546
000080 b7 6d 23 3d 29 63 23 c0 3f f8 24 be 0b 66 9c be
       0.039899554 -2.5529273 -0.16110323 -0.30546603
000090 b1 ca c7 be 76 1a d7 bd 3f 9d 99 bf cb 20 15 bf
       -0.3902183 -0.10503094 -1.2001113 -0.58253163
0000a0 64 c0 eb be 44 12 5a bd 2b eb 27 bf 0c de b8 3c
       -0.4604522 -0.053240076 -0.6559321 0.022566818
0000b0 4f 53 0c 3f f3 48 b6 3e c9 7d 06 bf 30 56 43 3f
       0.5481462 0.3560253 -0.5253568 0.76303387
0000c0 a3 2e 21 bf 96 f9 47 be d9 a7 01 3f cb 17 48 3e
       -0.62961787 -0.19528803 0.5064674 0.19540326
0000d0 90 1b bb be 63 bb 03 c0 47 9b 74 3d 38 24 b2 bd
       -0.36544466 -2.0583122 0.059718397 -0.086983144
0000e0 0d 64 ae 3e 2f 5f bc 3e 35 56 f9 3e ea 43 2d bf
       0.34060708 0.3679137 0.48698583 -0.67681754
0000f0 17 c1 c5 be c4 f1 64 3f ca 35 b5 bf cf 2d d9 3d
       -0.38623878 0.89431405 -1.415704 0.106044404
000100 49 4f 03 c0 46 71 2c c0 43 68 f0 be 5d a6 5a bf
       -2.0517142 -2.6944137 -0.46954545 -0.854101
000110 7f ce a7 3e f3 39 b6 3d cf 36 03 3e 25 0d a1 c0
       0.32774732 0.08897772 0.12813877 -5.0328546
000120 b3 05 8c c0 a7 7c 9a bf d5 28 fd 3d bf fa 9b c0
       -4.3756957 -1.2069291 0.12361304 -4.8743587
000130 49 27 8e c0 92 b7 9c bf a6 9c 0c 41 60 ff 90 c0
       -4.4422956 -1.2243521 8.788244 -4.5311737
000140 9d b6 21 bf 7d a3 02 be 83 c4 3f 3f e6 10 b0 3f
       -0.6316927 -0.12757678 0.7490923 1.3755157
000150 4a df 3f c0 81 3d 99 40 73 de 52 3f da d9 2e c0
       -2.9980035 4.788758 0.8237068 -2.7320466
000160 71 15 3a c0 db 92 40 40 9c d9 20 c0 51 4b ac c0
       -2.9075587 3.0089633 -2.5132818 -5.384194
000170 d2 07 6e 40 00 84 c5 c0 10 36 37 bf d0 f5 54 c0
       3.7192273 -6.1723633 -0.7156687 -3.3275032
000180 a9 6c 30 bf 89 6a 14 c0 1b 7c 5a 3e 34 94 85 bc
       -0.689158 -2.3190024 0.21336405 -0.01630602
000190 8f b8 12 bf aa 9d 00 be 14 6c 21 bf 56 52 8f be
       -0.57312864 -0.12560144 -0.6305554 -0.27992505
0001a0 77 c2 46 bf 64 f8 68 3d 99 87 4c be e6 93 8e be
       -0.7764048 0.05687751 -0.19973601 -0.27847213
0001b0 cb ac 99 be 48 4d 53 3f 72 68 6d bf 78 a8 4b 3f
       -0.30014643 0.82539797 -0.92737496 0.7955394
0001c0 2a 55 0b bf ee df 56 be 34 fc b8 3e 66 d0 a6 bd
       -0.54426825 -0.2098386 0.36129916 -0.081452176
0001d0 77 e5 b7 3e c0 59 13 be 2e 76 8f bd eb 08 6d 3e
       0.35917255 -0.14389706 -0.07004963 0.23147933
0001e0 c3 cc 02 3f 4e 57 30 bf 51 28 99 3e bb c4 6b bf
       0.5109369 -0.68883216 0.2991357 -0.9209706
0001f0 86 e9 14 bf a5 7c 45 3f e1 a5 1c bf 11 85 95 3e
       -0.5816883 0.7714332 -0.6119061 0.29203084
000200 64 7c 3a be 24 60 be bf 91 01 d6 3d 39 e5 40 3e
       -0.18211514 -1.487309 0.104495175 0.18837442
000210 8d ac 8c be 07 82 b7 bd fc be 12 bf 11 90 c9 3e
       -0.27475396 -0.089603476 -0.5732267 0.39367726
000220 52 00 d7 be 95 77 6b 3e 81 ae a1 3d d5 5a 06 bc
       -0.41992432 0.22994836 0.07894612 -0.008200367
000230 35 6b 9e bd 1d 39 02 3f 07 f2 d5 bf 30 2f 2c 3f
       -0.07735292 0.508684 -1.6714486 0.672595
000240 c5 72 0c bf 35 b9 2d be f3 bb dd 3e 63 f7 96 bd
       -0.54862624 -0.16965182 0.43307456 -0.07371404
000250 f3 5b 70 bd 65 ae 1b bf 2f f3 d1 be 20 b6 67 3e
       -0.05868144 -0.6081298 -0.41005847 0.22628069
000260 46 eb b9 3e 45 75 d6 bd 97 d4 b7 3e 44 ea 49 bf
       0.36312312 -0.10471586 0.3590438 -0.78873086
000270 8b 04 aa be f2 23 10 3f 31 ca 3b bf ba b1 bb bd
       -0.3320659 0.5630485 -0.73355395 -0.09164758
000280 40 b5 0c bf fe e5 02 c0 3f 3b 90 3e 8e 00 0c be
       -0.54964066 -2.0452876 0.281702 -0.13672087
000290 36 b1 61 be 2c 5d d4 bd 3c 00 26 bf d9 b7 52 3e
       -0.22040257 -0.103693336 -0.6484411 0.20577945
0002a0 81 60 56 bf 46 c2 94 3e d7 df 65 bd 8e 50 b4 bd
       -0.83741003 0.2905447 -0.056121673 -0.08804427
0002b0 30 93 60 be f1 6f da 3e 4b 35 7d 3e 05 2f 4b 3f
       -0.21931148 0.4266353 0.24727361 0.7936862
0002c0 dc a5 61 be a7 41 ce bd 88 bc 1d 3f d8 99 9c be
       -0.22035927 -0.10071116 0.616158 -0.30586123
0002d0 5c c2 d0 3c 95 95 4d bf 3d 77 b0 be cb 82 9e 3e
       0.025483303 -0.8030637 -0.34465972 0.30959162
0002e0 0e 87 53 3e 29 ce 62 bf 81 49 c5 3e e6 fd 41 bf
       0.20656988 -0.88595825 0.38532642 -0.75778043
0002f0 13 20 86 bd e4 a0 5e 3f 32 31 04 bf 2c 97 51 3e
       -0.065490864 0.8696425 -0.51637566 0.20467824
000300 ba a1 6a be c4 66 19 c0 7a 2b 20 be 2b 4f 12 bd
       -0.22913256 -2.3968973 -0.15641585 -0.03572003
000310 f6 69 c7 be 96 5b 13 be ab 60 a5 bf 25 d2 7b 3f
       -0.3894803 -0.14390406 -1.2920126 0.9836753
000320 f2 22 6a bf 84 df 23 3e e5 b3 0d be da 31 69 bf
       -0.9145957 0.16003233 -0.13838156 -0.9109169
000330 0e 93 a8 3e 35 d5 2f 3f 4f 7a 92 bf b5 90 79 3f
       0.32924694 0.68684703 -1.1443576 0.9748643
000340 ee af 5b bf 47 de 46 be e8 19 9c 3e 58 dc 89 3e
       -0.8581532 -0.1942073 0.30488515 0.2692592
000350 72 81 01 bd f4 39 c5 be 37 1e d5 be 34 99 92 3e
       -0.03161759 -0.38520777 -0.41624615 0.2863251
000360 ae 81 c8 3e cd 73 04 bf 0c be fc 3e 95 6b ba bf
       0.39161438 -0.517392 0.49363744 -1.4564081
000370 ca 9a 0e bf e1 20 93 3f 7f 0b b3 bf 78 38 78 bd
       -0.5570494 1.1494409 -1.3987883 -0.060600728
000380 fe d4 98 bf c5 2b c9 bf 11 fc be 3e 3e d6 0a 3e
       -1.194 -1.5716482 0.37301686 0.1355829
000390 4f a5 49 bf 07 bc 1d be 05 65 40 3f d6 bb 60 3f
       -0.78767866 -0.15403758 0.75154144 0.87786615
0003a0 14 f9 cd 3d 89 25 70 3e da c4 80 3e 8e 5b 23 bf
       0.100572735 0.23451819 0.25150186 -0.63811576
0003b0 d9 17 b6 bf 61 0d 18 3f 4a d8 33 3e c7 5e f2 3e
       -1.4226028 0.59395415 0.17562976 0.47337934
0003c0 34 fb 79 bf 2b cc 94 be 6c 6c 67 3f ee f2 19 be
       -0.9764893 -0.29062018 0.90399814 -0.15034077
0003d0 37 40 8b bd 96 f2 95 3f 43 b8 bc be 31 cd a1 bd
       -0.067993574 1.1714656 -0.3685933 -0.07900465
0003e0 a1 d4 17 3f ab 31 a4 bd 91 4c 24 3f 99 5f 43 3e
       0.5930882 -0.08017286 0.6417933 0.19079436
0003f0 cc c6 d1 c0 bd 1f 95 3f 8f ef 09 bf b9 5a 3e 3f
       -6.555517 1.1650311 -0.5388116 0.7435718

value_stream.0.bias f4 [16]
000000 61 df db 41 47 e4 da 41 c6 ff 41 41 09 5f cf 41
       27.484072 27.361464 12.124945 25.921404
000010 8a 42 cb 41 a3 5e d9 41 3b 08 d5 41 56 d1 cb 41
       25.40749 27.17121 26.629019 25.477215
000020 62 15 ef 41 e0 e6 bf 41 ff 2b 87 41 57 97 ea 41
       29.88544 23.987732 16.896482 29.323896
000030 ba 1b db 41 cb 08 d2 41 bc c6 d4 41 8d c9 d5 41
       27.388538 26.254293 26.597038 26.723413

value_stream.2.weight f4 [1, 16]
000000 ef 55 0f bc ca 3b f9 ba cc ef 01 be 93 29 a9 3b
       -0.0087485155 -0.0019015011 -0.12689131 0.0051624267
000010 26 e1 9d bb 61 20 24 3b 81 c7 85 bb 35 9e 00 bc
       -0.0048180996 0.0025043713 -0.0040826206 -0.0078502195
000020 fe c4 a7 ba c1 0d a7 3d 13 ae b4 bb 0f 0a d2 39
       -0.0012799797 0.0815692 -0.0055139153 0.00040061816
000030 f0 70 6d 3b ae 18 26 3c e6 83 d3 ba 54 2f ea bc
       0.0036230646 0.01013772 -0.0016137331 -0.028587021

advantage_stream.0.weight f4 [16, 32]
000000 0f 69 0a c0 ef 28 7d 3f 2c b2 5c bd 7c 6d e3 bf
       -2.1626623 0.98890585 -0.053880855 -1.7767787
000010 00 6a a8 bf 1b b3 d0 bd 5e 1a e6 bf d1 ac 68 bd
       -1.3157349 -0.10190412 -1.7976797 -0.056805436
000020 5d c4 30 bf 99 a5 0f be b8 bf aa be 8f b1 32 3e
       -0.69049627 -0.14028014 -0.33349395 0.17450546
000030 54 6f 80 be 40 d5 16 3f f7 e9 84 3f 21 c8 85 3f
       -0.25084937 0.58919144 1.03839 1.04517
000040 56 f8 6b bf cf 2f bd bf 82 7e 6a 3f f4 2e 15 3f
       -0.92175806 -1.4780215 0.91599286 0.5827477
000050 3e c6 2a 3e a0 62 48 bf 76 e7 eb be d1 d4 7b 3e
       0.16677186 -0.7827549 -0.46075028 0.24592902
000060 63 92 e6 3e 6a 39 0a bf 24 47 46 3d 50 73 98 be
       0.4503356 -0.53993857 0.04840769 -0.29775476
000070 09 89 9a bf 66 e8 2f 3f 47 a1 9e 3e 9f df 3f 3e
       -1.207307 0.68713987 0.3098242 0.18737648
000080 bd 0c de be de 54 3d c0 cc 0e 1a bf 89 7c 1c be
       -0.43369094 -2.958305 -0.6017883 -0.15281881
000090 40 c7 29 bf bd ca d8 bd 24 5a 9a bf 34 48 e5 be
       -0.66319656 -0.10585544 -1.2058759 -0.4478165
0000a0 5a aa b7 bf dc 4c fd 3d 04 30 c5 bd 90 59 33 3d
       -1.4348862 0.123681754 -0.09628299 0.043786585
0000b0 d2 c9 05 be b0 ea 35 3f 25 8a 6d be 8b e4 63 3f
       -0.1306527 0.7106123 -0.23197229 0.89020604
0000c0 00 4b cb be 58 59 c5 bc 33 d5 03 3f fe 89 ec 3d
       -0.39705658 -0.024090454 0.5149719 0.115497574
0000d0 94 85 64 3e 91 0d 16 bf a8 5a 0a bd 54 1d fc 3d
       0.22316581 -0.5861445 -0.033777863 0.123102814
0000e0 48 07 47 3e 2c 4b 1d bf 43 58 f7 3d 87 c7 8e bf
       0.19436371 -0.6144283 0.120773815 -1.1154641
0000f0 5a 94 c4 3d 7a ae 77 3f 4d d5 82 be 60 04 c3 3e
       0.09598608 0.96750605 -0.2555336 0.38089275
000100 da a5 6e bf 4c a4 8c bf 0c ab 07 3e 49 89 86 bf
       -0.9322182 -1.098764 0.13248843 -1.0510646
000110 28 1d 35 bf dc 1c f5 bd 51 04 81 bf 60 f9 65 3e
       -0.70747614 -0.11968395 -1.0079442 0.2245841
000120 3d 60 7a bf 7e 93 1c 3e 17 a3 c1 3c d8 da 34 3e
       -0.978031 0.15290639 0.023637338 0.17661607
000130 b3 a2 47 bf 41 2f 23 3f 8c 70 b2 bf 2b a9 55 3f
       -0.77982634 0.6374398 -1.3940597 0.83461255
000140 02 76 87 bd 80 6c b8 be b4 82 1c 3f 3d 76 96 3e
       -0.06614305 -0.3602028 0.6113694 0.29387084
000150 ff 87 9b 3c 47 e0 85 be 9f 2f dc be d6 d8 8b 3a
       0.018985746 -0.26147673 -0.43005082 0.001066948
000160 ea 83 da 3e 58 28 1c bf c5 1a c2 3e 68 64 07 3f
       0.42678767 -0.6099906 0.3791105 0.5288758
000170 c8 9d a3 bf a7 68 89 3f d4 f8 1e bf 57 89 cb 3e
       -1.2782526 1.0735062 -0.6209843 0.3975322
000180 2a 10 23 bf 1c 56 99 bf 60 ae c5 3d df ca 84 bf
       -0.6369654 -1.1979403 0.096524 -1.0374411
000190 cc cd ac bf 6e 87 f8 bd 23 81 e0 bf 7a 1a ea bb
       -1.3500304 -0.12135206 -1.7539409 -0.0071442695
0001a0 b7 9e 06 bf 8a c5 c0 3e 28 8d 15 bd 38 3b 3b 3e
       -0.5258593 0.3765071 -0.03651157 0.18284309
0001b0 79 f6 0c bf 01 da 08 3f 5c c8 ff bd cc 60 95 3f
       -0.5506359 0.5345765 -0.124893874 1.1670165
0001c0 21 83 52 bf f4 7b cc be 34 87 15 3f e1 a6 38 3e
       -0.82231337 -0.3993832 0.5840943 0.18032409
0001d0 fa 93 15 3f ec 03 e3 be 1a ca 50 bf 4e 29 fb 3b
       0.5842892 -0.4433893 -0.8155838 0.007664836
0001e0 7d d7 3d 3f 79 04 3e bf 0e 36 a6 3e a3 99 3b be
       0.74156934 -0.74225575 0.32463115 -0.18320327
0001f0 fb d7 33 bf 16 f7 85 3f 65 98 43 be 5d 73 11 3e
       -0.70251435 1.046603 -0.19101103 0.14204164
000200 a0 19 58 bf 3c 6c 52 c0 2a ff 80 be a3 1d 2e 3e
       -0.844141 -3.287856 -0.25194675 0.17003493
000210 5f 7d a0 be e6 0f eb bd cd 3f a1 bf 59 c8 bf bc
       -0.3134565 -0.11477642 -1.2597595 -0.023410963
000220 bd 75 33 bf 2f 0c c3 3d a2 a9 33 be fa e4 0f bc
       -0.7010153 0.09523808 -0.17545179 -0.00878262
000230 59 00 b5 be 26 8f 32 3f 2c 55 c2 3f 2d 58 4a 3f
       -0.35351828 0.6974968 1.5182242 0.79040796
000240 2d 54 0a be 79 86 7e bd 67 e4 8f 3e a5 6e 5e bc
       -0.13508673 -0.062139962 0.28103945 -0.013576184
000250 a2 06 4c 3e 26 26 99 3e df 4c 79 3d 25 2d 08 3c
       0.19924405 0.29911917 0.060864326 0.008311545
000260 0d f1 ec 3e 4a f2 56 bf 08 44 ee 3e 84 ca 1a 3e
       0.46277657 -0.83963454 0.4653628 0.15116316
000270 df 7a 6d 3e e9 e0 5f 3f 05 8d 9a bf 27 61 74 3e
       0.23191403 0.8745256 -1.2074286 0.23865186
000280 2d 51 15 bf 3d 7b 37 c0 57 37 9b be 35 6f fe be
       -0.5832699 -2.8668969 -0.30315658 -0.4969422
000290 b6 24 a6 be 72 b9 df bd 93 31 6f bf 0f 6f f6 3e
       -0.32449883 -0.10924043 -0.9343502 0.48131606
0002a0 cc 67 ff be 3e d9 81 bb 5a 64 f2 3c cb 4a bc 3e
       -0.49883878 -0.003962665 0.029588867 0.36775813
0002b0 fc 9d 66 3e bf d2 01 3f 5c 13 3a 3e 36 b0 46 3f
       0.22521204 0.507122 0.18171448 0.77612627
0002c0 04 0b 05 3e 2b 78 2e bd f1 99 eb 3e e3 77 8e 3e
       0.12992483 -0.04259507 0.46015885 0.2782584
0002d0 40 1d c7 bd 4f 75 3b 3e 68 94 f9 bd 8a de 5c 3e
       -0.09722376 0.18306468 -0.12186509 0.21569267
0002e0 9c 10 7f 3e 60 bc 8a bf 8d bf 8b 3e b7 70 93 bf
       0.2490868 -1.0838737 0.2729458 -1.1518773
0002f0 74 96 3d bc 99 83 36 3f c7 41 2a bf e4 d6 d5 3d
       -0.011571515 0.7129455 -0.6650662 0.10441378
000300 b0 84 08 bf 09 24 c2 c0 e2 57 11 be e0 59 65 3f
       -0.53327465 -6.066899 -0.14193681 0.89590263
000310 01 c4 3c bd 93 78 05 be 73 1a 5b bf 0f 26 83 3f
       -0.04608536 -0.13034277 -0.85587233 1.024599
000320 64 cb c5 bf 20 94 27 3e 99 40 26 be bd be af be
       -1.5452695 0.16365099 -0.1623558 -0.3432521
000330 72 70 ec 3d f1 0f 02 3f 51 16 50 bd 9c 59 81 3f
       0.11544885 0.50805575 -0.050802533 1.0105472
000340 85 8e f0 bc 7c 85 68 be 2d 6d 28 3f 22 2d 95 be
       -0.029364834 -0.2270717 0.6579159 -0.29135996
000350 6f 0c b3 be fd 8e 92 bf 37 96 4a be 15 f6 4c be
       -0.34970424 -1.1449887 -0.19783865 -0.20015748
000360 d2 8a 19 3f 16 5b e1 be 17 61 8d 3e 78 4b a8 bf
       0.5997745 -0.44014806 0.27613136 -1.3148031
000370 46 ee b9 bd 3f 0b 78 3f 18 74 cb bf 89 19 93 3e
       -0.0907865 0.9689216 -1.5894804 0.2873042
000380 63 52 fb be 8d a0 0c c0 5a 8b 97 3d 49 69 79 3e
       -0.49086294 -2.1972992 0.07399626 0.2435657
000390 44 52 70 bf b6 eb e8 bd 87 46 bb bf 66 ff 8d be
       -0.9387553 -0.11373083 -1.4630898 -0.27733916
0003a0 4e b6 56 bf 76 b1 29 3e fa 9e a2 3e 3c 17 11 3f
       -0.83871925 0.16571602 0.31761914 0.5667608
0003b0 d3 e9 94 3e 13 b4 c2 3d 83 3a 98 3e d9 28 c7 3e
       0.29084644 0.09507003 0.2973214 0.38898352
0003c0 85 5a 94 be a5 75 c4 3e b2 ce 15 3f 23 21 aa bf
       -0.2897531 0.38371006 0.58518517 -1.3291363
0003d0 6d c4 5e 3e db 72 94 bf ac c1 a3 3d e2 d9 47 be
       0.21754618 -1.1597551 0.07995924 -0.1951671
0003e0 37 d5 a6 3e 99 80 b8 be 22 d0 57 3f 1d 64 b7 bf
       0.32584545 -0.36035612 0.8430196 -1.4327427
0003f0 49 1d ab be cc 29 13 3f 7c 29 56 bf 1e 25 5f 3e
       -0.3342078 0.5748565 -0.8365705 0.21791503

advantage_stream.0.bias f4 [16]
000000 a0 6b e7 41 87 ac d5 41 59 3d e0 41 4f 73 de 41
       28.927551 26.709242 28.029955 27.806303
000010 c2 e0 de 41 10 9f e2 41 f4 7c de 41 0c 60 d8 41
       27.859745 28.327667 27.811012 27.046898
000020 39 1c d2 41 e2 66 ce 41 00 19 dc 41 11 e0 de 41
       26.26378 25.800236 27.512207 27.859407
000030 83 4b de 41 7a b7 e9 41 aa 1c e0 41 ce f7 f2 41
       27.786871 29.214588 28.013996 30.370998

advantage_stream.2.weight f4 [3, 16]
000000 a9 c5 4b 3f ac f9 40 3f 7d ec 00 3e c6 5c 46 3f
       0.7959848 0.7538097 0.12590213 0.7748531
000010 7e 08 c5 3d 9b 76 96 3e 47 b6 be 3e 99 ee 19 3f
       0.096207604 0.29387364 0.37248442 0.60129696
000020 df c2 f8 3e 48 1c 96 bf a4 54 07 bf 7a 76 9d 3f
       0.48586175 -1.1727381 -0.52863526 1.2301781
000030 4e 1b 0f 3f 55 16 8d 3f b2 2d 45 bf d0 61 80 3e
       0.5590104 1.102244 -0.7702285 0.25074625
000040 95 db 4d 3f 28 a3 42 3f ec 00 bd 3d 16 18 41 3f
       0.8041318 0.76030207 0.092286915 0.7542738
000050 8e 4d b3 3d 83 05 97 3e ab 30 c6 3e 60 c5 1d 3f
       0.08755027 0.29496393 0.38709006 0.61629295
000060 dc f2 f9 3e 69 f7 94 bf 7f ff 02 bf 73 ba a3 3f
       0.488181 -1.1638004 -0.51171106 1.2791275
000070 9b ca 0a 3f 86 47 8c 3f 03 c3 49 bf 2e 31 85 3e
       0.542154 1.0959327 -0.7881319 0.26014084
000080 54 ae 40 3f 2b b1 42 3f 53 8e e0 3d 1a 1a 38 3f
       0.75266004 0.76051587 0.10964646 0.7191483
000090 ce c9 c4 3d 3a 8a 91 3e 26 98 c6 3e 75 e9 19 3f
       0.09608804 0.2842577 0.38787955 0.6012185
0000a0 ec 63 f3 3e 68 64 97 bf 24 b4 f8 be c3 02 a2 3f
       0.47537172 -1.1827517 -0.48574936 1.2657093
0000b0 19 20 12 3f c1 ff 8b 3f f8 82 49 bf 83 48 81 3e
       0.5708023 1.0937425 -0.7871547 0.25250635

advantage_stream.2.bias f4 [3]
000000 27 76 cc be ae 71 c8 be 7a 18 d5 be
       -0.39933893 -0.3914923 -0.41620237
