dumpedit/agent_target_network.pth (torch, 24297 bytes, 11 tensors)

feature_layers.0.weight f4 [64, 20]
000000 2a 0c 3b bc 6a c9 18 3d e2 10 18 3e bc 27 fe bd
       -0.011416474 0.03730146 0.1485019 -0.124099225
000010 55 40 50 3e 26 9f 36 3c 72 cd 3a 3e a3 6b 73 3b
       0.2033704 0.011146342 0.18242434 0.0037143014
000020 1f b2 92 bd 4d 79 62 be ac 13 72 3d 20 a4 5d be
       -0.0716288 -0.22116585 0.05910079 -0.2164464
000030 37 6f 27 be fa 6c 48 3e f5 6e 47 be 8a 7f 46 bb
       -0.16351019 0.19572821 -0.1947592 -0.0030288422
000040 28 9e e4 bd 6a 53 28 be 6d 34 f6 bd d9 ea 58 bc
       -0.111629784 -0.1643807 -0.12021718 -0.013239586
000050 4b c4 4f be 91 1e aa 3d ed 2b 25 3e 17 11 90 3d
       -0.20289724 0.08306611 0.16130038 0.0703451
000060 f7 46 64 3c 2a 96 88 bd d4 e2 ea bd 41 18 3a be
       0.013932935 -0.066692665 -0.11469045 -0.18173315
000070 f5 a5 64 be 8b 7c 6b 3d fa 2f 06 3e ef 81 0f be
       -0.22328933 0.05749182 0.13104239 -0.1401441
000080 5e 9e c4 bd 94 3c 00 3d 0b 36 bf bd 44 b1 99 bd
       -0.09600519 0.03130777 -0.0933648 -0.07504514
000090 22 9f 8e bd d2 5a 22 3e 0b b9 62 3e fa ba 1c 3e
       -0.06963946 0.15854958 0.22140901 0.15305701
0000a0 94 45 4e 3e d0 f1 3a 3d 0e 51 64 3d 4b dc a0 bd
       0.2014373 0.045640767 0.055741362 -0.078545175
0000b0 86 33 7a bd d8 03 4b 3e 76 a7 ea 3c ce 07 30 3e
       -0.061084293 0.19825685 0.028644305 0.17190477
0000c0 e3 e0 ac 3d 99 7b 10 be a2 16 10 be b3 c9 59 3d
       0.08441331 -0.14109649 -0.14071134 0.05317087
0000d0 dd 68 ff bd 34 01 0a be 4c a9 46 3d 0a 9f e5 bd
       -0.12471173 -0.13477021 0.048501298 -0.11211975
0000e0 58 df 6e 3d 7f ce 00 be 1c fa e7 bd cc 6d 1f 3e
       0.058318466 -0.12578772 -0.113270015 0.15569228
0000f0 4e 04 a8 3d e0 32 00 be db db 62 3d 07 95 30 be
       0.08203946 -0.12519407 0.05538545 -0.1724435
000100 0f e4 2c 3e e1 30 f9 3d f4 8f 49 bb 52 e2 cf 3d
       0.16883872 0.12167526 -0.0030755969 0.10150589
000110 78 47 51 be 48 f1 eb 3c 3a 11 5b be 8b ce 82 bd
       -0.2043742 0.028801575 -0.2139329 -0.06387051
000120 e1 37 2b be 3b ff 89 bd 3a e7 31 3c a8 cd c4 3d
       -0.16720535 -0.067381345 0.010858351 0.09609538
000130 c8 83 d3 3d a4 01 95 bc 3f 9a 3e be d7 40 4b be
       0.1032787 -0.018189259 -0.18613528 -0.19848953
000140 36 a6 cf bc 66 df 24 be ec e4 32 3e a7 03 a2 3c
       -0.02534781 -0.16100845 0.1747014 0.019777132
000150 22 bf 1b 3e cf d7 de bd 18 7c 55 3e df 47 ae bc
       0.1520963 -0.10881006 0.2084812 -0.021274505
000160 7b 2b b9 bd 04 16 32 be 81 a8 31 3e 4c aa 19 be
       -0.09041496 -0.17391211 0.17349435 -0.1500637
000170 57 03 fb 3d 97 38 ef bc 6c df 2b be d8 43 ca 3c
       0.122564964 -0.029201789 -0.16784447 0.024690554
000180 43 bd 5a 3d 52 dc 1f 3d 06 f2 62 bd 0c 2c 3a be
       0.05340315 0.039028473 -0.055406593 -0.18180865
000190 79 06 30 be fd 8e 85 3c ae d1 06 be 13 35 12 3e
       -0.17189969 0.016303534 -0.13165924 0.14278059
0001a0 fb 90 43 be 38 27 51 be 71 2d d3 3d 90 55 ca bd
       -0.19098274 -0.20425117 0.10311402 -0.09879601
0001b0 1d bd 27 3d 13 d8 b0 3d fb 9e d4 bc fc ae 04 3e
       0.040951837 0.08634963 -0.025954714 0.12957376
0001c0 f7 3f 27 3e 35 bb dc bd 04 27 e4 bd 94 0b d4 3d
       0.16332994 -0.107778944 -0.11140254 0.10353771
0001d0 a5 63 75 3c d5 ed 46 bd 03 a3 aa 3d f8 a1 54 be
       0.01497737 -0.048566658 0.08331873 -0.20764911
0001e0 25 80 5c be b4 7f 45 3e 7e a5 58 3e b5 d8 b9 3d
       -0.21533258 0.19286996 0.2115688 0.09074537
0001f0 3e c4 34 be 6c ef 56 be 89 35 cb 3d ad 0e ee 3d
       -0.17652985 -0.2098977 0.099223204 0.11623893
000200 18 7d 25 3e 54 d2 28 bd 23 d9 06 3e b9 0c 67 bd
       0.16161 -0.04121621 0.13168769 -0.056408618
000210 32 93 d9 bd 83 aa 49 be 52 f2 59 3e 9f cb 56 3d
       -0.106237784 -0.19693951 0.21283844 0.052440282
000220 12 fe 73 bd 61 8f 96 3d 81 22 ae 3d 16 6f 9e 3d
       -0.059568472 0.07351566 0.08502675 0.07736032
000230 6c 03 4e be ac dd 05 3d a4 b1 02 be 43 2b 20 3e
       -0.20118493 0.032682106 -0.12763077 0.15641503
000240 bf 51 13 3c 8e 47 38 3e 44 0b 82 bd c1 b4 9e 3d
       0.008991658 0.17996046 -0.06349805 0.0774932
000250 dd 23 c8 bd 25 be 16 be 7a ef f8 bd 41 a2 ce bd
       -0.097724654 -0.14720972 -0.121550515 -0.10089541
000260 8b b5 58 3d 9e 10 4b 3e fd d3 4b be 22 41 1d 3e
       0.052907508 0.19830558 -0.19905086 0.15356877
000270 84 67 55 be 0b 4a 31 be c7 67 df bd 87 65 bd 3d
       -0.2084027 -0.17313401 -0.10908466 0.092478804
000280 70 3d 3d 3e 4b d5 fc bd 8d c5 51 be 60 e2 9d 3d
       0.18480468 -0.1234537 -0.20485516 0.07709193
000290 54 92 5c 3e 10 59 fa bb 41 5b 35 3d 69 32 fd bc
       0.21540195 -0.0076400116 0.04427648 -0.030907826
0002a0 87 b8 16 3d f0 0b 5f be 95 44 d1 bd 93 ba 0a 3b
       0.036797073 -0.21781898 -0.10218159 0.0021168336
0002b0 5e 1a 9d 3d 6a a7 62 3e 33 7a 5c be fa 8d 92 bd
       0.07671045 0.22134176 -0.2153099 -0.07155986
0002c0 88 94 9b 3d fc 47 fb 3d bf c4 20 3e 7e 9b 30 3e
       0.075966895 0.12269589 0.15700053 0.17246816
0002d0 a2 bf f4 3d 57 87 76 3c 13 9c 45 3e c4 d3 3c 3b
       0.119506136 0.015046916 0.19297819 0.0028812746
0002e0 ee 7e 3b bd 9f 60 53 be cc 2e a4 3d f1 8f 07 3d
       -0.045775346 -0.20642327 0.08016738 0.033096258
0002f0 5f 5b 03 3e 02 69 1b be 41 45 58 3e be 50 e8 3d
       0.12827824 -0.15176776 0.21120168 0.11343525
000300 df 96 d1 3d d1 a6 9b bd 00 6f 55 be 63 cc cd 3d
       0.102338545 -0.07600177 -0.20843124 0.10048749
000310 3e 71 60 3e b5 df b2 bd 6c cd 64 3e 19 18 ef bd
       0.21918198 -0.08734075 0.22343987 -0.11674518
000320 42 0f 51 3e cc f4 9a 3c fb cb 53 bd 09 70 ad bc
       0.20415977 0.018915556 -0.051708203 -0.021171587
000330 b9 49 6e bd e2 3a c9 bd d4 18 a4 bd 54 d2 f3 bd
       -0.058175776 -0.09825684 -0.08012548 -0.11905351
000340 6b 79 56 3d 6a 7b 41 be dc c8 2e 3e 32 05 63 bb
       0.052361887 -0.18894735 0.1706881 -0.0034640548
000350 d9 2e 29 3e 98 da 31 3e 7e c9 4c 3e 12 90 3e 3e
       0.16521777 0.17368543 0.19998738 0.18609646
000360 19 3d 42 be df 63 29 bd f7 3b e3 bd a9 c7 43 be
       -0.1896862 -0.04135501 -0.11095422 -0.19119133
000370 d4 31 37 be 10 a2 5f be 9e d9 2c 3e 13 b1 f7 bd
       -0.17890102 -0.21839166 0.1687989 -0.12094321
000380 68 7d ef ba 0c 0c 35 be c6 36 75 bd 50 83 27 be
       -0.0018271627 -0.17680377 -0.05986669 -0.16358685
000390 92 f7 2e 3b ec 57 17 be 74 ef 1b 3e 2a d6 c2 3d
       0.0026697856 -0.14779633 0.15228063 0.09513505
0003a0 c1 84 5f 3e ee 3e 58 be ca 4b 37 be 2d 29 48 bd
       0.21827985 -0.21117756 -0.17900005 -0.048867393
0003b0 f7 e9 21 be 91 72 f9 bd 3d e2 67 bb 81 25 9c 3d
       -0.15811907 -0.12180055 -0.0035382651 0.07624341
0003c0 72 17 e2 3c 14 57 4c 3e 21 f1 17 3e 04 dd 44 be
       0.02759907 0.19955093 0.14838077 -0.19224936
0003d0 70 65 b9 bc 93 9a f1 bd 95 db 81 bc f8 bd 61 3e
       -0.022631377 -0.11797061 -0.015851775 0.22045124
0003e0 68 5f 2a 3e dd c3 2f 3d 88 fc f1 bc 2c bc 51 3e
       0.16637957 0.0429114 -0.029539362 0.20481938
0003f0 51 10 16 3e 14 dc 8e 3d 11 b2 ef bd 92 b6 21 be
       0.14654662 0.0697557 -0.11703885 -0.15792301

feature_layers.0.bias f4 [64]
000000 5b 29 18 c0 88 e2 f0 bf ae a9 8e bf 8e 9c 65 bf
       -2.3775241 -1.8819132 -1.1145532 -0.8969201
000010 5a 2b 9f bf f0 62 93 c0 e8 35 29 c0 34 ed 48 3e
       -1.2435105 -4.6058273 -2.6439152 0.19621736
000020 ee f4 27 3e 55 db 19 c0 73 86 82 bf db da 6f bf
       0.16402027 -2.404012 -1.0197281 -0.9369332
000030 81 2b 56 bf fc f1 72 bf 05 5d db bf ab 0d 9c c0
       -0.8366013 -0.9490049 -1.7137762 -4.8766685
000040 82 cf a0 be e0 69 36 c0 fc 9c aa 3f cd 85 4c bf
       -0.31408316 -2.850212 1.3329158 -0.79891664
000050 e6 18 b3 be df 3a 8b c0 73 1f 95 c0 e7 ab 32 bf
       -0.34979934 -4.3509364 -4.660089 -0.6979355
000060 25 41 11 c0 47 6b 2e c0 ce 61 c1 3d 9e af 03 bf
       -2.269601 -2.7252977 0.09442483 -0.51439846
000070 db a9 f7 3d 43 ad 95 bf d9 50 a1 bf 24 cd 41 bf
       0.12092944 -1.16935 -1.2602798 -0.75703645
000080 a1 d5 d1 bf e1 a2 51 3f 95 fe 98 c0 32 bb c9 bf
       -1.6393319 0.8188916 -4.781077 -1.5760252
000090 fe db ec 3c c7 d0 2a c0 f7 5c 38 bf 69 2d 06 c0
       0.028913494 -2.6689928 -0.72016853 -2.0965216
0000a0 20 57 91 bf 16 11 40 bf 5a 5b 64 bf bb 59 74 c0
       -1.1354713 -0.7502607 -0.8920189 -3.8179767
0000b0 93 cf d5 bf 01 f7 c6 bf 78 a9 3b c0 aa a9 82 c0
       -1.6703972 -1.554413 -2.9322186 -4.083211
0000c0 4e c4 4d bf 18 03 25 c0 26 06 82 bc 61 69 b0 c0
       -0.8037766 -2.5783138 -0.015872072 -5.5128636
0000d0 58 4a 08 3f 71 ea 12 c0 d2 3d 47 bf 9c 56 f1 bf
       0.5323844 -2.2955592 -0.77828705 -1.8854556
0000e0 7e 74 a9 be 02 de b3 bf 9c 62 1e bf fb ad cd bf
       -0.3309669 -1.4052126 -0.61869216 -1.606872
0000f0 fc 5a 5f c0 95 c4 a4 bf bf db 02 c0 35 7c 8a c0
       -3.4899282 -1.2872492 -2.0446622 -4.327662

feature_layers.1.weight f4 [32, 64]
000000 cd e0 77 3e 2e f8 c8 3e ae c3 25 40 79 e1 55 40
       0.24206848 0.39251846 2.5900683 3.3418868
000010 2b 47 1c 3d 0f 84 2c 3e c5 92 c2 3d 6e ff 0d bf
       0.03815381 0.16847251 0.0950065 -0.5546788
000020 5b 7e 68 3e c8 1c 5b 3f ef 17 a0 3f b7 52 fa 3e
       0.22704451 0.8559079 1.2507304 0.4889123
000030 4c d1 a7 3e 63 05 a5 bf 72 f5 c4 3f e6 e3 48 3e
       0.32776868 -1.2892269 1.5387404 0.19618186
000040 59 f1 fc 3f 9e 0f 71 bd 43 fb fa be 81 ae 00 40
       1.9761153 -0.058852784 -0.49019822 2.0106509
000050 ea 1c 20 c0 18 ef 48 3e d0 89 ab 3e bf b2 61 3f
       -2.5017648 0.19622457 0.3350358 0.8816337
000060 df 5c 1d bd 72 9e db be b8 45 4e be 9e 48 85 3f
       -0.038418647 -0.42894322 -0.20143783 1.0412786
000070 78 11 f9 3d 55 50 fc be 24 3f c4 bf 97 e6 ea 3f
       0.12161535 -0.49280038 -1.5331769 1.835162
000080 2d be 4c 3f 42 76 3c bf e2 1c 05 3e f4 be 81 3f
       0.79977685 -0.7361795 0.12999299 1.0136399
000090 5a c7 6f 3f f3 be 92 3f 9a 50 c8 be d2 bf 4c 3f
       0.9366356 1.1464523 -0.39123994 0.79980195
0000a0 99 fd 71 bf 56 24 94 be 74 bd 1a 40 c6 3f 9e 3e
       -0.94527584 -0.28933972 2.4178133 0.3090803
0000b0 ee a4 d3 bd a9 38 33 bc 59 72 ed bb 86 b3 5d bc
       -0.10334192 -0.010938802 -0.0072462973 -0.013531571
0000c0 c7 46 a3 3f ca e0 a1 be 1f a9 b2 bf 74 76 82 3e
       1.2755975 -0.31616813 -1.3957862 0.25480998
0000d0 10 f4 0f bf 26 86 fa 3f fa 97 92 3f a4 44 19 3f
       -0.56231785 1.9572189 1.145263 0.5987036
0000e0 77 ed ec 3f 10 8d 0b 3f cd 71 6c be bc 1a 4f 3f
       1.8509969 0.5451212 -0.23090287 0.8090017
0000f0 92 e1 aa bb ab d3 6c 3f 7b fa 58 3f fa 29 e3 3e
       -0.0052148784 0.9251048 0.847572 0.44367963
000100 99 67 c2 be fd 0b 00 be 9f 90 7b be fb a9 91 be
       -0.37969664 -0.12504573 -0.24566887 -0.28449997
000110 d5 46 0d bf 00 38 ae be a3 ba 21 bf 0d ea f6 be
       -0.55186206 -0.340271 -0.6317541 -0.48225442
000120 fd 36 d2 bf 93 ba 2e bf ae 3b 4c bf 3a d7 e8 bf
       -1.6423031 -0.6825344 -0.79778564 -1.8190682
000130 72 b4 3d 3f 40 c5 2a c0 2a 86 eb bd 61 3b e0 be
       0.7410346 -2.6682892 -0.11500199 -0.43795303
000140 52 ed 7d bf ad 18 1a bf 78 94 5b bf 2b 91 25 bf
       -0.9919025 -0.601939 -0.8577342 -0.64674634
000150 4d 22 27 bf 1b d3 03 bf f3 f3 8a be bc ee 89 3e
       -0.65286714 -0.51493996 -0.27139243 0.26939952
000160 cd 34 24 bf dd 7e 36 bf 80 37 20 bf 97 88 63 3f
       -0.6414307 -0.7128733 -0.62584686 0.88880295
000170 ab e7 5f 3f 02 a9 41 bf 64 bb d4 bf 88 26 ae 3f
       0.8746287 -0.7564851 -1.6619687 1.3605509
000180 b3 64 e2 be d7 ef 72 3f 7b 1e a7 be 5f b3 59 bf
       -0.44217452 0.94897217 -0.32640442 -0.85039324
000190 0e 09 01 3f 67 7e 12 3e 65 3a 48 c0 24 04 8f bf
       0.5040444 0.14306031 -3.1285641 -1.1173139
0001a0 52 86 26 3f b7 35 e2 bd 96 4f c5 3d d7 e5 1e bf
       0.65048707 -0.110454015 0.096343204 -0.6206946
0001b0 de 6c 18 bf fd b4 69 bf 8a f3 92 be f5 f0 e7 be
       -0.5954112 -0.9129179 -0.2870143 -0.45301023
0001c0 82 32 58 be ca 26 40 bf 2d 70 b4 be 0d 6f ea be
       -0.21113017 -0.7505919 -0.35241833 -0.4578785
0001d0 de ed 94 3b 1a 0e 0d bf 1c 21 73 be 80 cf 13 bf
       0.0045449575 -0.5509964 -0.23743099 -0.57738495
0001e0 21 b7 5e 3f 09 8b 48 bf 50 90 c1 bf 91 1b 9a bf
       0.8699818 -0.7833715 -1.5122166 -1.2039663
0001f0 2e 3c 07 bf ed 36 be be fc 57 50 bf a1 60 98 be
       -0.528262 -0.3715128 -0.81384254 -0.29761222
000200 8f 8c db 3f c4 c2 56 3f a9 8d 44 3f 76 81 cf 3f
       1.715227 0.8389094 0.76778656 1.6211383
000210 a1 bf bc 3f 9b be ef 3f 3c 9d 0a 40 10 9c e2 bf
       1.474598 1.8730043 2.1658468 -1.7703876
000220 48 41 12 c0 08 fb 14 40 cd ba bd bf fa e1 94 3f
       -2.2852345 2.3278217 -1.4822632 1.1631463
000230 4d c4 71 40 5b c6 17 40 1c 61 0d 40 eb fa 06 40
       3.7776062 2.3714817 2.209052 2.1090648
000240 4b 65 88 40 da c0 0a 40 47 b5 24 c0 e0 27 b9 3d
       4.262365 2.1680207 -2.5735643 0.09040809
000250 b5 be a1 3e 89 26 f7 3f 3d 09 0c 40 b6 25 b7 be
       0.3159081 1.9308635 2.1880639 -0.3577096
000260 51 f2 25 40 a9 aa ff 3f 6a db 9b bf 7c 41 9f c0
       2.5929148 1.9973956 -1.2176335 -4.9767437
000270 b4 11 c0 bf b3 ee 33 3f 18 66 27 40 fb 09 0e bf
       -1.5005403 0.702861 2.6156063 -0.5548398
000280 97 4a ff 3f 3d 0d 3c c0 ac 12 0e 40 ba 79 8b 40
       1.9944638 -2.938308 2.2198896 4.358609
000290 30 6a 55 c0 03 5e c0 3d 44 fc c3 3f fb 13 c4 3f
       -3.3346062 0.09392931 1.531136 1.5318598
0002a0 c0 c4 8b bf 5a 5a bf 3f a6 03 03 be 28 a0 01 40
       -1.0919418 1.4949448 -0.1279436 2.0254002
0002b0 f5 53 f0 3d 61 e3 c9 3f 57 ea 08 40 04 24 03 40
       0.117347635 1.5772516 2.139303 2.0490732
0002c0 1c 41 4f bf a4 bc ca 3f 03 95 8d 3f 05 e9 07 40
       -0.80958724 1.5838819 1.10611 2.1235974
0002d0 04 10 cd bf 2d c6 07 40 ad 33 c5 bf 4a 22 d1 3f
       -1.6020513 2.1214707 -1.5406395 1.6338589
0002e0 38 ba 51 bf 29 2a 2e 40 79 c5 f9 3f 66 2b 29 40
       -0.8192477 2.7213233 1.9513389 2.6432738
0002f0 96 b3 00 40 74 50 9a 40 94 59 2b 40 c4 17 ad 3f
       2.010961 4.822321 2.6773424 1.3522878
000300 43 af bc bf 18 23 6a bf 52 67 85 bf af 9f a4 3e
       -1.4740986 -0.914598 -1.0422156 0.3215308
000310 a2 bb b7 bf a0 3b 7b bf 5e 49 d5 bf 0c 21 7e be
       -1.4354136 -0.98137856 -1.6663015 -0.24817294
000320 78 e2 f5 bf 21 b0 99 bf 9c e6 bd bf 41 38 d1 3e
       -1.9209738 -1.2006875 -1.4836001 0.4086323
000330 de 38 6f bf a4 27 9c bf fe 5c a1 bf b8 34 6c bf
       -0.9344615 -1.2199597 -1.2606504 -0.9226794
000340 af f0 d1 bf 74 08 d1 bf 9d 49 ac bf 50 0b a3 bf
       -1.6401576 -1.6330705 -1.3459965 -1.2737827
000350 cc 45 d0 be 15 55 88 bf ba 40 66 bf ba 49 89 bd
       -0.4067825 -1.0650965 -0.89942515 -0.06703515
000360 98 01 ea bf f8 08 93 bf 93 62 13 bf 1d d3 c5 be
       -1.8281736 -1.1487112 -0.5757229 -0.3863763
000370 aa ff 96 3e 41 70 6e bf 36 84 f7 bf 29 f3 3b 3f
       0.2949193 -0.93140036 -1.9337223 0.7341791
000380 6c 9e a4 bf 22 b8 36 3f ea b4 8b bf 75 7f 34 c0
       -1.2860847 0.71374714 -1.0914586 -2.8202794
000390 18 14 3d 3f 59 d9 8d bf 8f 9f cc bf f2 47 7e bf
       0.73858786 -1.1081954 -1.5986193 -0.9932853
0003a0 e1 fb 19 3f 9e 9f 90 bd 95 de 5e 3e af 48 19 bf
       0.6014996 -0.070616946 0.21764596 -0.5987653
0003b0 24 43 0f c0 da 65 c6 bf 59 6d a4 bf 77 70 95 bf
       -2.238473 -1.5499833 -1.284587 -1.1674947
0003c0 5f f7 1e c0 24 e6 a2 bf 61 e2 e7 3e b0 66 6f bf
       -2.4838483 -1.2726483 0.452899 -0.93516064
0003d0 cb d0 a0 3e fc 55 11 bf 5e 95 51 3e 14 11 b5 bf
       0.31409296 -0.56771827 0.20467135 -1.4145837
0003e0 f3 7b bc 3f b6 c6 d2 bf 8d 22 cf bf cd 4c 7b bf
       1.4725326 -1.6466892 -1.6182419 -0.98164064
0003f0 7d 23 af bf 59 e8 dc bf e2 f4 9c bf 1a f9 fd 3e
       -1.3682705 -1.7258407 -1.2262232 0.49604112

feature_layers.1.bias f4 [32]
000000 c1 5a 4a bf fe 3a df 3d e5 c8 22 c0 49 76 b9 3f
       -0.7904473 0.10899924 -2.5435116 1.4489223
000010 d8 1a 59 bf bf 54 bd 3f d1 0c c9 bf ad 99 4b bf
       -0.84806585 1.4791487 -1.5707036 -0.79531366
000020 4b 42 a7 bf e4 ff 16 bf 2c 4e 02 be 6f a3 9d bf
       -1.3067106 -0.5898421 -0.12725133 -1.2315501
000030 24 c1 4f bf 87 6b 54 be 22 50 85 bc 25 9a 62 bf
       -0.81154084 -0.20744143 -0.016273562 -0.88516456
000040 d4 21 23 bf 5b 8c d0 be 75 c1 39 bf 44 6f 5f 3f
       -0.6372349 -0.40732083 -0.72560817 0.8727915
000050 25 97 8c bf ea 91 59 bf 62 b8 34 bf fb 4d 9d 3e
       -1.0983626 -0.8498827 -0.70593846 0.30723557
000060 83 60 86 bf be 4f cc c0 d9 e2 31 bf d9 5f 40 bf
       -1.0498203 -6.384734 -0.6948677 -0.7514625
000070 ab cd c9 bf c8 d5 36 bf 26 a8 9e c0 98 50 0f be
       -1.576589 -0.71419954 -4.958026 -0.13995588

value_stream.0.weight f4 [16, 32]
000000 8b 0f 01 be ba 22 6e be 69 b5 d4 3d 89 81 88 bd
       -0.12603585 -0.23255435 0.10386164 -0.06665332
000010 81 c8 0b be 3c 20 16 be e1 99 70 bc f0 ff 5b bd
       -0.13650705 -0.14660734 -0.014685125 -0.053710878
000020 e2 70 fc bd d3 7a bc 3b 25 9b 62 bd 57 1e 12 be
       -0.12326218 0.0057519465 -0.05532374 -0.14269386
000030 33 dc 6b 3d 2f 7d 44 3e c5 88 b3 bd f8 dd 1c 3d
       0.057583045 0.19188379 -0.08766321 0.038297623
000040 40 5a da bd 5f 7e 89 bc 72 8e 86 bd b9 5e 83 3d
       -0.10661745 -0.016783891 -0.06570138 0.06414551
000050 62 51 61 3d 92 ad 5f be a5 34 b0 3c d9 85 93 bd
       0.055009253 -0.21843556 0.021509478 -0.07203264
000060 ae 0f 01 3e 46 f3 2d be 23 f4 b2 bd 46 65 9c bd
       0.12603638 -0.16987333 -0.08737972 -0.07636504
000070 59 58 3d be 60 11 72 3c cf 1d a5 3c 10 2e 76 bb
       -0.18490733 0.01477465 0.020155815 -0.0037564076
000080 77 fd c1 3d d6 ad 19 be 51 a6 5d bd c3 e6 ab 3d
       0.09472173 -0.1500772 -0.05411369 0.08393624
000090 2e bc 1f be f7 df ef 3d 6f 7e 86 be cf 72 9b bd
       -0.15599129 0.1171264 -0.26268336 -0.075902574
0000a0 ea e1 a1 3d 76 85 58 bd c1 10 53 3d 44 25 e1 3c
       0.07904418 -0.052861653 0.05152965 0.02748359
0000b0 5c 1a 45 bd cc 46 93 bd 90 62 75 3d b7 64 de 3c
       -0.04812084 -0.07191238 0.05990845 0.027147634
0000c0 05 b9 33 be 4c 4e 0e bb 00 b2 7c bd d7 a8 96 bb
       -0.17551048 -0.002171415 -0.06169319 -0.004597764
0000d0 7d 2e d8 3c d9 76 45 be 79 30 01 bd b6 2c d9 bc
       0.026389355 -0.19283618 -0.031540368 -0.026510578
0000e0 40 83 a4 bc 63 4e 2d bd 5f 98 bb bd de 86 0e be
       -0.020082116 -0.042311084 -0.09159922 -0.13918635
0000f0 65 7e 84 bd 59 b7 01 3d ed 44 65 be 7b e7 11 3e
       -0.0646942 0.031668995 -0.22389574 0.14248459
000100 53 cd 9b bd 9b 3b 95 be b2 0a 03 bd 1b 3b ff 3c
       -0.07607522 -0.29147038 -0.03199262 0.031156113
000110 7c 29 d2 3d 50 b4 cc 3d 57 40 03 3e d3 07 13 bf
       0.10261819 0.099953294 0.12817512 -0.57433814
000120 b4 0c 0f bf 89 c6 12 be c8 29 07 be 5a 4c e2 be
       -0.5587876 -0.14333548 -0.13199532 -0.44198877
000130 b3 1c 11 bf 27 35 9e bd e4 bf 6f 3f 00 07 b7 be
       -0.56684417 -0.07724982 0.93652177 -0.35747528
000140 aa 90 ff bd 58 42 1b be 18 f6 9e 3d 3e b1 48 3c
       -0.12478764 -0.15162027 0.077617824 0.012249289
000150 f5 6e b0 be 1c 69 e1 3e 70 0a 17 3e 85 79 b4 be
       -0.34459653 0.44025505 0.14750075 -0.35248962
000160 70 7d 62 be d5 8f d4 3e 54 32 d0 be 30 38 2e bf
       -0.22118163 0.41515985 -0.40663397 -0.68054485
000170 3b e0 ac 3e 62 7c 32 bf d2 39 2b bd 4f c5 96 be
       0.33764824 -0.69721043 -0.04180319 -0.2944741
000180 0d 4a 16 3d 97 10 95 be c0 12 02 3c 2a 3a d1 3d
       0.036691714 -0.2911422 0.007939041 0.10216172
000190 23 df 5c be 52 a7 0a 3d 40 63 b5 bd 2b d5 1c be
       -0.21569495 0.033850975 -0.08856821 -0.15315692
0001a0 1d 21 2b bc 61 11 12 3e e7 5d b9 3b 14 32 3d bd
       -0.010444907 0.14264442 0.005656946 -0.046190336
0001b0 6f 94 b8 3d 87 77 a5 3d ac 4a 77 be c3 ac f5 3d
       0.090126865 0.08079439 -0.24149579 0.11995842
0001c0 56 6a ea 3c 36 c3 c6 bd 28 57 3d bd 73 ba e9 bd
       0.028615158 -0.09705202 -0.046225697 -0.114125155
0001d0 2b 82 c8 bc 04 e6 24 bd 3e 45 d6 bd 15 fc 29 3d
       -0.024476131 -0.040258422 -0.10462426 0.04150017
0001e0 e2 9b 14 3b 3e ef 09 bd da 00 5a 3d e8 f6 80 bd
       0.0022675921 -0.033675425 0.05322347 -0.06297094
0001f0 4b 6e ae bd 07 63 25 3d 64 24 9a bc b7 37 d1 3d
       -0.085171305 0.040377643 -0.01881618 0.10215705
000200 86 b5 ba 3d 5f 61 41 be 7c 91 c2 3d 2c 1a 48 bd
       0.09116654 -0.188848 0.09500405 -0.048853084
000210 18 6b 26 be cb ed 2a 3d cd 1d 05 3d b9 29 4c 3e
       -0.1625179 0.041730683 0.032499123 0.19937791
000220 fc 6f 92 bb d7 ce 46 bd 40 48 22 3e 03 5a 81 bd
       -0.004468916 -0.0485371 0.15847874 -0.063159965
000230 e9 1b e0 bd 01 eb 03 3d 65 0f 80 bd 49 c6 75 bd
       -0.109428234 0.03220654 -0.06252936 -0.060003553
000240 99 24 35 3d 68 bd 91 bd 2b 0a bd bd a2 81 a7 bb
       0.044224355 -0.071162045 -0.09230455 -0.005111889
000250 96 12 bc bb c9 5f 52 bc 50 9b 5d bd cc 0e 23 3e
       -0.0057395203 -0.01284022 -0.054103196 0.15923613
000260 6e 3c b0 bc 3d 64 57 3d 48 25 b6 bd a1 0b 11 be
       -0.02151319 0.05258583 -0.088938296 -0.14164592
000270 cc 36 25 3c d2 5f c1 3c 90 ab 44 bd c7 c3 b1 bb
       0.010083865 0.023605261 -0.048015177 -0.00542495
000280 95 e8 3c be 54 5c 6a be 16 09 35 bd 76 de 4c 3d
       -0.18448098 -0.22886783 -0.04419812 0.050016843
000290 d7 d6 ed 3d b1 18 79 3c 5a ca a6 3d e4 3a 3e 3d
       0.11613243 0.015203641 0.08144064 0.04644288
0002a0 72 2e 94 bd fd 51 72 3d 0c 29 b6 bd fb f2 be 3d
       -0.07235421 0.05916022 -0.08894548 0.093236886
0002b0 ca ea 25 be d0 49 9c 3d 06 63 af 3d 46 ff d0 3b
       -0.16202846 0.07631266 0.08563809 0.006378087
0002c0 b2 9f c2 bd 9a 8a a0 bd 96 88 2d 3e 20 3d 66 3d
       -0.09503116 -0.07838936 0.16946635 0.056210637
0002d0 72 f0 b9 bd 72 0d 0a bd d6 b2 b8 bd 5a ed b3 bd
       -0.090790644 -0.03370423 -0.09018485 -0.087855056
0002e0 18 5c 3b bc f4 4d 66 be af b9 8f 3d 9e f2 c6 3c
       -0.011435531 -0.22490674 0.07017838 0.02428561
0002f0 9f 0e 27 be 64 12 e4 bc be ca ae 3c 5d 78 2d 3e
       -0.16314171 -0.0278408 0.02133691 0.16940446
000300 82 18 e7 3d 6c 6c e3 bd ca 79 fd bd 72 92 df 3b
       0.11283971 -0.11104664 -0.12376745 0.0068228776
000310 cd 88 4b be 9d 94 1d 3c 3b 67 99 be 37 2d 28 3e
       -0.19876404 0.009617952 -0.2996157 0.16423498
000320 51 e7 30 be f3 1f ab 3d 85 60 1e be a5 4f 70 be
       -0.1727574 0.08355703 -0.15466507 -0.23467882
000330 cb 83 44 3e 52 cb 5a 3e a0 e8 5b be fc 27 15 3e
       0.191909 0.21366623 -0.21475458 0.14566034
000340 f4 e4 18 bd 13 6e ab bd 91 7c 1d 3c 3c 5e cc bd
       -0.03732772 -0.08370604 0.0096122185 -0.09978911
000350 c8 75 b5 3d c4 9a e3 3c f2 e3 10 be 3a ca 6f bd
       0.088603556 0.027783759 -0.14149454 -0.058542468
000360 97 8a 20 3e 47 2a 52 be c4 13 d7 3d b0 5a 8c be
       0.15677868 -0.2052394 0.10501817 -0.2741294
000370 03 b7 a1 3d 96 d9 b0 3d 3c b7 2e be fe ba 9c bd
       0.07896235 0.08635251 -0.17062086 -0.076528534
000380 f0 0a 65 be 90 5c 16 bd f2 70 f0 3d 45 5b d7 3d
       -0.22367454 -0.03670937 0.117402926 0.10515455
000390 a1 4b 23 be f0 2d be bc 29 b9 62 bd d8 7d c8 3d
       -0.15946819 -0.023215264 -0.055352364 0.09789628
0003a0 57 c3 72 bd 9c e7 2c 3e d9 54 2b 3e e9 60 90 bd
       -0.05926832 0.16885227 0.16731586 -0.07049734
0003b0 b4 53 1c be 72 61 01 3d dc f4 eb bd 3f e4 93 bd
       -0.15266305 0.03158707 -0.115213126 -0.07221269
0003c0 e8 9b 65 be 9b 9d 70 bd 5e c3 86 3d f9 ee 24 be
       -0.22422755 -0.058744054 0.06580232 -0.16106786
0003d0 0a 5a c4 3c 24 70 6e 3e 1c b5 13 bc 4b 73 9d 3b
       0.023968715 0.23284966 -0.009015348 0.0048050038
0003e0 5d ac df 3d f7 2b 9a 3c ea 2b ab bc 5b 24 09 be
       0.109215476 0.018819792 -0.020894963 -0.13392775
0003f0 e8 46 16 bf d9 ff 4f 3d 3a 04 0a be 44 19 fb 3d
       -0.58701944 0.050781105 -0.13478175 0.122606784

value_stream.0.bias f4 [16]
000000 cc 0d 47 40 58 cf 3f 40 00 bc 9a 3f 60 0e 2d 40
       3.110217 2.9970303 1.2088623 2.7040024
000010 b3 d4 30 40 2a 74 3a 40 d5 43 3f 40 5c 23 2c 40
       2.7629821 2.91334 2.9885151 2.6896582
000020 59 fe 55 40 7e 5f 2b 40 04 32 e9 3f f4 18 48 40
       3.3436491 2.6777034 1.8218389 3.126523
000030 15 db 38 40 49 b9 3a 40 5e 93 3b 40 92 fa 34 40
       2.8883717 2.917559 2.9308696 2.8277936

value_stream.2.weight f4 [1, 16]
000000 7d cb e7 3c 8a 76 18 3e 69 48 14 3e c7 e4 2b 3e
       0.028295273 0.14888969 0.14480747 0.1678649
000010 a3 54 c3 bd 44 4e 4c 3e d3 6b 0d be 17 39 66 bc
       -0.095376275 0.19951731 -0.13810663 -0.014051697
000020 e9 1b fe bb 00 c4 b4 3d 97 4b 10 3e 28 be 00 bd
       -0.007754792 0.088264465 0.14091335 -0.031431347
000030 d4 fc 30 bd 1b 37 2c be ef a6 4b 3e ab 61 1a 3e
       -0.043209866 -0.16817896 0.19887899 0.1507632

advantage_stream.0.weight f4 [16, 32]
000000 ce 01 57 be 34 0c 20 3d 8e 11 d4 bd 6b 11 44 be
       -0.20996782 0.039074138 -0.10354911 -0.1914727
000010 ed 4e f0 bd f6 0f 25 be 99 60 6d be e4 29 7d 3d
       -0.11733804 -0.1611937 -0.2318138 0.06180753
000020 60 e5 35 b9 dd cf 06 3e 2b fa 06 bd 1f 8b 61 3d
       -0.00017346954 0.13165231 -0.032953423 0.055064317
000030 70 3b ca bd df 5a f8 3d 77 15 e5 3d 17 4e 85 3e
       -0.09874618 0.12126707 0.11185735 0.2603614
000040 b0 71 c0 bc 08 e0 90 be 9e e5 80 3e 30 cb 02 3e
       -0.02349171 -0.28295922 0.25175184 0.12772822
000050 b3 04 33 bd 01 ce e5 bc 19 78 fd bd 98 0c ff 3d
       -0.043705653 -0.028052332 -0.123764224 0.12453574
000060 96 55 97 bd e1 f7 6b bd 68 ac 01 3e 5a 87 c9 3d
       -0.07389371 -0.057609443 0.12663424 0.098402694
000070 c6 56 79 be 76 9f 11 3e 66 78 3f 3e 32 9a 02 be
       -0.24349508 0.14220986 0.18698272 -0.12754133
000080 1d 56 11 bd 51 94 f3 be 44 94 a1 3d b9 e7 63 3d
       -0.035482515 -0.47574094 0.078896075 0.05564091
000090 0b 71 be bd 3e 31 84 bd 0e e2 93 be cd 21 e3 3c
       -0.09298905 -0.06454705 -0.28883404 0.027726078
0000a0 e4 67 96 be 81 d2 b9 bc 99 0e 02 3e 3b 1d 07 3e
       -0.29376137 -0.022683384 0.12700881 0.13194744
0000b0 e2 0b ca bd 75 1d 44 bb 15 7b 8a bd a9 fc 1f bd
       -0.09865548 -0.0029924784 -0.06761757 -0.039059315
0000c0 32 f1 ab bc 5a cd 16 3e 59 ef 3f 3e ca 06 89 bd
       -0.020989034 0.14726773 0.18743648 -0.06690748
0000d0 69 5c b9 3d 24 23 ab bc c6 c1 06 be 86 37 d8 3c
       0.09050829 -0.02089078 -0.13159856 0.026393663
0000e0 d6 79 6f 3d fd ef 0c bd 9d 99 a9 3d 1c 48 7e be
       0.0584658 -0.03440856 0.082812525 -0.24832195
0000f0 87 19 c2 3d d0 b3 07 3d 12 96 03 bc d3 9e 92 bd
       0.09477525 0.033130467 -0.008031385 -0.071591996
000100 c9 92 14 be ed 8b 26 be e6 03 14 3b 4f 1e a1 bd
       -0.14509119 -0.16264315 0.0022585331 -0.07867109
000110 c6 4e c3 bd 30 a0 49 bd a8 73 87 bd 60 70 17 3d
       -0.09536509 -0.049225032 -0.066138566 0.036972404
000120 72 81 a4 3a b0 db 52 bd 65 d4 12 3e cd b2 37 3d
       0.0012550785 -0.05147904 0.14338835 0.044848252
000130 8b 13 3d 3d 8f f7 0f 3e 80 05 45 bd 98 d9 d3 bc
       0.046161216 0.1405928 -0.04810095 -0.025860593
000140 23 3b e6 3c 5a 54 1d be 66 a0 8b bd 3a a8 29 bd
       0.02810437 -0.15364209 -0.06817703 -0.0414202
000150 79 ab b6 3d c6 10 01 be 69 18 0b be 25 c7 a5 3d
       0.089194246 -0.12604055 -0.1358353 0.080946244
000160 5a 20 84 3d d1 42 a1 3d 3c 82 78 bd 89 5a 7b 3c
       0.06451483 0.07874072 -0.060671076 0.0153414095
000170 4b 95 b1 bd b5 34 80 3d aa 6d 1c be 68 01 6f 3c
       -0.086710535 0.06260053 -0.15276209 0.014587738
000180 9f 00 f8 bd a4 c6 b0 3c 29 62 0b bc c9 55 83 be
       -0.121094935 0.021579094 -0.00850729 -0.25651386
000190 d4 04 3a be a5 07 d8 bd 02 23 ae be 3b 48 18 be
       -0.18165904 -0.10548333 -0.34011084 -0.14871304
0001a0 2e 92 57 3c b5 6f 05 3e 72 e8 e6 bd e7 35 16 bd
       0.013157411 0.13030894 -0.11274804 -0.0366725
0001b0 d2 f9 a1 3d 7e fa f9 bb cc 0f 90 3d 3b 5d 67 3e
       0.079089776 -0.007628738 0.07034263 0.22594158
0001c0 2b ea 1a be 0e 5e 4a bb 7c 3f 17 bb cf 12 be bd
       -0.1512839 -0.0030878815 -0.002307861 -0.09280931
0001d0 ea 29 a5 bd 0a a7 d4 3d 58 d5 51 bd 4b ac e8 3d
       -0.08064635 0.10383423 -0.05122885 0.11360987
0001e0 b6 23 01 3e f3 34 12 be be 8a 1f 3b 10 bc 5d 3d
       0.12611279 -0.14278011 0.0024344171 0.05413443
0001f0 88 81 10 be 3d 45 00 3d f0 88 13 be 72 6e b1 3d
       -0.14111912 0.03131603 -0.14407706 0.08663644
000200 07 08 e3 bc e4 42 75 be 6b bf f1 3d 60 7a c1 bd
       -0.027713789 -0.23951298 0.11804088 -0.09447169
000210 3e 88 e5 bd 25 48 29 be 11 86 4d be 84 c8 bb bd
       -0.11207627 -0.16531427 -0.20070674 -0.09169105
000220 f2 0c e6 3c b3 4f 1d 3e 76 3a 2f be fb ac b0 bd
       0.028082345 0.15362434 -0.17112145 -0.086267434
000230 5a 2b a9 bd 25 e8 94 3d 71 ab 87 3e a2 9c 17 3d
       -0.08260222 0.072708406 0.26497987 0.03701461
000240 a3 03 45 bd 1f ce a4 3c b2 80 e2 bd ee 9f 9b bd
       -0.04809917 0.020117817 -0.11059703 -0.075988635
000250 95 e7 55 bd e7 65 90 bd 49 84 7d bd fb ed 00 3e
       -0.052222807 -0.07050686 -0.061893735 0.12590782
000260 ea dd fc 3a cf 6c f6 bd c3 87 cd 3d ab d0 e4 3d
       0.001929221 -0.12032472 0.1003566 0.11172613
000270 8d e7 04 be f0 01 05 3e a4 43 ed 3a 70 e0 b2 bd
       -0.12978955 0.1298902 0.0018101824 -0.08734214
000280 1e 2a 90 bd 80 5d 66 be 07 20 98 bd a1 73 2e 3d
       -0.07039283 -0.22496605 -0.07427984 0.04259074
000290 2f c4 c6 3d 77 76 6f 3c dd 55 3d 3d 0d 2e c2 3b
       0.09705388 0.014615647 0.046224464 0.0059259
0002a0 33 b7 35 3c 3b b3 d2 3d 3d 60 4a 3d 7d 75 8c bd
       0.011091041 0.10288092 0.049408186 -0.068583466
0002b0 2d 2c a9 3d e3 01 54 3e ac 7b 35 bd c7 37 6c bd
       0.08260379 0.20703845 -0.044307396 -0.05767038
0002c0 76 22 24 3d 7c c2 2b bd 56 1c 1c 3d 7f 4a 3f 3e
       0.040071927 -0.04193352 0.03811296 0.18680762
0002d0 57 16 a6 bc f2 da ca bd 34 0a bd 3d 07 bc 63 bc
       -0.020274324 -0.09905042 0.09230462 -0.01389981
0002e0 5f 67 d0 bd ea e4 be 3c d4 e0 98 3c 9c 0b 48 be
       -0.101759665 0.023302514 0.018661894 -0.19535679
0002f0 2f 4a 48 3c 09 51 39 3e ac 9b 93 3d f9 f2 03 be
       0.012224718 0.18097319 0.072074264 -0.12885655
000300 ed 1b 0d bc 58 dc 34 bf 26 02 cf 3d df 0e 40 3e
       -0.008612615 -0.7064872 0.10107832 0.18755673
000310 07 58 f9 3d 31 c0 72 3d ae 75 06 bd 4d 5f 19 bd
       0.12174993 0.05926532 -0.03282707 -0.0374444
000320 9b 62 45 be e4 3b ab bd e7 bc 0e 3e 03 00 cc 3c
       -0.19275896 -0.083610326 0.13939248 0.02490235
000330 ec 99 79 3d 84 2a 13 3d b2 4b 3b 3d a8 45 35 3e
       0.060937807 0.035929218 0.045726486 0.17702353
000340 1e 65 8f 3c cf a6 19 be 69 85 86 bd eb c4 e7 3d
       0.017504271 -0.15005039 -0.06568415 0.11316856
000350 db 4d 12 be 81 27 04 be 99 61 14 3c 12 88 96 3d
       -0.14287512 -0.12905695 0.009056472 0.07350172
000360 08 eb a5 bd 4d d7 cf 3d 74 c1 5d 3c 54 dd 2a be
       -0.08101469 0.10148487 0.013534892 -0.16685992
000370 21 08 6c bd d8 5b e3 ba a6 60 63 bd 4c 59 43 bd
       -0.05762494 -0.0017346097 -0.055512093 -0.047692582
000380 7e 7b 1f 3d e0 14 d8 bd 81 33 f2 bc bb 8e da bd
       0.03893613 -0.105508566 -0.029565575 -0.10671755
000390 1c b0 82 be 93 06 b3 3d 96 f3 50 bb c7 d7 d0 bd
       -0.25524986 0.08741488 -0.003188347 -0.10197406
0003a0 40 64 1f be 3c 9a 46 3d ec 84 4c 3c d7 97 ef 3d
       -0.15565586 0.048486933 0.012482863 0.11698883
0003b0 ea 5c a5 bd f3 10 27 bd af 24 44 3d 4e 05 8a 3d
       -0.080743626 -0.04078765 0.047886547 0.06739293
0003c0 87 ad b6 3c 18 5c c9 bd 7d 81 97 3d 4c 38 31 be
       0.022299541 -0.098320186 0.07397745 -0.17306632
0003d0 da 5c a7 bc fd 74 86 be e3 ab b8 bd 49 d3 c0 3c
       -0.020430017 -0.2626113 -0.0901716 0.023538249
0003e0 85 d6 9c 3a 83 dd a0 bd c9 d5 14 3e bc 97 9b be
       0.0011965787 -0.0785475 0.14534678 -0.30389202
0003f0 cb 97 a3 3d 52 c9 68 3d 49 50 0b bd 8b ab 2c 3e
       0.079879366 0.05683262 -0.034012113 0.16862313

advantage_stream.0.bias f4 [16]
000000 11 08 48 40 a4 43 42 40 c8 99 4e 40 ea bc 48 40
       3.1254923 3.0353785 3.228136 3.1365304
000010 e1 4e 4c 40 50 dd 50 40 14 e8 48 40 31 12 37 40
       3.1923144 3.2635078 3.139165 2.8604853
000020 ee 17 33 40 46 5d 2e 40 1a 3a 39 40 d5 4b 43 40
       2.7983356 2.724443 2.8941712 3.0515034
000030 b1 04 43 40 9b 90 4d 40 c2 ec 47 40 62 26 5a 40
       3.0471613 3.211951 3.1238256 3.4085927

advantage_stream.2.weight f4 [8, 16]
000000 18 0c 67 3e b4 d0 92 3d ce 76 02 be b0 2e 6f 3d
       0.22563207 0.07168713 -0.12740633 0.058394134
000010 28 8c 32 be e8 e3 68 be 40 59 e9 3d 40 42 db 3c
       -0.17436278 -0.2274319 0.11393976 0.026764989
000020 34 c7 8b 3d c2 48 1f 3e 30 7e c3 bd 7c ae 04 be
       0.06825104 0.15555099 -0.09545553 -0.12957186
000030 3e fa 67 3e d8 96 38 3d d0 a5 4f be ec bc 9f bd
       0.22654054 0.04506573 -0.20278096 -0.07799706
000040 9a 3a 27 be 80 34 5e bb dc ef 3b be fa fe 57 be
       -0.16330948 -0.0033905804 -0.18353218 -0.2109336
000050 c4 cb e9 bd d0 1f fc 3c d8 f5 43 3e 15 13 11 be
       -0.11415818 0.030776888 0.1913675 -0.14167435
000060 c8 ad 06 bd 34 83 6b be f0 fd 35 3d c2 67 5f 3e
       -0.032880574 -0.22999269 0.044431627 0.21816924
000070 16 22 2f be 74 b6 4b be de 43 0c be 98 df 75 be
       -0.17102847 -0.19893819 -0.13697764 -0.24011075
000080 10 ad 95 bc 18 2b 28 3e 18 7d 52 3e d0 39 5a bd
       -0.018271 0.16422689 0.20555532 -0.05327779
000090 f8 5b 48 bd fc 75 64 be 3c d3 4a 3c 3e 90 4d be
       -0.048915833 -0.22310632 0.012379464 -0.20074555
0000a0 26 4b 5c 3e f6 a7 64 3e 74 13 8a 3d a8 da b2 bd
       0.21513042 0.22329697 0.06741992 -0.087331116
0000b0 80 3c a2 3c 28 c8 04 bd ac f2 01 be fa 5a 34 be
       0.01980424 -0.032417446 -0.12690228 -0.1761283
0000c0 10 e2 0a 3d 8c 52 b9 3d a6 8a 53 3e 28 d8 86 3d
       0.033906996 0.09048948 0.20658359 0.06584197
0000d0 56 9d 69 be ee dd 78 3e c6 20 21 3e 84 32 1a be
       -0.22813925 0.2430341 0.15735158 -0.15058333
0000e0 20 80 da 3c 80 13 dd bc 46 78 6b be 80 2a 35 bd
       0.026672423 -0.026986837 -0.229951 -0.044229984
0000f0 24 ac 8f bd 90 df 6f 3d 18 20 2f bd cc 5f 9b bd
       -0.07015255 0.058562815 -0.042755216 -0.07586631
000100 18 75 3b bd c8 98 5b 3e 30 80 9c 3c 60 fc f7 3d
       -0.045765966 0.21445 0.019104093 0.121086836
000110 ba 9f 68 3e 66 81 a6 3d 10 31 73 bd b0 33 a3 bd
       0.22717181 0.081301495 -0.05937296 -0.07968843
000120 68 fb 14 bd b4 8a 39 3e a4 76 76 3e 6c 75 91 3d
       -0.036372572 0.18119317 0.24068695 0.071024746
000130 20 a1 6c 3e 50 55 41 bd a0 70 2d 3e 50 9f 1e 3d
       0.2310834 -0.0472005 0.16937494 0.03872615
000140 10 84 79 3d 30 12 bf bd 3c 18 8e 3d e6 8a 79 be
       0.06091696 -0.09329641 0.06938216 -0.24369392
000150 a6 7d 72 3e b0 93 43 be cc fa 60 3e 86 08 2d be
       0.23680744 -0.19099307 0.21970671 -0.16897783
000160 48 7b 75 bd 90 cf fb bc e0 e3 f8 3d 16 bc 3e be
       -0.059932023 -0.030738622 0.12152839 -0.18626437
000170 d0 ac d8 bc 44 00 19 be a4 61 56 3e f0 00 be bc
       -0.02644959 -0.14941508 0.20935684 -0.023193806
000180 5a 69 46 3e b6 ef 78 be 46 f5 5f be bc 2e 2e 3e
       0.19376126 -0.24310192 -0.21870908 0.17010015
000190 26 63 17 be 20 c9 0b 3e 00 b0 7e 3e 52 b6 2e be
       -0.14783916 0.13650942 0.24871826 -0.17061737
0001a0 e0 f0 c7 3c 00 39 a1 bb a0 e5 bd bd 40 04 15 bc
       0.02440685 -0.004920125 -0.09272313 -0.009095252
0001b0 28 a5 4f 3e bc d7 d2 3d 86 65 28 3e f8 8b f0 bd
       0.20277846 0.10295054 0.16444978 -0.11745447
0001c0 17 35 7a 3e c8 cf ed 3d 24 f6 b7 bd fc 43 bc bd
       0.24434315 0.11611897 -0.089824945 -0.091926545
0001d0 36 44 66 3e 8c 1d 31 be 88 be 8a 3d 20 84 a6 bd
       0.22486958 -0.17296427 0.06774622 -0.081306696
0001e0 26 a1 6b 3e 3c 18 54 be 60 b2 98 3d 30 63 25 bd
       0.23010692 -0.2071237 0.07455897 -0.040377796
0001f0 18 67 14 be 58 e4 74 bd 04 28 bd 3d f6 e2 2b be
       -0.14492452 -0.059788078 0.09236148 -0.16785797

advantage_stream.2.bias f4 [8]
000000 c0 af d7 3b 6c c1 fa bd 10 51 09 be 50 20 75 3e
       0.0065822303 -0.122439235 -0.13409829 0.23938107
000010 16 cc 47 3e 9c e0 37 3e e2 76 4a be 40 7a f0 3c
       0.19511446 0.17956775 -0.19771913 0.029355168
