dumpedit/agent_main_network.pth (torch, 24261 bytes, 11 tensors)

feature_layers.0.weight f4 [64, 20]
000000 2a 0c 3b bc 6a c9 18 3d e2 10 18 3e bc 27 fe bd
       -0.011416474 0.03730146 0.1485019 -0.124099225
000010 55 40 50 3e 26 9f 36 3c 72 cd 3a 3e a3 6b 73 3b
       0.2033704 0.011146342 0.18242434 0.0037143014
000020 29 b2 92 bd 4d 79 62 be ac 13 72 3d 20 a4 5d be
       -0.071628876 -0.22116585 0.05910079 -0.2164464
000030 37 6f 27 be 0c 6d 48 3e f5 6e 47 be 8a 7f 46 bb
       -0.16351019 0.19572848 -0.1947592 -0.0030288422
000040 28 9e e4 bd 6a 53 28 be 6d 34 f6 bd d9 ea 58 bc
       -0.111629784 -0.1643807 -0.12021718 -0.013239586
000050 4b c4 4f be 91 1e aa 3d ed 2b 25 3e 17 11 90 3d
       -0.20289724 0.08306611 0.16130038 0.0703451
000060 f7 46 64 3c 2a 96 88 bd d4 e2 ea bd 41 18 3a be
       0.013932935 -0.066692665 -0.11469045 -0.18173315
000070 f5 a5 64 be 8f 7c 6b 3d fa 2f 06 3e ef 81 0f be
       -0.22328933 0.057491835 0.13104239 -0.1401441
000080 73 9e c4 bd 94 3c 00 3d 0b 36 bf bd 44 b1 99 bd
       -0.09600534 0.03130777 -0.0933648 -0.07504514
000090 22 9f 8e bd d2 5a 22 3e 0b b9 62 3e fa ba 1c 3e
       -0.06963946 0.15854958 0.22140901 0.15305701
0000a0 94 45 4e 3e e4 f1 3a 3d 0e 51 64 3d 4b dc a0 bd
       0.2014373 0.04564084 0.055741362 -0.078545175
0000b0 86 33 7a bd d8 03 4b 3e 76 a7 ea 3c ce 07 30 3e
       -0.061084293 0.19825685 0.028644305 0.17190477
0000c0 e3 e0 ac 3d 99 7b 10 be a2 16 10 be b3 c9 59 3d
       0.08441331 -0.14109649 -0.14071134 0.05317087
0000d0 dd 68 ff bd 34 01 0a be 4c a9 46 3d 0a 9f e5 bd
       -0.12471173 -0.13477021 0.048501298 -0.11211975
0000e0 58 df 6e 3d 7f ce 00 be 35 fa e7 bd cc 6d 1f 3e
       0.058318466 -0.12578772 -0.1132702 0.15569228
0000f0 4e 04 a8 3d e0 32 00 be db db 62 3d 07 95 30 be
       0.08203946 -0.12519407 0.05538545 -0.1724435
000100 0f e4 2c 3e e1 30 f9 3d f4 8f 49 bb 52 e2 cf 3d
       0.16883872 0.12167526 -0.0030755969 0.10150589
000110 78 47 51 be 48 f1 eb 3c 3a 11 5b be 8b ce 82 bd
       -0.2043742 0.028801575 -0.2139329 -0.06387051
000120 e1 37 2b be 3b ff 89 bd 3a e7 31 3c a8 cd c4 3d
       -0.16720535 -0.067381345 0.010858351 0.09609538
000130 c8 83 d3 3d a4 01 95 bc 3f 9a 3e be d7 40 4b be
       0.1032787 -0.018189259 -0.18613528 -0.19848953
000140 36 a6 cf bc 66 df 24 be ec e4 32 3e a7 03 a2 3c
       -0.02534781 -0.16100845 0.1747014 0.019777132
000150 22 bf 1b 3e cf d7 de bd 18 7c 55 3e df 47 ae bc
       0.1520963 -0.10881006 0.2084812 -0.021274505
000160 7b 2b b9 bd 04 16 32 be 81 a8 31 3e 4c aa 19 be
       -0.09041496 -0.17391211 0.17349435 -0.1500637
000170 57 03 fb 3d 97 38 ef bc 6e df 2b be d8 43 ca 3c
       0.122564964 -0.029201789 -0.1678445 0.024690554
000180 43 bd 5a 3d 52 dc 1f 3d 14 f2 62 bd 0c 2c 3a be
       0.05340315 0.039028473 -0.055406645 -0.18180865
000190 79 06 30 be fd 8e 85 3c ae d1 06 be 13 35 12 3e
       -0.17189969 0.016303534 -0.13165924 0.14278059
0001a0 fb 90 43 be 38 27 51 be 71 2d d3 3d 90 55 ca bd
       -0.19098274 -0.20425117 0.10311402 -0.09879601
0001b0 1d bd 27 3d 13 d8 b0 3d fb 9e d4 bc fc ae 04 3e
       0.040951837 0.08634963 -0.025954714 0.12957376
0001c0 f7 3f 27 3e 45 bb dc bd 04 27 e4 bd 9c 0b d4 3d
       0.16332994 -0.10777906 -0.11140254 0.10353777
0001d0 a5 63 75 3c d5 ed 46 bd 03 a3 aa 3d 10 a2 54 be
       0.01497737 -0.048566658 0.08331873 -0.20764947
0001e0 25 80 5c be b4 7f 45 3e 7e a5 58 3e b5 d8 b9 3d
       -0.21533258 0.19286996 0.2115688 0.09074537
0001f0 3e c4 34 be 6c ef 56 be 89 35 cb 3d ad 0e ee 3d
       -0.17652985 -0.2098977 0.099223204 0.11623893
000200 18 7d 25 3e 54 d2 28 bd 23 d9 06 3e b9 0c 67 bd
       0.16161 -0.04121621 0.13168769 -0.056408618
000210 32 93 d9 bd 83 aa 49 be 59 f2 59 3e 9f cb 56 3d
       -0.106237784 -0.19693951 0.21283855 0.052440282
000220 12 fe 73 bd 69 8f 96 3d 81 22 ae 3d 16 6f 9e 3d
       -0.059568472 0.07351572 0.08502675 0.07736032
000230 6c 03 4e be ac dd 05 3d a4 b1 02 be 43 2b 20 3e
       -0.20118493 0.032682106 -0.12763077 0.15641503
000240 bf 51 13 3c 8e 47 38 3e 44 0b 82 bd c1 b4 9e 3d
       0.008991658 0.17996046 -0.06349805 0.0774932
000250 dd 23 c8 bd 25 be 16 be 7a ef f8 bd 41 a2 ce bd
       -0.097724654 -0.14720972 -0.121550515 -0.10089541
000260 8b b5 58 3d 9e 10 4b 3e fd d3 4b be 22 41 1d 3e
       0.052907508 0.19830558 -0.19905086 0.15356877
000270 84 67 55 be 0b 4a 31 be db 67 df bd 87 65 bd 3d
       -0.2084027 -0.17313401 -0.10908481 0.092478804
000280 70 3d 3d 3e 4b d5 fc bd 92 c5 51 be 62 e2 9d 3d
       0.18480468 -0.1234537 -0.20485523 0.07709195
000290 54 92 5c 3e 10 59 fa bb 41 5b 35 3d 69 32 fd bc
       0.21540195 -0.0076400116 0.04427648 -0.030907826
0002a0 87 b8 16 3d f0 0b 5f be 95 44 d1 bd 93 ba 0a 3b
       0.036797073 -0.21781898 -0.10218159 0.0021168336
0002b0 5e 1a 9d 3d 6a a7 62 3e 33 7a 5c be fa 8d 92 bd
       0.07671045 0.22134176 -0.2153099 -0.07155986
0002c0 89 94 9b 3d fc 47 fb 3d bf c4 20 3e 7e 9b 30 3e
       0.0759669 0.12269589 0.15700053 0.17246816
0002d0 ac bf f4 3d 57 87 76 3c 13 9c 45 3e c4 d3 3c 3b
       0.11950621 0.015046916 0.19297819 0.0028812746
0002e0 ee 7e 3b bd 9f 60 53 be cc 2e a4 3d f1 8f 07 3d
       -0.045775346 -0.20642327 0.08016738 0.033096258
0002f0 6a 5b 03 3e 02 69 1b be 41 45 58 3e be 50 e8 3d
       0.1282784 -0.15176776 0.21120168 0.11343525
000300 df 96 d1 3d d1 a6 9b bd 00 6f 55 be 63 cc cd 3d
       0.102338545 -0.07600177 -0.20843124 0.10048749
000310 3e 71 60 3e b5 df b2 bd 6c cd 64 3e 19 18 ef bd
       0.21918198 -0.08734075 0.22343987 -0.11674518
000320 42 0f 51 3e cc f4 9a 3c fb cb 53 bd 09 70 ad bc
       0.20415977 0.018915556 -0.051708203 -0.021171587
000330 b9 49 6e bd e2 3a c9 bd d4 18 a4 bd 54 d2 f3 bd
       -0.058175776 -0.09825684 -0.08012548 -0.11905351
000340 6b 79 56 3d 6a 7b 41 be dc c8 2e 3e 32 05 63 bb
       0.052361887 -0.18894735 0.1706881 -0.0034640548
000350 d9 2e 29 3e 98 da 31 3e 7e c9 4c 3e 12 90 3e 3e
       0.16521777 0.17368543 0.19998738 0.18609646
000360 19 3d 42 be df 63 29 bd f7 3b e3 bd a9 c7 43 be
       -0.1896862 -0.04135501 -0.11095422 -0.19119133
000370 d4 31 37 be 10 a2 5f be 9e d9 2c 3e 13 b1 f7 bd
       -0.17890102 -0.21839166 0.1687989 -0.12094321
000380 68 7d ef ba 16 0c 35 be c9 36 75 bd 50 83 27 be
       -0.0018271627 -0.17680392 -0.0598667 -0.16358685
000390 92 f7 2e 3b ec 57 17 be 74 ef 1b 3e 2a d6 c2 3d
       0.0026697856 -0.14779633 0.15228063 0.09513505
0003a0 c1 84 5f 3e ee 3e 58 be ca 4b 37 be 2d 29 48 bd
       0.21827985 -0.21117756 -0.17900005 -0.048867393
0003b0 f7 e9 21 be 91 72 f9 bd 3d e2 67 bb 81 25 9c 3d
       -0.15811907 -0.12180055 -0.0035382651 0.07624341
0003c0 72 17 e2 3c 14 57 4c 3e 21 f1 17 3e 04 dd 44 be
       0.02759907 0.19955093 0.14838077 -0.19224936
0003d0 70 65 b9 bc 93 9a f1 bd 9f db 81 bc f8 bd 61 3e
       -0.022631377 -0.11797061 -0.015851794 0.22045124
0003e0 68 5f 2a 3e dd c3 2f 3d 88 fc f1 bc 2c bc 51 3e
       0.16637957 0.0429114 -0.029539362 0.20481938
0003f0 51 10 16 3e 14 dc 8e 3d 11 b2 ef bd 92 b6 21 be
       0.14654662 0.0697557 -0.11703885 -0.15792301

feature_layers.0.bias f4 [64]
000000 c2 ce a8 c1 82 63 85 c1 a9 fa 31 c1 6a 0a fa c0
       -21.100956 -16.673588 -11.123696 -7.8137712
000010 66 b0 51 c1 c9 25 28 c2 73 f2 c1 c1 3c ca 54 3e
       -13.105566 -42.0369 -24.243383 0.20780271
000020 74 f1 19 40 85 d6 b0 c1 55 17 1a c1 7b 6a 1b c1
       2.4053621 -22.104746 -9.630696 -9.713496
000030 5a 61 da c0 95 cf fb c0 8b 5b 84 c1 80 44 38 c2
       -6.8243837 -7.8690896 -16.544699 -46.066895
000040 53 e3 12 c0 6b 62 cd c1 95 ce 2a 41 2f 79 bf c0
       -2.2951248 -25.673056 10.675435 -5.983543
000050 aa a0 6d c0 09 b1 1b c2 ce 82 2c c2 43 e1 a1 c0
       -3.7129312 -38.922886 -43.12774 -5.058748
000060 70 65 a1 c1 da 07 c8 c1 85 69 c8 3f 01 e1 7b c0
       -20.17453 -25.003834 1.5657202 -3.9356081
000070 2f 43 18 40 ca 45 45 c1 13 99 26 c1 3d 61 05 c1
       2.3791006 -12.329538 -10.412372 -8.33624
000080 37 e3 73 c1 31 88 e4 40 b7 36 28 c2 d9 be 74 c1
       -15.242972 7.141625 -42.053432 -15.296594
000090 47 d4 94 3c ab d1 bf c1 6c 3f fe c0 bc 7b 9e c1
       0.018167628 -23.977377 -7.945242 -19.810417
0000a0 5e c9 11 c1 e6 c3 f8 c0 3e c9 05 c1 37 9a 0d c2
       -9.111662 -7.7739134 -8.361631 -35.4006
0000b0 30 d9 5f c1 ff 91 74 c1 18 97 cd c1 a3 8a 1b c2
       -13.990524 -15.285644 -25.698776 -38.885387
0000c0 09 05 bd c0 e8 d0 b7 c1 ab 40 81 bf b3 db 42 c2
       -5.9068646 -22.977005 -1.009786 -48.71455
0000d0 58 b0 75 40 19 b1 a8 c1 d8 d6 cd c0 c6 cc 81 c1
       3.8388882 -21.086473 -6.432476 -16.224987
0000e0 72 07 3f c0 fc 57 5a c1 74 3b e5 c0 7f bd 78 c1
       -2.9848294 -13.646481 -7.1635075 -15.546264
0000f0 6d 46 fb c1 e7 5a 2e c1 be e1 99 c1 3f d9 1e c2
       -31.409388 -10.897193 -19.235226 -39.712154

feature_layers.1.weight f4 [32, 64]
000000 b8 1e d0 3f ec bf 8a 40 a5 98 b7 41 c0 34 f2 41
       1.6259375 4.335928 22.949533 30.275757
000010 a8 13 e1 3d 7d 23 06 3f d9 0c bd bd 07 6c ae c0
       0.10990077 0.523979 -0.09230966 -5.450687
000020 a4 de 14 40 3f 45 05 41 49 aa 36 41 3d 2f 72 40
       2.326089 8.329406 11.416574 3.7841332
000030 a2 ba 50 40 10 3d 30 c1 2b 76 54 41 a0 46 f8 3f
       3.2613912 -11.014908 13.27885 1.9396553
000040 55 9e 8c 41 4a 8c 35 bd 3f aa 6e c0 60 da 8f 41
       17.57731 -0.044323243 -3.729141 17.981628
000050 ba 40 b5 c1 66 ce 80 3f 8f 62 09 40 25 04 05 41
       -22.656605 1.0062988 2.1466405 8.313512
000060 6b bd 43 be bd 3b 6e c0 b1 43 32 c0 51 b8 1b 41
       -0.19115226 -3.7223961 -2.7853816 9.732499
000070 73 fc 71 3f 85 10 82 c0 07 70 53 c1 b3 21 80 41
       0.9452583 -4.0645165 -13.21485 16.016455
000080 33 44 c9 40 7e 2b d3 c0 26 b2 dd 3f 06 eb 08 41
       6.289575 -6.599059 1.7319992 8.557379
000090 77 0a f2 40 82 5b 2e 41 1b 8f 7b c0 91 c9 d1 40
       7.5637774 10.897341 -3.9306095 6.5558553
0000a0 97 4e 0e c1 1f be 50 c0 b4 50 ae 41 e3 66 64 40
       -8.894187 -3.261604 21.789406 3.5687797
0000b0 0f cf 5f bf aa c2 08 bd f6 b0 1b bd 62 a5 2e 3f
       -0.8742532 -0.03338877 -0.03801056 0.68221104
0000c0 7f d2 35 41 ec a6 32 c0 6b 67 3b c1 f0 1c 0d 40
       11.363891 -2.791438 -11.712749 2.2048912
0000d0 ad ef ba c0 e2 70 92 41 76 e9 16 41 86 2f 93 40
       -5.8417573 18.305119 9.431997 4.599551
0000e0 bd c4 81 41 ce 7a bd 40 41 dc 43 c0 c4 0c eb 40
       16.221064 5.921241 -3.0603182 7.3453083
0000f0 28 00 56 3f 9c 62 f7 40 6f 6a e0 40 3d be 97 40
       0.8359399 7.7307873 7.0129924 4.7419724
000100 8f 42 8e c0 53 3f d1 bf 39 4f 10 c0 52 06 25 c0
       -4.445625 -1.634745 -2.2548354 -2.5785108
000110 ae 6a 83 c0 48 7c 6a c0 1b 59 9d c0 29 d5 6e c0
       -4.1067724 -3.6638355 -4.917127 -3.7317603
000120 64 1b 7e c1 7a b3 df c0 cc 67 f9 c0 95 f1 84 c1
       -15.881687 -6.9906588 -7.7939205 -16.61796
000130 6c 23 ca 40 db fb bb c1 03 54 2e be a5 66 60 c0
       6.316824 -23.497976 -0.17024235 -3.506265
000140 d5 87 08 c1 f0 84 a7 c0 23 76 fd c0 b9 f6 bb c0
       -8.533162 -5.2349777 -7.920671 -5.8738675
000150 92 5e dd c0 14 83 80 c0 ce 89 54 c0 7b 4d f5 3f
       -6.917794 -4.0160007 -3.320911 1.916427
000160 8e 2d b4 c0 72 51 b4 c0 2d 69 d1 c0 8d 23 11 41
       -5.630561 -5.634942 -6.544089 9.071179
000170 45 7c ed 40 68 f7 fc c0 f5 9a 7d c1 1b ea 3c 41
       7.4214196 -7.905201 -15.850331 11.807155
000180 d3 97 46 c0 0e 3c 0e 41 3e 0a 61 c0 54 f9 fd c0
       -3.1030166 8.889662 -3.5162501 -7.9366856
000190 7c d7 7c 40 dc ea 10 40 68 b7 ea c1 34 2d 1f c1
       3.9506521 2.2643347 -29.339554 -9.948536
0001a0 47 3d 9e 40 ae ea da bf a0 d8 8d bd 86 6f a1 c0
       4.94498 -1.7102869 -0.069260836 -5.0448637
0001b0 08 bc ae c0 1e c6 05 c1 97 21 0d c0 62 59 80 c0
       -5.460453 -8.360868 -2.2051752 -4.010911
0001c0 4f 46 e3 bf 6d 9f e4 c0 2e 42 0e c0 89 50 5d c0
       -1.7755831 -7.144461 -2.2227893 -3.4580405
0001d0 4c ac 39 bf 62 91 86 c0 8f 87 fc bf 1c 35 a0 c0
       -0.7252853 -4.205247 -1.9728869 -5.006483
0001e0 d7 24 e2 40 60 e3 fc c0 a2 e9 56 c1 51 7e 32 c1
       7.066997 -7.9027557 -13.432039 -11.155839
0001f0 ff 42 91 c0 1e ec 71 c0 04 3c e3 c0 8c c0 1c c0
       -4.539428 -3.7800364 -7.101076 -2.4492521
000200 da 07 7a 41 3a a0 ee 40 6e e5 d6 40 4d 5d 68 41
       15.626917 7.457059 6.7155066 14.5227785
000210 e0 3c 5e 41 d1 61 90 41 a1 e3 97 41 80 b3 85 c1
       13.889862 18.047762 18.986147 -16.712646
000220 5f a6 a7 c1 02 60 a2 41 aa d7 5b c1 c5 16 31 41
       -20.956236 20.296879 -13.740152 11.068059
000230 d3 34 08 42 e7 7a b1 41 07 78 a6 41 40 2f 97 41
       34.051586 22.18501 20.808607 18.898071
000240 25 2e 1e 42 c3 63 98 41 22 22 b7 c1 af 25 3f 3f
       39.545063 19.048712 -22.891666 0.74666876
000250 10 9a 15 40 ec c4 94 41 f7 17 9b 41 a8 1e 54 c0
       2.3375282 18.596153 19.386702 -3.314371
000260 8f 1e bd 41 5f 0b 8c 41 9a 0f 2c c1 1a 72 33 c2
       23.639921 17.505552 -10.753809 -44.861427
000270 bd 7c 5e c1 c3 1a dd 40 c5 63 c6 41 e5 c9 be c0
       -13.905454 6.909517 24.798716 -5.9621453
000280 86 89 98 41 f0 a6 d0 c1 1f a4 9b 41 8d 92 1d 42
       19.06715 -26.081512 19.455137 39.393116
000290 cc a4 ed c1 17 14 49 3f c2 3e 5e 41 18 53 5d 41
       -29.705467 0.7854628 13.890322 13.832787
0002a0 5f a4 13 c1 72 5b 52 41 a2 ba 49 be f4 96 90 41
       -9.22763 13.1473255 -0.19700101 18.073708
0002b0 a4 6c c4 3f 8c cd 6c 41 bb f8 a3 41 4c 26 96 41
       1.5345654 14.800182 20.49645 18.7687
0002c0 66 d5 00 c1 fe 86 60 41 22 3a 18 41 66 b8 92 41
       -8.052099 14.032957 9.514193 18.340038
0002d0 8b 6e 72 c1 00 c1 9e 41 95 c5 57 c1 f2 65 62 41
       -15.151988 19.844238 -13.485738 14.149889
0002e0 73 62 ff c0 55 78 c1 41 cf bd 87 41 e9 af bb 41
       -7.9807677 24.183756 16.96768 23.460894
0002f0 50 fc 97 41 d4 aa 33 42 89 57 c8 41 36 69 54 41
       18.9982 44.916824 25.042742 13.275686
000300 1e 10 56 c1 7c 10 0f c1 4d 46 12 c1 ec 9b 79 40
       -13.378935 -8.9415245 -9.142163 3.9001417
000310 bd a0 50 c1 da 55 17 c1 65 11 81 c1 47 4f 16 c0
       -13.039243 -9.45846 -16.133493 -2.3485887
000320 1c 28 94 c1 9c cc 3d c1 4c 26 55 c1 fe 43 84 40
       -18.519585 -11.862453 -13.32185 4.1333
000330 67 35 03 c1 42 12 2a c1 4c 78 32 c1 b9 c5 02 c1
       -8.200538 -10.629457 -11.154369 -8.173272
000340 90 83 69 c1 b8 11 6f c1 78 bb 3c c1 97 04 38 c1
       -14.59462 -14.941826 -11.795769 -11.501121
000350 d3 09 86 c0 66 c7 27 c1 a2 a8 0b c1 ed fe 8d bf
       -4.1886992 -10.486181 -8.72867 -1.1093422
000360 52 ee 80 c1 b8 18 26 c1 af d1 96 c0 47 29 44 c0
       -16.116367 -10.381035 -4.713096 -3.0650194
000370 35 61 21 40 48 45 10 c1 c5 9a 85 c1 80 e6 d5 40
       2.521558 -9.016914 -16.700571 6.684387
000380 26 9c 2e c1 07 83 c0 40 3c 0e 1e c1 de c7 d1 c1
       -10.913122 6.0159945 -9.878475 -26.222591
000390 45 a9 eb 40 7e 82 20 c1 e4 8f 67 c1 14 38 09 c1
       7.364413 -10.031858 -14.47263 -8.576191
0003a0 25 5d c0 40 b2 f6 1a bf 2b 11 c3 3f d4 1e b4 c0
       6.01137 -0.6053268 1.5239614 -5.628763
0003b0 17 8e a5 c1 88 9b 61 c1 a1 ee 30 c1 f7 be 23 c1
       -20.69438 -14.1004715 -11.058259 -10.234122
0003c0 41 54 b4 c1 4f 29 48 c1 a3 73 7f 40 85 2f 18 c1
       -22.54114 -12.510085 3.991433 -9.511601
0003d0 e3 06 70 40 60 21 af c0 69 cb 1a 40 29 70 5a c1
       3.7504203 -5.472824 2.4186652 -13.652383
0003e0 f9 71 4e 41 3a b2 77 c1 1e 01 79 c1 a3 3d 0d c1
       12.902825 -15.481012 -15.562773 -8.827548
0003f0 2b 07 4a c1 8e 62 76 c1 36 8a 24 c1 bc 01 95 40
       -12.62675 -15.399061 -10.283743 4.6564617

feature_layers.1.bias f4 [32]
000000 56 22 fe c0 57 b6 5f 3f 3d 14 bf c1 3d 65 4d 41
       -7.9416914 0.87387604 -23.884882 12.837216
000010 07 47 eb c0 32 2e 55 41 4d ee 72 c1 b1 8e f1 c0
       -7.3524203 13.323778 -15.183179 -7.5486684
000020 f3 3b 3e c1 31 39 8c c0 35 c5 ae bf 2c 0a 25 c1
       -11.889636 -4.3819814 -1.3653933 -10.314983
000030 5b ad d8 c0 fb b0 38 c0 c7 99 8a bf fa 52 ec c0
       -6.7711616 -2.885802 -1.0828179 -7.385129
000040 f9 9e ab c0 77 8d 8f c0 7e a6 e1 c0 7b b2 0a 41
       -5.363156 -4.4860187 -7.0515738 8.668574
000050 91 7a 14 c1 c8 75 e3 c0 ff 22 bb c0 cb 75 1c 40
       -9.279923 -7.1081276 -5.848022 2.4446895
000060 01 35 1a c1 f9 f7 64 c2 6a dc e2 c0 e3 a1 ca c0
       -9.63794 -57.24216 -7.089406 -6.3322616
000070 ba f9 65 c1 1c be c6 c0 c8 c5 35 c2 84 a4 11 c0
       -14.373468 -6.2107067 -45.443146 -2.2756662

value_stream.0.weight f4 [16, 32]
000000 f9 42 df be 6d 4b 02 c0 db d3 8f 3e 8d 66 72 3e
       -0.43605784 -2.0358536 0.2809132 0.23671933
000010 72 73 31 bf 61 51 dd bd 34 0d 24 bf 8c ce 83 3e
       -0.6931678 -0.108065374 -0.64082646 0.2574352
000020 dd 21 3e bf 71 a3 4f bd 38 58 00 be 1e 19 58 bf
       -0.7427042 -0.05069298 -0.12533653 -0.84413326
000030 bb fc 93 be c0 fc ca 3e ec 43 e0 be 9b 64 3e 3f
       -0.28903756 0.39645958 -0.4380182 0.7437226
000040 0e 6a 37 bf 5a 28 53 be 56 c7 18 3f f3 60 87 3b
       -0.716462 -0.20620862 0.5967916 0.0041314303
000050 ae 53 d7 bd 40 9e 46 bf 31 fd 8d 3e 64 92 9b 3e
       -0.105140075 -0.7758522 0.27732232 0.30385125
000060 bf ab 3e 3e b7 62 85 be 77 30 c8 3e 26 33 e9 be
       0.18620203 -0.26051876 0.39099476 -0.45546836
000070 ba bc e0 be f0 28 34 3f 34 6d 33 bf 6c 7e ab 3e
       -0.43893987 0.70374966 -0.70088506 0.3349489
000080 5a 8e 0d 3d 94 58 22 c0 3c b6 29 be 92 56 9e be
       0.034559585 -2.5366564 -0.16573423 -0.30925423
000090 bd 39 d3 be 5e 7f cc bd 9f 7d 9a bf ba 88 16 bf
       -0.41254988 -0.09985231 -1.2069587 -0.5880238
0000a0 49 86 ee be c0 bd 55 bd 6f 46 29 bf 0d 91 86 3c
       -0.46586826 -0.052182913 -0.661231 0.016426587
0000b0 6c fc 09 3f fd 07 b0 3e 46 c7 07 bf 19 44 41 3f
       0.5390079 0.34381095 -0.5303844 0.75494534
0000c0 e6 8e 22 bf 3f 34 42 be cd 29 02 3f e3 3f 4a 3e
       -0.63499296 -0.18965243 0.5084503 0.19750933
0000d0 b3 20 be be aa 0e 04 c0 6d 22 7b 3d 4c 37 be bd
       -0.37134323 -2.063395 0.061312128 -0.09287891
0000e0 b6 12 ad 3e ac db b9 3e 74 56 f9 3e db 44 2e bf
       0.33803338 0.3630041 0.4869877 -0.68073815
0000f0 d7 41 c8 be b0 84 63 3f 93 e0 b5 bf 85 9f e0 3d
       -0.39112732 0.8887434 -1.420916 0.10967926
000100 35 ec 02 c0 1b 70 2c c0 40 db ee be f3 7f 59 bf
       -2.045667 -2.6943424 -0.4665165 -0.8496086
000110 3e da 92 3e ad bc aa 3d a8 01 03 3e 84 1d a1 c0
       0.2868213 0.08336768 0.127936 -5.034853
000120 43 37 8c c0 1d 36 9a bf 64 b0 09 3e 88 b1 9b c0
       -4.381746 -1.2047764 0.13446194 -4.8654213
000130 f1 42 8e c0 a2 46 a3 bf ae b2 0c 41 a9 a9 90 c0
       -4.4456716 -1.275593 8.793623 -4.5207105
000140 47 4b 20 bf a5 92 19 be 30 d2 3a 3f f5 da ad 3f
       -0.62614864 -0.14997347 0.7297697 1.3582445
000150 15 73 40 c0 7d 61 99 40 dd ba 51 3f eb 5a 2f c0
       -3.007024 4.7931504 0.81925756 -2.7399242
000160 02 4a 3a c0 59 d5 40 40 6e 51 20 c0 48 d6 ab c0
       -2.910767 3.0130217 -2.50497 -5.3699074
000170 2a 4a 6e 40 12 a1 c5 c0 8b 12 36 bf bb 4f 55 c0
       3.7232766 -6.175912 -0.71122044 -3.3329914
000180 ef cc 30 bf c3 f9 14 c0 34 d9 5a 3e 89 e9 16 bd
       -0.69062704 -2.3277442 0.21371919 -0.03684381
000190 7b 7e 0b bf 8a c4 03 be 53 a9 1f bf fd c9 93 be
       -0.5448987 -0.12867942 -0.62367743 -0.28865042
0001a0 41 85 46 bf 2f f5 3d 3d b2 c1 42 be d7 84 8d be
       -0.7754708 0.046376403 -0.19019201 -0.2764041
0001b0 8c 2d 95 be b9 70 58 3f 3b cd 6c bf 7f b3 4c 3f
       -0.29136312 0.84547 -0.92500657 0.7996139
0001c0 0f cd 0a bf 26 12 60 be 13 82 b8 3e 19 34 b8 bd
       -0.54219145 -0.21881923 0.3603674 -0.08994312
0001d0 de 27 b7 3e 38 29 10 be 00 c5 a0 bd 74 9c 6e 3e
       0.35772604 -0.14078224 -0.07850075 0.2330187
0001e0 b3 7e 00 3f 78 f3 2f bf 1d b7 8b 3e 4a 52 6b bf
       0.5019333 -0.6873088 0.27288142 -0.9192244
0001f0 09 94 14 bf 4c b5 43 3f 6d 17 1c bf 3d 5c 96 3e
       -0.58038384 0.7644851 -0.60973245 0.29367247
000200 7c 41 46 be 00 77 bf bf 5e 0d c0 3d 63 37 21 3e
       -0.19360918 -1.4958191 0.093775496 0.15743785
000210 88 58 9a be 06 88 aa bd 9e cd 13 bf 1b 70 c8 3e
       -0.3014567 -0.08326726 -0.5773562 0.3914803
000220 ef 3c de be d6 15 5c 3e 68 66 ac 3d d7 0c 77 bc
       -0.43405864 0.21492705 0.0841797 -0.015078745
000230 b6 a6 af bd cc df f7 3e ce e0 d6 bf 0c 37 2e 3f
       -0.085767195 0.4841293 -1.6787355 0.68052745
000240 28 6d 0e bf dc d3 3e be 7b 58 dc 3e ef 56 ab bd
       -0.5563531 -0.18635505 0.43036255 -0.08366191
000250 e2 e8 83 bd 34 77 1d bf 0d 32 da be f5 66 5c 3e
       -0.06440903 -0.61510015 -0.4261631 0.2152365
000260 af e0 b0 3e 0a 8d e8 bd f4 7c ae 3e 0f 97 45 bf
       0.3454642 -0.11355026 0.34079707 -0.7718362
000270 aa 9e ae be 6b 05 0c 3f f2 db 3d bf cf 4c ca bd
       -0.34105426 0.5469577 -0.74163735 -0.09877931
000280 17 96 0a bf 4e e4 00 c0 3e 36 94 3e aa 32 ff bd
       -0.5413527 -2.0139346 0.28947634 -0.12460835
000290 a1 32 5d be b3 26 e3 bd bb 40 24 bf ff 3f 62 3e
       -0.21601345 -0.11091366 -0.6416127 0.22094725
0002a0 78 78 54 bf fe 12 9d 3e 1b 88 5c bd 1c 00 a3 bd
       -0.8299632 0.30678552 -0.053840738 -0.07959005
0002b0 17 b2 59 be 34 96 d3 3e e9 18 82 3e fd 5b 4d 3f
       -0.21259342 0.41325533 0.2540963 0.8021849
0002c0 81 e5 59 be ca 95 c6 bd 01 4c 1d 3f 46 8b 9d be
       -0.21278955 -0.09696539 0.614441 -0.3077032
0002d0 d5 c2 22 3d ea d8 4b bf 1e 82 a9 be 25 50 a3 3e
       0.039736588 -0.7962786 -0.33107084 0.31897083
0002e0 61 7d 63 3e fc da 60 bf 6a ac cb 3e a4 3c 41 bf
       0.22215797 -0.87834144 0.3977998 -0.75483155
0002f0 04 64 6c bd b5 b7 63 3f c7 26 02 bf be a7 54 3e
       -0.05771257 0.8895219 -0.5084042 0.20767114
000300 2d 4f 76 be d3 d3 18 c0 0e f3 29 be 64 fa 7f bd
       -0.2405364 -2.3879287 -0.16596624 -0.06249465
000310 09 01 d7 be a3 3d 0c be 7c b3 a6 bf 65 59 77 3f
       -0.41992977 -0.13695388 -1.3023524 0.9662078
000320 48 a7 6d bf 82 30 20 3e 2a 46 10 be 00 41 6b bf
       -0.92833376 0.15643504 -0.14089265 -0.9189606
000330 ea 04 a6 3e 0e 65 29 3f 5f 86 93 bf ce 02 78 3f
       0.32425624 0.6616982 -1.1525382 0.9687928
000340 e0 c7 5d bf 0e de 4a be 3a c6 98 3e e6 70 87 3e
       -0.8663311 -0.1981127 0.29838735 0.26453322
000350 d1 4d 4b bd 6b 5e c9 be cc aa d6 be a5 5d 89 3e
       -0.04963476 -0.39329848 -0.41927183 0.26829258
000360 69 16 c3 3e c7 be 06 bf 23 17 f9 3e a0 15 bb bf
       0.38103035 -0.52634853 0.48650464 -1.4615974
000370 a7 fb 10 bf ce b7 91 3f df 2e b4 bf 84 ce 85 bd
       -0.5663399 1.1384218 -1.4076804 -0.0653353
000380 88 a3 9a bf 1b d3 c8 bf 6a 74 ba 3e b1 3d ec 3d
       -1.2081156 -1.5689424 0.36416942 0.11535204
000390 06 a4 4d bf 6e 82 15 be 84 53 3b 3f be 72 5d 3f
       -0.80328405 -0.14600536 0.7317431 0.8650321
0003a0 71 e7 9c 3d 2d ac 71 3e 96 a1 74 3e 25 5e 26 bf
       0.076613314 0.23600836 0.23889765 -0.64987403
0003b0 58 9f b7 bf 4e 9c 13 3f 2f 1b 2b 3e 91 98 ec 3e
       -1.4345503 0.5766038 0.16709588 0.4621015
0003c0 6c 42 7c bf 35 c2 94 be c9 98 67 3f 63 f5 16 be
       -0.9853885 -0.29054418 0.90467507 -0.14742045
0003d0 22 a3 a9 bd 59 ad 94 3f 0a fb bb be d3 49 d7 bd
       -0.08283068 1.1615402 -0.36714965 -0.10512128
0003e0 22 0c 17 3f 84 63 b7 bd af 26 25 3f ed a9 37 3e
       0.5900289 -0.08954528 0.6451215 0.17935915
0003f0 85 11 d2 c0 4e 6b 95 3f e7 9f 0c bf 1f ca 3b 3f
       -6.5646386 1.1673372 -0.5493149 0.7335529

value_stream.0.bias f4 [16]
000000 3e e1 db 41 ff ec da 41 d5 f8 41 41 7b 63 cf 41
       27.484982 27.36572 12.12325 25.923574
000010 a4 5c cb 41 9b 51 d9 41 19 1f d5 41 bf e3 cb 41
       25.420235 27.164846 26.640184 25.486204
000020 35 f0 ee 41 3f e7 bf 41 2c 3a 87 41 93 9d ea 41
       29.867289 23.987913 16.903404 29.32694
000030 9a 1d db 41 2e 11 d2 41 14 8d d4 41 d4 d6 d5 41
       27.389454 26.258389 26.568886 26.729897

value_stream.2.weight f4 [1, 16]
000000 b3 eb 11 bc 28 af 80 bb a6 35 04 be 2c 79 6b 3b
       -0.008906293 -0.0039271303 -0.1291109 0.0035930378
000010 f4 1b 0d bc 29 6f bd 3a b9 8b b1 bb 34 43 c7 bb
       -0.008612622 0.0014452684 -0.0054182676 -0.0060810093
000020 a5 6a a7 3b f8 20 9e 3d 10 28 d2 ba 3f 28 be 3a
       0.0051091486 0.07721132 -0.0016033668 0.0014507844
000030 c0 24 1d 3c 2e 20 de 3b ae 54 91 bc f6 de ab bc
       0.009591281 0.0067787385 -0.017740574 -0.02098034

advantage_stream.0.weight f4 [16, 32]
000000 b3 66 0a c0 d0 d5 7d 3f ec cb 62 bd 16 14 e4 bf
       -2.1625183 0.99154377 -0.055370256 -1.781863
000010 45 26 a9 bf b3 e7 cf bd 79 7d e5 bf 92 4a 6f bd
       -1.3214804 -0.10151615 -1.7928916 -0.058420725
000020 17 e1 2f bf 6e 24 13 be fa bd a6 be 3a 3a 32 3e
       -0.68702835 -0.14369366 -0.32566816 0.17405024
000030 c6 8e 73 be a7 4a 18 3f 8d c3 84 3f 74 f8 83 3f
       -0.23784932 0.5948891 1.0372177 1.0310197
000040 1b 05 6c bf 41 cc bc bf 91 19 6a 3f f9 23 13 3f
       -0.9219529 -1.4749833 0.9144526 0.57476765
000050 90 f4 2a 3e d4 73 48 bf 9e 17 eb be e7 35 7c 3e
       0.16694856 -0.7830174 -0.45916456 0.24629937
000060 a3 59 ef 3e 91 55 0a bf ec ee 4d 3d 7e f6 9c be
       0.46748075 -0.54036814 0.05027668 -0.3065681
000070 de 92 9a bf e4 d3 31 3f d7 7d 9e 3e 0f 5b 48 3e
       -1.207607 0.69463944 0.30955383 0.19565986
000080 3e 83 e3 be 95 2f 3d c0 91 f8 1c bf b4 a2 30 be
       -0.44436067 -2.9560292 -0.6131678 -0.17249566
000090 24 4a 26 bf 89 fa c5 bd 37 31 9b bf d4 60 e6 be
       -0.6495688 -0.096669264 -1.2124394 -0.4499575
0000a0 b4 e9 b8 bf 36 30 f9 3d b8 f9 c4 bd 26 27 0f 3d
       -1.444632 0.12167399 -0.096179426 0.034949444
0000b0 4c 7e 03 be 2b 5a 36 3f 07 ac 77 be c6 ac 64 3f
       -0.12841147 0.71231335 -0.24186717 0.8932613
0000c0 28 48 d0 be 58 23 cd bc 60 99 ff 3e 5d 3a e7 3d
       -0.4068005 -0.025041267 0.49921703 0.11290429
0000d0 1f 5a 5f 3e 49 6a 18 bf 75 76 0f bd 69 1a e8 3d
       0.21811722 -0.5953718 -0.03502508 0.11333162
0000e0 ed 65 44 3e 34 f1 1f bf b2 f6 da 3d 1e 9c 8e bf
       0.19179507 -0.6247742 0.10691585 -1.1141393
0000f0 69 ff ae 3d 01 c6 77 3f 9f d4 87 be 76 f9 c8 3e
       0.08544809 0.96786505 -0.26529405 0.39252824
000100 d9 a5 6c bf e0 fd 89 bf 54 56 0e 3e 00 84 85 bf
       -0.92440563 -1.0780602 0.13900119 -1.0430908
000110 4d ef 33 bf 6e 26 00 be 70 47 7f bf 43 4f 73 3e
       -0.7028702 -0.1251466 -0.9971838 0.23760705
000120 2f 87 78 bf 91 9d 2e 3e a0 9d 0f 3d 44 c0 3a 3e
       -0.97081274 0.17052294 0.035062432 0.18237406
000130 33 a5 43 bf ec c0 23 3f d4 a2 b1 bf b5 9c 56 3f
       -0.7642395 0.6396625 -1.3877816 0.83832866
000140 c3 e1 76 bd 4e 2f b5 be 1d 3c 22 3f 27 5b a2 3e
       -0.060273897 -0.35387653 0.63372976 0.3171017
000150 bd 49 18 3d b1 95 82 be a1 81 d6 be a8 80 3d 3c
       0.037179697 -0.2550483 -0.41895774 0.011566319
000160 f8 cd e1 3e 3e 7f 1a bf f5 1a c4 3e cc 17 08 3f
       0.44102454 -0.60350406 0.38301817 0.5316131
000170 0c cb a2 bf 1c 5e 8a 3f d0 4f 1d bf 44 dd d0 3e
       -1.2718215 1.080997 -0.6144991 0.40793812
000180 c0 00 24 bf 92 37 99 bf 6d c3 ba 3d 21 83 87 bf
       -0.64063644 -1.1970084 0.09119306 -1.0586892
000190 b9 ac ae bf 27 71 f3 bd 4f dd df bf 4b ef 09 bc
       -1.3646461 -0.118868165 -1.7489413 -0.008418868
0001a0 aa ec 07 bf 0e d6 bd 3e ab 04 05 bd 9a 0a 39 3e
       -0.53095496 0.37077373 -0.032475155 0.1807045
0001b0 09 0e 0a bf db 04 08 3f 15 33 03 be 5d 1a 93 3f
       -0.53927666 0.5313241 -0.12812455 1.149242
0001c0 87 41 53 bf 49 ad d0 be 62 a9 11 3f 94 74 32 3e
       -0.8252186 -0.40757206 0.5689908 0.17427284
0001d0 d3 99 16 3f 95 3b e4 be 5d 0a 52 bf 22 ae af b9
       0.5882847 -0.44576707 -0.82047063 -0.0003350834
0001e0 1f b4 3d 3f df 03 3f bf cf df a1 3e e6 8d 55 be
       0.7410297 -0.7461528 0.31616065 -0.20854911
0001f0 bc e8 34 bf 4e 37 85 3f 23 e4 46 be cd ae 18 3e
       -0.70667624 1.0407503 -0.19422965 0.14910431
000200 09 8e 59 bf 90 e2 51 c0 ba 15 84 be 46 92 27 3e
       -0.84982353 -3.2794533 -0.25797826 0.16364393
000210 46 56 9d be b6 aa de bd 66 aa a1 bf 55 ad 91 bc
       -0.30729884 -0.10872404 -1.2630126 -0.017782846
000220 59 bd 34 bf ea 82 c8 3d a8 d4 35 be e6 cd 6e bc
       -0.7060142 0.09790595 -0.17756903 -0.014575457
000230 f2 cc b1 be 60 67 34 3f 1c 8b c1 3f 91 e3 49 3f
       -0.34726673 0.7047024 1.5120578 0.78862864
000240 89 6e 10 be a4 e8 71 bd e6 37 90 3e 97 3f 21 bc
       -0.14104666 -0.059059754 0.28167647 -0.009841821
000250 29 2e 53 3e b9 20 96 3e 28 0f 82 3d 67 81 c5 3b
       0.20623077 0.2932184 0.06350547 0.006027389
000260 d8 e3 ed 3e 02 70 58 bf 48 be eb 3e 6e 41 19 3e
       0.46462893 -0.8454591 0.4604361 0.14966366
000270 da 8e 67 3e 4a d5 60 3f 40 43 9b bf d9 f5 83 3e
       0.22613087 0.87825453 -1.2129898 0.25773504
000280 84 20 18 bf b0 b6 36 c0 67 42 9e be f7 49 02 bf
       -0.59424615 -2.8549004 -0.30910036 -0.5089411
000290 f9 8e a7 be 2e 10 d3 bd 2f 12 76 bf 47 15 f3 3e
       -0.32726267 -0.103058204 -0.96121496 0.4747717
0002a0 37 c9 03 bf f5 e1 38 3b e9 6d c0 3c d6 4d b7 3e
       -0.51478904 0.0028210853 0.02348991 0.35801572
0002b0 1d 9c 5b 3e 85 08 02 3f 7a 24 33 3e 92 50 42 3f
       0.21446271 0.5079425 0.17494383 0.7590419
0002c0 cd f5 fb 3d 12 c3 07 bd 68 fa eb 3e 3d 40 8f 3e
       0.12302742 -0.033145018 0.46089482 0.27978697
0002d0 a7 d0 d8 bd 46 6f 33 3e ab cf d8 bd df dd 4a 3e
       -0.10586672 0.17522916 -0.105864845 0.198112
0002e0 db 04 81 3e 8a 9c 8b bf 7f a6 8b 3e 01 b0 95 bf
       0.25199017 -1.0907147 0.27275464 -1.1694337
0002f0 19 84 95 bc 31 ae 37 3f 5c 4b 2c bf c4 90 bf 3d
       -0.018251466 0.7175017 -0.6730249 0.09353784
000300 49 da 0b bf 28 aa c1 c0 d7 b0 1d be cd c4 5f 3f
       -0.5462995 -6.052021 -0.1539949 0.8740967
000310 f5 e3 c2 bc 8d bb f3 bd 6a fe 5d bf 36 2e 83 3f
       -0.023790339 -0.11901007 -0.8671633 1.0248477
000320 b6 d1 c7 bf f3 56 22 3e 8e 4b 27 be 4b 96 b5 be
       -1.5610874 0.15853481 -0.16337416 -0.35466227
000330 eb 2b eb 3d 66 7a 05 3f 1f f2 80 bd e3 56 82 3f
       0.11482986 0.5213989 -0.06296181 1.0182766
000340 0d cb 29 bd a2 48 6b be ea 1f 25 3f 8e 68 98 be
       -0.04145341 -0.22976926 0.6450182 -0.2976727
000350 2a 2e b6 be 82 15 94 bf fd 5e 4c be 24 79 55 be
       -0.35582095 -1.1569064 -0.1995811 -0.20846993
000360 b0 d6 17 3f 5c 8d e7 be b1 bd 88 3e 80 ac a6 bf
       0.5931196 -0.45225036 0.26707223 -1.3021393
000370 c4 a2 d2 bd 16 6f 78 3f a7 f3 cc bf 55 80 94 3e
       -0.10284951 0.97044504 -1.6011857 0.2900416
000380 3d 50 f9 be 34 31 0c c0 49 6f 98 3d eb cf 71 3e
       -0.4869403 -2.1905031 0.07443101 0.2361447
000390 e4 6d 6a bf 33 b2 ef bd 71 56 ba bf fa fc 91 be
       -0.9157393 -0.11703911 -1.455763 -0.28513318
0003a0 ec 52 56 bf 27 86 25 3e 49 e1 ac 3e ca 98 12 3f
       -0.8372028 0.16164456 0.3376563 0.5726439
0003b0 0a 63 9e 3e 6e 7f ed 3d 35 76 99 3e 43 b2 ca 3e
       0.30934936 0.11596571 0.29972997 0.39589128
0003c0 37 7f 92 be 42 5a b7 3e bd 0b 09 3f 23 95 ab bf
       -0.28612682 0.3581105 0.53533536 -1.3404888
0003d0 62 0e 5b 3e fd fd 93 bf e7 fe 9f 3d de f4 46 be
       0.21392205 -1.1561886 0.07812291 -0.19429347
0003e0 86 d6 a5 3e 38 68 b7 be af 67 56 3f 2e 86 b7 bf
       0.3239023 -0.358217 0.8375196 -1.4337823
0003f0 f3 1b aa be 86 ea 13 3f ca 56 55 bf 16 d4 66 3e
       -0.3322445 0.5777973 -0.83335555 0.22541842

advantage_stream.0.bias f4 [16]
000000 4e 6a e7 41 69 c6 d5 41 ed 2c e0 41 82 80 de 41
       28.926907 26.72188 28.021936 27.812748
000010 bc eb de 41 31 ab e2 41 19 96 de 41 d8 67 d8 41
       27.865105 28.33359 27.82329 27.050705
000020 7b 37 d2 41 07 77 ce 41 45 08 dc 41 65 dc de 41
       26.27709 25.808119 27.504038 27.857615
000030 e3 54 de 41 eb b2 e9 41 34 1f e0 41 dd ea f2 41
       27.791449 29.212362 28.015236 30.36468

advantage_stream.2.weight f4 [8, 16]
000000 18 0c 67 3e b4 d0 92 3d ce 76 02 be b0 2e 6f 3d
       0.22563207 0.07168713 -0.12740633 0.058394134
000010 28 8c 32 be e8 e3 68 be 40 59 e9 3d 40 42 db 3c
       -0.17436278 -0.2274319 0.11393976 0.026764989
000020 34 c7 8b 3d c2 48 1f 3e 30 7e c3 bd 7c ae 04 be
       0.06825104 0.15555099 -0.09545553 -0.12957186
000030 3e fa 67 3e d8 96 38 3d d0 a5 4f be ec bc 9f bd
       0.22654054 0.04506573 -0.20278096 -0.07799706
000040 9a 3a 27 be 80 34 5e bb dc ef 3b be fa fe 57 be
       -0.16330948 -0.0033905804 -0.18353218 -0.2109336
000050 c4 cb e9 bd d0 1f fc 3c d8 f5 43 3e 22 13 11 be
       -0.11415818 0.030776888 0.1913675 -0.14167455
000060 c8 ad 06 bd 34 83 6b be f0 fd 35 3d c2 67 5f 3e
       -0.032880574 -0.22999269 0.044431627 0.21816924
000070 16 22 2f be 74 b6 4b be de 43 0c be 98 df 75 be
       -0.17102847 -0.19893819 -0.13697764 -0.24011075
000080 10 ad 95 bc 18 2b 28 3e 18 7d 52 3e d0 39 5a bd
       -0.018271 0.16422689 0.20555532 -0.05327779
000090 f8 5b 48 bd fc 75 64 be 40 d3 4a 3c 3e 90 4d be
       -0.048915833 -0.22310632 0.0123794675 -0.20074555
0000a0 26 4b 5c 3e f6 a7 64 3e 74 13 8a 3d a8 da b2 bd
       0.21513042 0.22329697 0.06741992 -0.087331116
0000b0 80 3c a2 3c 28 c8 04 bd ac f2 01 be fa 5a 34 be
       0.01980424 -0.032417446 -0.12690228 -0.1761283
0000c0 10 e2 0a 3d 8c 52 b9 3d a6 8a 53 3e 28 d8 86 3d
       0.033906996 0.09048948 0.20658359 0.06584197
0000d0 56 9d 69 be ee dd 78 3e c6 20 21 3e 84 32 1a be
       -0.22813925 0.2430341 0.15735158 -0.15058333
0000e0 20 80 da 3c 80 13 dd bc 46 78 6b be 80 2a 35 bd
       0.026672423 -0.026986837 -0.229951 -0.044229984
0000f0 24 ac 8f bd 90 df 6f 3d 18 20 2f bd dc 5f 9b bd
       -0.07015255 0.058562815 -0.042755216 -0.07586643
000100 18 75 3b bd c8 98 5b 3e 30 80 9c 3c 60 fc f7 3d
       -0.045765966 0.21445 0.019104093 0.121086836
000110 ba 9f 68 3e 68 81 a6 3d 10 31 73 bd b0 33 a3 bd
       0.22717181 0.08130151 -0.05937296 -0.07968843
000120 68 fb 14 bd b4 8a 39 3e a4 76 76 3e 6c 75 91 3d
       -0.036372572 0.18119317 0.24068695 0.071024746
000130 20 a1 6c 3e 50 55 41 bd a0 70 2d 3e 50 9f 1e 3d
       0.2310834 -0.0472005 0.16937494 0.03872615
000140 10 84 79 3d 30 12 bf bd 3c 18 8e 3d e6 8a 79 be
       0.06091696 -0.09329641 0.06938216 -0.24369392
000150 a6 7d 72 3e b0 93 43 be cc fa 60 3e 86 08 2d be
       0.23680744 -0.19099307 0.21970671 -0.16897783
000160 48 7b 75 bd 90 cf fb bc e0 e3 f8 3d 16 bc 3e be
       -0.059932023 -0.030738622 0.12152839 -0.18626437
000170 d0 ac d8 bc 44 00 19 be a4 61 56 3e f0 00 be bc
       -0.02644959 -0.14941508 0.20935684 -0.023193806
000180 6c 69 46 3e b6 ef 78 be 46 f5 5f be bc 2e 2e 3e
       0.19376153 -0.24310192 -0.21870908 0.17010015
000190 26 63 17 be 20 c9 0b 3e 00 b0 7e 3e 52 b6 2e be
       -0.14783916 0.13650942 0.24871826 -0.17061737
0001a0 e0 f0 c7 3c 00 39 a1 bb a0 e5 bd bd 40 04 15 bc
       0.02440685 -0.004920125 -0.09272313 -0.009095252
0001b0 28 a5 4f 3e bc d7 d2 3d 86 65 28 3e f8 8b f0 bd
       0.20277846 0.10295054 0.16444978 -0.11745447
0001c0 22 35 7a 3e c8 cf ed 3d 34 f6 b7 bd fc 43 bc bd
       0.24434331 0.11611897 -0.089825064 -0.091926545
0001d0 36 44 66 3e 8c 1d 31 be 88 be 8a 3d 20 84 a6 bd
       0.22486958 -0.17296427 0.06774622 -0.081306696
0001e0 26 a1 6b 3e 3c 18 54 be 60 b2 98 3d 30 63 25 bd
       0.23010692 -0.2071237 0.07455897 -0.040377796
0001f0 18 67 14 be 58 e4 74 bd 04 28 bd 3d f6 e2 2b be
       -0.14492452 -0.059788078 0.09236148 -0.16785797

advantage_stream.2.bias f4 [8]
000000 c0 af d7 3b 6c c1 fa bd 10 51 09 be 5e 20 75 3e
       0.0065822303 -0.122439235 -0.13409829 0.23938128
000010 16 cc 47 3e 9c e0 37 3e e2 76 4a be 40 7a f0 3c
       0.19511446 0.17956775 -0.19771913 0.029355168
